models_slbp+gf/case2_final.pth (torch_old, 110331 bytes, 9 tensors)

conv1.conv.3.weight f4 [32, 32, 1, 1]
000000 ec ce 3e 3d ce b4 15 3e 66 e1 49 be 21 c3 34 be
       0.046584055 0.14619753 -0.19714889 -0.17652561
000010 79 89 c8 bc 89 23 04 3e b6 52 c6 bd 1d d8 aa 3d
       -0.024479615 0.1290418 -0.096837446 0.083420016
000020 b8 5c 98 3d a6 5a c1 3c 85 c8 82 3d d9 10 12 3e
       0.0743956 0.023602795 0.06385902 0.1426424
000030 ae 71 80 be 97 d6 93 3d f5 a2 45 3c 2c 3e f9 3c
       -0.2508673 0.07218664 0.012062778 0.030425154
000040 2a df 18 bd 99 b1 35 3d a1 9a 39 3e f4 92 53 3e
       -0.0373222 0.044358823 0.18125392 0.20661527
000050 d3 92 0e be ea 56 35 be 6f 40 85 3e 6b 52 01 3e
       -0.13923196 -0.17708936 0.2602572 0.12629096
000060 91 51 19 be 47 05 ce bd 48 74 47 3e 67 cd a2 3c
       -0.14972521 -0.100596 0.19477952 0.019873334
000070 8b 2e ac bd 70 61 24 bd 78 d8 49 3e 8f 9d a3 bd
       -0.08407315 -0.040131986 0.19711483 -0.07989036
000080 bf f1 3a be fe 75 60 3e 60 1c b2 3d b4 5e 57 be
       -0.18256281 0.2192001 0.08696818 -0.2103222
000090 d5 0a df 3d 90 d3 fb 3d eb 56 a2 3d e7 60 97 bc
       0.10890738 0.12296212 0.079267345 -0.018478824
0000a0 71 02 2e be b9 67 1c 3d ca 53 f5 bd 7f 23 10 be
       -0.16993119 0.038184855 -0.11978872 -0.1407604
0000b0 22 52 cb bc 88 f4 01 be 6e c9 db 3d 2f 67 77 be
       -0.024819437 -0.12690938 0.10731779 -0.24160455
0000c0 11 22 52 bd 9d ec 31 be 02 c5 6c 3e 1e 55 25 3d
       -0.05130202 -0.17375417 0.23122028 0.040364377
0000d0 86 f8 bf bd 37 b7 a0 3e 70 04 a8 3e cc db 82 3d
       -0.09373574 0.31389782 0.32815886 0.06389579
0000e0 26 1c b0 bc 46 bd 35 3e 95 35 39 3d 38 8d 39 bd
       -0.021497797 0.17747983 0.045217115 -0.045300692
0000f0 d9 37 c1 3d 35 74 34 3e 98 17 ad 3d 35 e1 30 bd
       0.0943448 0.17622454 0.08451766 -0.043183524
000100 20 2a 41 bd bf 03 02 be cb 2c 3d be 81 86 0c bb
       -0.047159314 -0.12696742 -0.18474118 -0.0021442475
000110 97 6b 19 be e0 b0 bf bc 9f 43 45 3e 2d 8a b9 3c
       -0.14982449 -0.02339977 0.19264077 0.022648895
000120 cf c1 23 be b6 31 67 3d 24 9b 70 bd ac cd 1b bd
       -0.15991901 0.056443892 -0.058741704 -0.03803794
000130 5e 43 4c 3e 1d a5 8d bd 57 83 01 be f8 e2 8c 3d
       0.19947574 -0.069162585 -0.12647758 0.06879228
000140 87 05 50 3e 96 51 53 bd 3a 52 3d bc 73 34 3d be
       0.20314609 -0.05159148 -0.011555249 -0.18477039
000150 fa b6 51 3e d2 95 26 bd 1a 99 00 be 71 62 a3 3d
       0.20479956 -0.040670224 -0.12558404 0.079777606
000160 32 ac cb 3d 01 7b f0 bd 03 1b 30 be 06 35 a3 bd
       0.09944953 -0.11742211 -0.17197804 -0.07969098
000170 eb 14 33 bd bf e1 a2 bd a2 74 bf 3d b7 b3 48 3e
       -0.04372112 -0.07953214 0.09348418 0.19599806
000180 bf 0a 9c bd c8 ec 70 3e 42 80 67 3d 45 2a 0c 3e
       -0.07619237 0.23527825 0.0565188 0.13688
000190 23 bf 8c be 31 00 39 3d 9e 08 8d 3d 5b f5 89 bc
       -0.27489576 0.0451662 0.06886409 -0.016840627
0001a0 f2 65 c3 3d 4f 63 85 3e ea 48 61 3d fa fa c2 bd
       0.09540929 0.2605233 0.055001177 -0.09520526
0001b0 e6 39 dd 3c 5c ba dd 3d e2 68 4a 3d 37 b4 8c 3e
       0.027005147 0.10826561 0.04941643 0.27481243
0001c0 b3 48 d8 3d 1f 10 8c 3e d9 a1 d7 3c 81 7f cb bc
       0.10560741 0.2735605 0.026322292 -0.024841072
0001d0 1c 79 b7 3d 6f c1 23 be 36 6b 93 3d f8 22 2b 3e
       0.08958647 -0.15991758 0.07198183 0.16712558
0001e0 61 b4 5a 3e 77 e2 47 3d 3a a5 75 bc 63 3d 72 3d
       0.21357872 0.048799958 -0.014993006 0.059140574
0001f0 40 38 1f be bb a2 68 3d 43 d3 a5 3c 24 cc 67 bd
       -0.15548801 0.056795817 0.020242339 -0.056591168
000200 12 97 54 bd a4 93 21 3c 95 f5 ba 3c 85 07 41 bd
       -0.051901884 0.00986186 0.02282218 -0.04712631
000210 8d 2e 5c 3e ce 25 dd 3d f4 6d 6e 3d 48 02 c1 3d
       0.21502133 0.10798226 0.05821033 0.09424263
000220 b3 85 be bd 03 6c 0d 3a 98 b8 fe 3d e1 a5 4e bd
       -0.09302845 0.0005394818 0.12437552 -0.050451163
000230 d4 89 1a 3e 95 e6 24 3e b9 38 1d be 36 93 67 3e
       0.1509164 0.16103585 -0.15353669 0.2261475
000240 53 ba 18 3d f8 4f 74 3e 1b 91 d4 3d 39 d7 89 3e
       0.037287068 0.2385863 0.10379239 0.26922014
000250 28 55 eb bd 13 0e c9 3d 41 c0 36 3d cc ba 26 3d
       -0.11490852 0.098171376 0.04461694 0.040705487
000260 72 b8 16 be 73 64 2e bd 69 29 e7 3d 55 16 25 bd
       -0.14718798 -0.042576265 0.11287195 -0.0403045
000270 a8 8d 10 be 79 9a 3c 3e 62 d1 66 3e f8 b9 9a bd
       -0.14116538 0.18418302 0.2254081 -0.07555002
000280 72 ae f0 bd 3e d1 dc 3d 3a 19 c8 bc 98 05 05 3e
       -0.11752023 0.10782097 -0.024426091 0.12990415
000290 d7 12 17 be cc b8 ae 3d b5 30 97 3d c8 8c aa 3d
       -0.1475328 0.08531341 0.07382337 0.08327633
0002a0 8c 26 aa 3c 3b 94 33 3d dd 9c 2e 3e 2b fc a6 3d
       0.020770334 0.043842535 0.17052026 0.08153566
0002b0 93 60 0d 3e 27 b2 55 3e 5b aa 06 3e c9 97 04 3d
       0.13806371 0.20868741 0.13150923 0.032371316
0002c0 8d f0 5c bd f9 50 4e 3d 63 05 15 3e b9 27 2a 3e
       -0.053940345 0.05037019 0.14552836 0.16616715
0002d0 8c e2 cb bd 4c c4 c8 bd eb 4d a5 bd f3 33 5c bd
       -0.0995532 -0.09803066 -0.08071502 -0.05376048
0002e0 6f 2e 86 3e a8 57 5b 3e cd a8 32 be f4 31 b1 bc
       0.262073 0.21420157 -0.17447205 -0.021630265
0002f0 50 ef bc bd f5 33 71 3e 27 21 8e 3e ef 3d 4a 3e
       -0.09225333 0.23554976 0.27759668 0.19750188
000300 e9 06 9e be fe a1 ea 3b 44 26 9f 3d 93 7e 6a be
       -0.30864647 0.0071604243 0.077709705 -0.22899847
000310 b4 0e e6 bb 3d 12 cd bd 00 44 b7 3e b6 36 eb bc
       -0.0070207957 -0.10013244 0.35794067 -0.028712612
000320 ab 51 10 3c a5 e2 15 be 1e c0 fb 3d e8 0a 83 3e
       0.008808534 -0.1463724 0.12292503 0.25594258
000330 c7 bd e4 bd 89 b0 b4 3b 81 2b d0 3d fe 8e 84 3d
       -0.1116901 0.0055142087 0.10164548 0.06472586
000340 ec 74 d0 bd cc 2a e6 3d 73 78 9d bd 07 19 96 3d
       -0.10178551 0.112386316 -0.076889895 0.07328992
000350 34 57 39 be 48 72 85 bc f9 45 4a 3d be 41 c2 bd
       -0.18099672 -0.016289845 0.049383137 -0.094851956
000360 84 8d 20 3e ef b6 1f 3e 7a e3 84 bd 70 6d c5 bd
       0.15678984 0.15597127 -0.064887 -0.09640014
000370 ea 54 07 be 42 29 26 bd 0d e3 82 3d 4d e9 05 3e
       -0.13215986 -0.04056669 0.06390963 0.13077278
000380 84 61 02 3e d0 4d 24 be 40 b4 4a 3e 8e 0b 0d 3e
       0.12732512 -0.16045308 0.19795322 0.13773939
000390 d1 fe 26 3e fe 23 29 3e 78 fd 90 3e ec a4 5e bc
       0.16308142 0.16517636 0.2831838 -0.013589125
0003a0 1b 8b 04 3e c1 1a 9d bd 3a 8c 8d bd 34 57 7c 3e
       0.1294369 -0.076711185 -0.06911512 0.2464264
0003b0 55 1d 1b be 7e c5 4e be 1f 16 a5 3d b4 0c 82 3d
       -0.15147908 -0.20192525 0.0806086 0.06350079
0003c0 09 51 c3 3d 7f 6c 1b be f8 da 92 be a6 f1 61 3e
       0.095369406 -0.15178107 -0.28682685 0.22064838
0003d0 7e ac 56 3a 0e 5e 9d bc fe c9 fb bc 0e a7 56 be
       0.00081891555 -0.019209888 -0.030735966 -0.20962164
0003e0 fa 26 4e bd 61 ba 99 3d c7 a3 51 bd d0 c2 17 3d
       -0.05033014 0.07506252 -0.05118158 0.037051022
0003f0 e1 99 fa 3d 22 b4 46 be 08 22 40 3d 46 31 8e 3d
       0.12236381 -0.19404653 0.046907455 0.06942992

conv1.conv.6.weight f4 [32, 32, 1, 1]
000000 d9 70 50 be 98 f4 77 be 13 2d cf bd 8d a5 81 3d
       -0.20355548 -0.24214399 -0.10116019 0.063304044
000010 56 2c b3 3d 24 3e 0d be 91 83 2e be c5 02 0d be
       0.08748691 -0.13793236 -0.17042376 -0.13770588
000020 af 3b f2 bc 80 5b 66 bd 0a 3c 73 bd 79 4a f5 bd
       -0.029569475 -0.056239605 -0.05938343 -0.11977095
000030 7e e1 34 bd a4 05 9b be eb 4c 05 be ad 43 fd 3c
       -0.04416036 -0.3027774 -0.13017623 0.03091606
000040 ed c0 13 be 04 77 09 bd 3e 31 4c 3d d4 75 ba bd
       -0.14429064 -0.033560768 0.04985165 -0.09104505
000050 ed dc e8 3c fa 1d 9f bd 72 cd 4c be b5 e8 e4 3d
       0.028425658 -0.077693895 -0.20000246 0.11177198
000060 0e 87 f7 3d df 7a 05 3e 61 38 ab bc d4 44 de 3c
       0.120863065 0.13035153 -0.020900907 0.02713243
000070 45 54 5c be c0 bf 83 3d ba 5f da 3d 41 6d 5a 3e
       -0.21516521 0.06433058 0.1066279 0.2133074
000080 ee e5 0c 3d f5 66 b4 3e d7 8a fd bd 91 a5 21 3c
       0.034398966 0.352348 -0.12379997 0.009866134
000090 56 06 d9 3d ae a6 83 3d 44 64 89 bd 7c cf 5a bd
       0.105969116 0.06428276 -0.06708577 -0.05342053
0000a0 02 90 e5 bd 72 9c 32 3d 82 62 50 be e4 7a 72 3c
       -0.11209108 0.04360623 -0.20350078 0.014799807
0000b0 52 cb c2 3e b2 fc 21 bd bc 84 e9 3d b0 23 71 3e
       0.38045746 -0.03954763 0.1140227 0.2354877
0000c0 b3 33 5a 3e 03 8b a8 ba 83 ac 5f 3e e4 fd 06 3e
       0.21308784 -0.0012858812 0.21843152 0.13182789
0000d0 8e 29 82 3c f2 ee 40 be 11 b5 5b bc cc 8b 67 be
       0.015888955 -0.1884115 -0.013409869 -0.22611922
0000e0 8c 43 e7 3d ca cc 6e 3d 7e 19 dc bd 08 64 a3 3d
       0.112921804 0.05830077 -0.1074705 0.07978064
0000f0 06 67 98 bd c7 2f 19 be c9 46 06 bd ec c1 db bd
       -0.07441525 -0.14959632 -0.03278235 -0.10730347
000100 81 5a 4d be 4e e2 93 bd c9 c0 bf bd 12 33 6a bd
       -0.20054056 -0.072208986 -0.09362943 -0.05717761
000110 6b 40 f1 bd f1 b2 4f be 14 f4 87 3d 59 6e e7 bd
       -0.11779865 -0.20283104 0.06638351 -0.11300344
000120 83 ec 9c 3d 3b 49 fa bd 59 48 b2 bd a8 78 ae 3d
       0.076622985 -0.12220999 -0.087052055 0.08519107
000130 7a 78 8b be a4 c8 7d bd e5 a1 2e be 15 9a b1 bc
       -0.27240354 -0.061958924 -0.17053945 -0.021679917
000140 9d a4 57 bd d5 c3 7e be 51 5b 30 3e c9 fe 95 bd
       -0.05264722 -0.24879391 0.17222334 -0.07323987
000150 3b 65 fc bc a6 9f 30 be 02 59 f9 bd 58 c0 70 3e
       -0.03080999 -0.17248401 -0.1217518 0.23510873
000160 d7 1b 41 3e 8e 5b 0e bd 9f 2a 0a 3c 07 e2 10 3e
       0.18858276 -0.034755282 0.008433013 0.14148723
000170 b2 45 fe 3d 8d 31 d2 3c d9 b7 b5 bd a3 1f f8 3d
       0.12415637 0.025658393 -0.08872957 0.12115409
000180 05 ca 06 be de 46 30 be 2a 61 37 be b1 e3 78 3e
       -0.13163002 -0.17214534 -0.17908159 0.24305607
000190 77 27 aa bd 43 63 8c 3e 1c 0d a3 3d ac ee 0e be
       -0.083083086 0.2741948 0.07961485 -0.13958234
0001a0 c0 a5 66 ba 07 2d 20 bd 9e a2 6f 3c 81 1c 62 bd
       -0.00087985024 -0.03910544 0.014626173 -0.055202965
0001b0 6b da ae bd d9 de 0e 3e 42 6d c2 3c b8 9a 80 3e
       -0.08537754 0.13952197 0.023733739 0.2511804
0001c0 8d a1 bd 3d 2c 60 c5 3d 3a e5 60 3e dc 86 92 bd
       0.09259329 0.09637484 0.21962443 -0.07154629
0001d0 ea 02 1d 3e 3c 22 2c 3e da 33 12 be 97 12 14 3d
       0.15333143 0.16809934 -0.14277592 0.03615054
0001e0 61 33 dd bd f8 43 76 3d a7 5c 2a 3e 8e 32 3c be
       -0.108008154 0.060123414 0.16636907 -0.1837866
0001f0 e8 5f c9 3c 97 d1 19 3d a3 e3 89 bc 49 b1 73 3e
       0.024581864 0.037553396 -0.016832178 0.23798098
000200 eb 92 e9 3d ce 2e 61 3e ad e4 f5 bd ef ad 6a 3e
       0.114049755 0.21990511 -0.12006507 0.22917913
000210 15 2d 29 3e 92 7d 40 3e bf 0c f4 bc 35 5c 83 3d
       0.16521104 0.18797901 -0.029791234 0.064140715
000220 9b 01 04 be ff 2f c5 bd 95 61 cb 3c 50 98 eb 3c
       -0.12891237 -0.09628295 0.024826804 0.028759152
000230 92 20 9a 3c 1d 61 6f 3e e7 4a 62 bb f9 8d 10 3e
       0.018814359 0.2337689 -0.0034529509 0.14116658
000240 1e 4a a2 3d 82 bf 9a 3e 7c 00 65 3e 50 f1 8c 3e
       0.07924293 0.30224234 0.22363466 0.27527857
000250 bf 24 9c bd 8a d1 a0 3d 39 36 55 3d 99 ef 13 3e
       -0.07624196 0.078524664 0.052053664 0.14446868
000260 d6 3d a0 be db 1e a3 3e 16 76 b5 bd df 03 f9 bd
       -0.31297177 0.31859478 -0.08860414 -0.121589415
000270 a7 5d fa bc f1 f3 97 3e eb f7 e4 3d 74 54 57 3c
       -0.030562235 0.296783 0.11180099 0.013142694
000280 36 17 bf bb 40 c5 20 be 0e 4a 7c 3e ca a7 08 3d
       -0.0058316244 -0.15700245 0.24637625 0.03336314
000290 79 d5 ee bc ba 16 fa bd df b0 2a 3e 77 c9 12 3e
       -0.029154526 -0.12211366 0.16669033 0.14334665
0002a0 d7 fd 8e 3d f3 8a fd 3d d2 b0 0a 3e f6 16 b6 bd
       0.0698201 0.12380018 0.13544014 -0.08891098
0002b0 c0 7e 89 3d f0 60 cf 3d b1 c9 6e be 2b b9 37 be
       0.06713629 0.10125911 -0.23319127 -0.1794173
0002c0 0a 06 28 bc 2d 6e f0 bb 23 b4 6b be 60 b1 ed bd
       -0.010255346 -0.0073373527 -0.23017935 -0.11606097
0002d0 f3 84 6b bd 30 19 63 bd 34 e0 f6 bc 57 10 3d be
       -0.057499837 -0.055443943 -0.030136205 -0.18463264
0002e0 38 90 0c 3e 7a 8b 0f 3c f3 65 54 be f0 4f 07 bd
       0.1372689 0.008761281 -0.20742016 -0.03303522
0002f0 e7 2c 87 3c 0f 16 b6 3d dc 9b 4e bd 23 0d 74 bd
       0.016500903 0.08890926 -0.050441608 -0.05958284
000300 20 e2 07 be 92 35 93 3d 16 ad f0 bd a9 81 72 bd
       -0.13269854 0.07187952 -0.117517635 -0.059205685
000310 39 09 1e 3e c0 28 ec bb 8f 6b 1d be 87 30 8a 3e
       0.15433206 -0.007207006 -0.15373062 0.26990148
000320 66 aa 8c be a0 4b 4c bd d2 11 ec 3d 28 05 0b be
       -0.27473754 -0.04987681 0.115268365 -0.13576186
000330 6e 66 b7 3d 84 8f 0e bd ff 78 b6 3d e2 ac c9 3d
       0.08955084 -0.034804836 0.08909797 0.09847428
000340 e9 4d 46 be 78 f3 42 3e d1 c8 84 bc 40 3c 3b 3e
       -0.19365658 0.19038188 -0.016209038 0.18284702
000350 b9 2d a9 3d 59 6a cc bd 59 d0 b4 bc 8a 00 0d be
       0.08260674 -0.09981222 -0.022072004 -0.13769737
000360 f7 d1 b2 bd dd 8f a2 3d 5f c1 40 3d 0b 59 11 3e
       -0.08731454 0.07937596 0.047059413 0.14194123
000370 6d 4d 40 be 36 6d 38 3b 97 23 1f 3d 9d 08 9f bc
       -0.18779536 0.0028141267 0.0388523 -0.019413287
000380 94 fc 02 3e 22 1d c8 3d ca c2 b2 bd 51 4d e0 3d
       0.12791663 0.09771182 -0.08728559 0.10952247
000390 24 b9 dd bd cb c5 9d 3d 28 ef 62 3e 61 48 0e 3c
       -0.108263284 0.07703742 0.22161543 0.008684249
0003a0 5d 45 3c 3e 73 be 8d bd 9e 46 89 be 6a fd e5 3d
       0.18385835 -0.06921091 -0.2681169 0.112299755
0003b0 0e 5a 3e 3d 24 05 b1 bd a0 db 0b 3d 6f 65 32 bb
       0.0464726 -0.086435586 0.034144998 -0.0027221104
0003c0 ff d5 db bd 89 db 1d be 35 80 5d 3e c5 d2 06 3d
       -0.10734176 -0.15415777 0.21630938 0.03291585
0003d0 3a 1b 0d 3e 6d 30 a2 bd 13 ea 19 bd be fb 98 3c
       0.13779917 -0.07919393 -0.037576746 0.018674728
0003e0 2a 6b 90 bd eb bf eb 3d e2 1e 85 bd 14 12 b9 bd
       -0.0705169 0.11511215 -0.06500031 -0.09036651
0003f0 69 fd 82 3e b2 7a 65 bd 84 e0 c5 3c b8 67 0a 3e
       0.25583962 -0.056025214 0.024154909 0.13516128

conv2.conv.3.weight f4 [32, 32, 1, 1]
000000 96 f0 8a 3c 7b ed 0a 3e 81 d0 28 be a5 5c cf bc
       0.016960423 0.13567154 -0.16485788 -0.025312731
000010 ed 79 65 3e e9 35 70 3e ea 06 aa bc ed b9 cf 3b
       0.22409792 0.23458065 -0.02075525 0.0063393028
000020 55 fa 8a 3c e5 95 42 bb 65 03 8c 3e 66 ca 8d bd
       0.01696507 -0.0029691395 0.2734634 -0.0692337
000030 3f 07 2e 3e 60 41 70 be d7 ba ca bd 23 9e b4 bd
       0.16994952 -0.23462439 -0.09898918 -0.08819225
000040 79 3f ff 3c df c6 a6 bd c5 6e b6 3d cb ff ec bc
       0.031158196 -0.081434004 0.08907846 -0.028930565
000050 fd 4f 4c 3d 9a 51 54 be e9 6d 17 3e 85 2a a5 3d
       0.04988097 -0.20734254 0.14788021 0.080647506
000060 1a 7f af 3d 2c ae ec 3d 5c 2d ca 38 6c ba 1b be
       0.085691646 0.11556658 9.6405594e-05 -0.15207833
000070 73 34 37 3e 7d 7c 99 bb d5 d0 9f 39 da 3c f1 bd
       0.17891102 -0.0046840296 0.00030482435 -0.11779185
000080 e0 3d 83 bd e2 8c 14 3d e6 2e 5a be 4e f4 18 be
       -0.06408286 0.03626717 -0.21306953 -0.14936945
000090 1a 53 17 bc 0b 01 8c 3d a6 dc 7b 3d be 22 26 bd
       -0.009236122 0.068361364 0.061489724 -0.040560476
0000a0 01 a0 43 3d f8 2b 98 3d e7 7a af 3d 4f 0f 2c 3e
       0.047760013 0.074302614 0.08568364 0.16802715
0000b0 95 73 2e be 3b 4b b4 bd f0 d8 14 bd 81 d1 83 ba
       -0.17036279 -0.088034116 -0.0363397 -0.0010056944
0000c0 70 0d 8b 3c 9d fd 53 be 99 0b 26 ba 35 a3 bd bd
       0.016974181 -0.20702215 -0.00063341256 -0.09259645
0000d0 46 25 b1 3d d6 41 62 be 73 cb 03 be 47 91 8d 3b
       0.086496875 -0.22095427 -0.12870578 0.004320297
0000e0 da de 5f 3e b0 90 bc 3d 96 54 56 3d cd 05 99 3c
       0.21862355 0.092072845 0.05232676 0.018679524
0000f0 47 77 54 3d 9e 1e 39 3d bc 2e 26 3e 27 fc 95 3e
       0.051871564 0.045195214 0.16228765 0.2929394
000100 3f 5d 8c 3d 18 47 0a bd 66 02 06 bd 6f 48 3f 3d
       0.06853723 -0.033759207 -0.03271713 0.046699937
000110 72 b7 36 bc f4 cf 6e 3d b8 f4 c2 bd 1d 32 02 be
       -0.011152135 0.05830379 -0.09519333 -0.12714429
000120 d4 97 e4 bc 27 d5 4e 3d c2 aa 22 3d f3 1b b5 3d
       -0.027904429 0.050496247 0.03971363 0.088432215
000130 b0 04 f5 bd fc d1 0c be 22 a4 32 3d fe a2 4b bd
       -0.11963785 -0.13751978 0.04361356 -0.04971599
000140 51 4a 26 be c4 8a 50 3e e8 fe c0 3c 1c 45 e0 bd
       -0.16239287 0.20365435 0.023559049 -0.109506816
000150 97 4a 3f be 95 bc 60 be aa c1 d7 bd 68 c1 82 be
       -0.18680798 -0.21946938 -0.10534985 -0.25538182
000160 ff e3 b4 3d b5 a7 67 bd 37 1d 3c be 8c e6 90 3e
       0.08832549 -0.056556422 -0.1837052 0.28300893
000170 af dc f4 3c 3d 0b 5b 3e 9b 7a 6f bd 7a 60 f7 bc
       0.029890386 0.21391006 -0.058466535 -0.03019737
000180 e9 51 81 3d f5 2f 08 3d 46 97 43 be 7d 9c 84 bd
       0.06314451 0.03324886 -0.19100675 -0.0647516
000190 c2 ca 07 be 56 2d a2 bd ef 0f f3 bd e9 5d c1 bd
       -0.1326094 -0.079188034 -0.118682735 -0.0944174
0001a0 67 78 0b be 44 d0 90 bc 7d 0c 0a be 4e 97 b4 3c
       -0.13620149 -0.017677434 -0.13481326 0.022044804
0001b0 74 c3 92 bd 02 10 84 be 3b 6d 55 3c f1 67 95 3c
       -0.07166186 -0.25793463 0.013026531 0.01823804
0001c0 43 55 9c 3c ad 3d 04 3d 9f 27 a2 bb 0f 71 30 be
       0.019083625 0.03228538 -0.004948571 -0.17230628
0001d0 40 7b 3b 3d b1 d0 5a be a7 d5 9b 3d e0 08 f6 bc
       0.045771837 -0.21368672 0.0760911 -0.030033529
0001e0 d9 0f c4 3d 80 f8 82 be 64 39 95 be c2 23 c8 3d
       0.09573335 -0.25580215 -0.29145348 0.09772445
0001f0 58 b3 17 be ff 04 94 3d e2 ab ac bd 91 e9 11 3e
       -0.14814508 0.072275154 -0.084312215 0.14249255
000200 b3 71 9d 3e 80 6c 5b 3e ec 76 76 3d d0 2f ae bd
       0.30750808 0.21428108 0.060172006 -0.08505213
000210 89 9a 44 3e ad ee 8f bd 55 10 4b 3e 4d 16 2b 3e
       0.19199575 -0.07027946 0.19830449 0.16707726
000220 64 ef ee 3d 7f 8a 8f bc 0d be 8a 3e 36 4c 8d 3e
       0.11666754 -0.017522095 0.27098122 0.27597207
000230 35 3c 68 3d 10 11 df bd 28 9f 86 3c b9 21 b8 3d
       0.056698043 -0.10891926 0.016433313 0.08990807
000240 61 1d 9d 3d b6 c4 31 3e 7f 2e 47 bc 42 ec 0c bd
       0.07671619 0.17360196 -0.012157082 -0.034405
000250 9e 03 dc 3d 0a 12 44 3e 0a 1b f4 3d 16 ee a4 bd
       0.107428774 0.19147506 0.1191922 -0.08053224
000260 d4 f4 a8 3c 48 bc 0c be 8c 50 9d 3c 1a 4e 21 3e
       0.020624556 -0.13743699 0.019203447 0.1575245
000270 2b 86 94 bc 0f b8 c9 bd 99 d7 b8 bd 65 7f 80 3d
       -0.018130383 -0.098495595 -0.09025497 0.062742986
000280 b8 25 27 3e 4e d4 ca 3d 53 13 3e be d2 74 e7 ba
       0.16322982 0.09903775 -0.18562059 -0.0017658717
000290 b0 51 b9 3b ac 43 2c bd 1f 93 2c be c9 90 53 bd
       0.00565549 -0.042056724 -0.16852997 -0.05165175
0002a0 17 b9 b9 bd 2b 39 01 be aa c9 90 3e c2 93 52 3e
       -0.09068506 -0.12619464 0.28278857 0.20564178
0002b0 f1 af 70 3d 49 f8 4d be d8 e5 69 bd 5e 56 e6 bd
       0.05876154 -0.20114245 -0.05710396 -0.11246942
0002c0 47 9e db bd 6a 8b fe 3d c8 19 05 3e b2 1a 5b be
       -0.107235484 0.12428935 0.12998116 -0.21396902
0002d0 df 12 91 3d b4 b1 08 be dc 0e 80 3e cf ac 35 3e
       0.070836775 -0.13349038 0.25011337 0.17741702
0002e0 c9 72 e4 3b ec 67 60 bc f4 dc ba 3c 95 cb 20 3e
       0.0069716913 -0.013696652 0.022810437 0.1570266
0002f0 51 6e 6e 3c ca 7a 09 3d 6c bc da 3d 08 9a 30 3e
       0.014552669 0.033564366 0.1068047 0.17246258
000300 df 10 f9 bd 5d fc 13 bd 00 b4 0a be 07 56 2d be
       -0.12161421 -0.036129344 -0.13545227 -0.16927348
000310 08 96 17 3e b5 16 1b be d7 74 e2 bd 10 96 41 3e
       0.14803326 -0.15145381 -0.11057442 0.189049
000320 6f 3e 5e be 4f e4 6f 3e 41 18 fe bd 40 7a bc bd
       -0.21703504 0.23426937 -0.1240697 -0.09203005
000330 e9 57 d6 3c 5e 65 ff ba 99 6f 3b 3d 46 1d 0d 3e
       0.026164966 -0.0019485166 0.045760725 0.13780698
000340 47 d8 4a 3b c3 db 5f 3e 2c 58 f5 3d a0 a7 ad bd
       0.0030951665 0.21861176 0.11979708 -0.084792376
000350 e8 31 73 3d 3f 9c 33 be 8d c2 10 be 7b e0 50 be
       0.059373766 -0.17540072 -0.14136715 -0.20398133
000360 ee 32 e6 bb 56 60 b9 bd cc 46 8f bd 1e f9 a2 be
       -0.0070251143 -0.09051578 -0.06995925 -0.31830686
000370 a1 03 57 3d 7d 2c 5a be 5e 2a 0a bd 88 1c 06 be
       0.052493695 -0.21306033 -0.03373181 -0.13096821
000380 f2 b1 f4 3d 71 81 30 3e ee ce 07 3e 32 5e cc 3d
       0.11948003 0.17236878 0.13262531 0.09978904
000390 6c 19 20 3e e0 e1 16 bd 57 1b 0a be f5 47 1f 3e
       0.15634698 -0.036836505 -0.13486992 0.15554793
0003a0 ef 21 29 bc be 91 e6 bd 1e 9e b3 3d 38 4d 3a be
       -0.010323032 -0.11258267 0.08770393 -0.18193519
0003b0 2e fb 34 bb 78 9c 01 bc 40 41 2c be 75 5f b0 3d
       -0.0027615535 -0.00791084 -0.16821766 0.08611957
0003c0 78 d4 3a 3a f4 f3 0d bd be 4c 7e 3c 1a fa 36 3e
       0.0007126997 -0.03465648 0.015521226 0.17868844
0003d0 41 78 93 3e 13 4a 8b bd 11 45 5b 3e 3f ff cb bc
       0.28802684 -0.06801238 0.21413065 -0.024901984
0003e0 98 a0 91 bd cf 48 91 3e 00 1e a3 3e d8 11 7b bd
       -0.07110709 0.2837586 0.31858826 -0.061296314
0003f0 b3 d4 a1 3d fa 82 47 bd da bd 34 bb a1 b3 2f 3e
       0.07901897 -0.048708893 -0.002757898 0.17158367

conv2.conv.6.weight f4 [32, 32, 1, 1]
000000 13 61 9b 3c 25 e5 44 3d 85 46 ce 3d e6 ae 07 3e
       0.018967187 0.04807009 0.10072044 0.13250312
000010 e5 f0 34 3e 35 05 34 bd 3e 49 52 3d 18 e1 bc 3d
       0.17670019 -0.04395028 0.05133938 0.09222621
000020 0c 15 43 be 2f ad 80 3e 21 94 d4 bd 6b 00 c6 bb
       -0.19050997 0.2513213 -0.10379816 -0.0060425303
000030 f4 da 83 3d b8 d1 6d be 29 99 9e be a0 10 88 3e
       0.06438246 -0.23224533 -0.30976227 0.26575184
000040 f2 3c a8 3d d1 02 04 3e 40 a5 69 3d 03 5b 32 3e
       0.082147494 0.128917 0.05704236 0.1741753
000050 40 19 a8 3d 42 da 2c be fa 30 59 be a8 f2 dc bd
       0.08207941 -0.16880134 -0.2121009 -0.107884705
000060 42 91 d7 3d 9a 10 10 3d 19 15 7d 3e 9e 69 0d bd
       0.105257526 0.035172082 0.2471508 -0.034524553
000070 29 3a 33 be c5 40 dc 3d f1 82 1d 3d 30 e0 c2 bd
       -0.17502655 0.10754541 0.038454954 -0.095154166
000080 96 f8 03 be ac 44 c2 3d 35 41 38 3c e5 a5 6b 3e
       -0.12887797 0.09485754 0.011246015 0.23012502
000090 45 64 0d be ec c5 ae bc 7b 47 14 3e 73 91 83 bd
       -0.13807781 -0.02133461 0.14480393 -0.064242266
0000a0 2a df bc 3c 99 5b 20 3e 26 19 00 3e bd 50 01 be
       0.023055632 0.15659942 0.12509593 -0.12628455
0000b0 ef 9d ca 3d 61 d6 4f be 19 4c c7 bc e6 be be 3d
       0.09893405 -0.20296623 -0.024328278 0.09313755
0000c0 5b 38 8e be b5 5b 2e be aa 8c 72 be 26 e7 e9 bd
       -0.2777737 -0.17027171 -0.23686472 -0.11421041
0000d0 2a 20 27 3e b4 26 38 bc 9d 8a 64 be 2b 4c 11 bc
       0.16320863 -0.011239696 -0.22318502 -0.0088682575
0000e0 ee 01 0e 3e 84 e9 35 3c 25 d7 be 3a 8f c2 7b be
       0.13867924 0.011103038 0.0014559968 -0.24585937
0000f0 68 26 1a be ba e4 38 3e 43 21 4f bd c3 93 2f be
       -0.15053713 0.18056002 -0.05056883 -0.1714621
000100 49 5d 8e 3e a9 41 2a be 7c 6b 54 3d 95 93 97 bd
       0.27805546 -0.1662661 0.051860318 -0.07401196
000110 31 0b 41 3e 1e b9 d1 3d c1 8a b0 3d 91 88 55 bd
       0.18851925 0.102403864 0.08620215 -0.052132193
000120 86 d6 4b be 14 37 d0 bc 88 1d cb bb 9d de 39 3e
       -0.19906053 -0.025416888 -0.0061985888 0.18151326
000130 6e 6f 81 3e e9 89 56 3e 9a 6d 51 3e 70 8f 32 3e
       0.25280327 0.20951046 0.20451966 0.1743753
000140 a5 1c 60 3e 92 e2 1d 3d af a8 98 be ea 91 b3 bd
       0.21885927 0.038546152 -0.29816195 -0.08768065
000150 3d 79 ef bd b6 0b 09 3d 2e aa e8 3c 84 00 f2 bd
       -0.11693046 0.033458434 0.02840146 -0.118165046
000160 5e f2 23 3d 01 18 48 3e 29 ca fc bd 29 36 63 3d
       0.04002606 0.19540407 -0.123432465 0.055471573
000170 45 4b f1 3d 3b b3 48 be 09 bc b0 bb 17 07 25 3d
       0.11781935 -0.19599621 -0.0053935093 0.040289965
000180 f3 39 15 3e 49 19 94 3d 73 d0 2e be 70 d9 0e 3d
       0.14572887 0.07231385 -0.17071705 0.034875333
000190 8e 70 8a bd 3a 20 2c 3d b5 c1 c1 3d 0f 97 8d 3d
       -0.06759749 0.04202292 0.09460775 0.06913578
0001a0 79 70 22 be 93 44 32 3e 7b 01 3d bd fc 82 0a be
       -0.15863217 0.17408971 -0.04614399 -0.13526529
0001b0 42 3e e5 3d 42 92 1f 3e c5 83 b0 bc e6 9a 59 3e
       0.11193515 0.15583137 -0.021547208 0.21250495
0001c0 c7 2f 5a 3d 22 f6 93 3d e5 fe dd 3d d7 cf 75 be
       0.05326822 0.072246805 0.10839633 -0.24005066
0001d0 36 d8 d8 3a 21 7f 93 bd 3f f7 81 3d da 02 ac 3e
       0.0016543928 -0.07201982 0.063459866 0.33595926
0001e0 ab 39 c8 bd 64 7a f2 bd ae 5d 64 bd 3c d1 8b 3d
       -0.09776624 -0.118397504 -0.055753402 0.06827018
0001f0 4b 79 d7 bd c1 9f 06 3d 01 db 50 3d d2 dc 66 bd
       -0.10521182 0.032867197 0.05099011 -0.056362934
000200 ab 30 85 3d d9 b7 e6 3d 90 e9 18 3e 72 9b 87 3c
       0.06503423 0.11265535 0.14932847 0.016553614
000210 82 c2 47 be ea a9 fc 3d e1 46 89 3a a3 1c de bc
       -0.19507793 0.12337096 0.0010473394 -0.027113264
000220 24 65 f4 3d c9 8f 1c be d6 7c 5f be ce c7 57 bc
       0.119333535 -0.15289225 -0.21824965 -0.013170196
000230 71 ea 8a bd 44 95 6e bd 0d f3 2b be 73 e9 1b 3e
       -0.067829974 -0.05824782 -0.16791935 0.15225773
000240 01 4e fb 3d ef a0 96 bd d3 e8 06 bd fd 4f e8 bc
       0.122707374 -0.073549144 -0.032936882 -0.028358454
000250 5e f7 5f be 51 0f b5 bd 55 72 e6 3d 95 3a 09 3e
       -0.21871707 -0.08840812 0.11252276 0.13401254
000260 39 74 2d 3e 0f 2f 98 3e 4e e8 8a 3c ce e6 e2 3d
       0.16938867 0.29723403 0.016956475 0.11079179
000270 48 ef 4e be ed da 77 be 3e 23 9b 3d 0f 4b 02 3d
       -0.20208466 -0.24204607 0.07575081 0.031809863
000280 a5 46 bb 3e e0 bf cd bd ac af 2d 3e 67 30 97 3c
       0.36577335 -0.10046363 0.16961545 0.018455697
000290 c4 48 e2 bd 2c 4a 45 be dd 38 48 be b8 a4 a8 3d
       -0.11049035 -0.19266576 -0.19552942 0.082345426
0002a0 8e d5 3e 3b 75 76 2a be ab 78 0d be c9 b6 db 3d
       0.0029118988 -0.1664675 -0.13815562 0.10728223
0002b0 e5 b6 ff bd b5 ed b5 bb 9f 5c f9 bd 3f 8c 5c 3c
       -0.12486056 -0.0055520185 -0.12175869 0.013461172
0002c0 d3 7e b2 3c 06 8e 41 bd d0 44 97 3d 8d 9d 83 3d
       0.02178899 -0.047254585 0.07386172 0.06426535
0002d0 1e 73 a7 bd 8e a7 09 be ff 6c 5e bd cb fc a8 3d
       -0.08176254 -0.13442823 -0.054303166 0.082513414
0002e0 5b f0 37 3e ed 31 06 be b2 e6 21 3e 5d 7b 40 3e
       0.17962782 -0.13104983 0.1581066 0.1879706
0002f0 a9 d3 7e bd 5c 4e cf bd 63 2a 84 be de 7a 8c bd
       -0.062213574 -0.10122368 -0.25813589 -0.068593726
000300 7b df 55 be 34 a7 00 be 0e d1 12 3d e0 cb 2a 3e
       -0.20886032 -0.12563783 0.0358439 0.16679335
000310 b3 f1 ed bd b7 3a 49 be 64 40 b7 3d 4a 07 59 3c
       -0.11618366 -0.19651304 0.089478284 0.013246367
000320 15 95 a4 3b 10 85 7b 3e b1 cb 27 be df 4e c2 3d
       0.005022655 0.24562478 -0.16386296 0.094877
000330 f7 07 34 be 81 77 35 3e df 8b 7f bc 43 45 bd bd
       -0.17581163 0.17721368 -0.015597313 -0.09241726
000340 aa 65 7c be e6 67 a1 bc 22 05 3b be 02 3a 10 be
       -0.24648157 -0.019702863 -0.18263677 -0.14084628
000350 27 cb 2a 3e 40 4a 20 3e 3d 58 12 3d df f6 ee 3d
       0.16679059 0.15653324 0.03572868 0.11668181
000360 3a 46 9b 3c d8 c3 a2 bd 14 dc 0b be 6e 6e 68 be
       0.018954385 -0.079475105 -0.13658172 -0.22698376
000370 13 c2 82 3d 81 7d 6f 3d 96 74 4f 3e ce 69 0f 3e
       0.06384673 0.0584693 0.20259318 0.14005205
000380 f5 0e 44 3d c6 6e a1 be ab 96 08 be 22 dc 6f be
       0.047865827 -0.31529826 -0.13338725 -0.23423818
000390 2a 6f e4 3d eb f9 65 be da 37 50 3e 21 8c fa bd
       0.11154015 -0.22458617 0.20333806 -0.12233759
0003a0 5c a2 05 3e c9 6c 87 3e dc 8c 43 bd 08 01 b0 3d
       0.13050216 0.26450184 -0.047741756 0.08593947
0003b0 1d 17 80 39 b1 53 26 3e c3 7e d7 3d c3 2b 6a bd
       0.00024431283 0.16242863 0.10522225 -0.05717064
0003c0 02 88 b3 bc 61 d3 e5 bd a5 44 1d 3d f8 4d 32 be
       -0.02191544 -0.11221958 0.038395543 -0.17412555
0003d0 4e 15 60 3e c0 5b 00 bd 15 5d 58 bd 18 e0 09 bd
       0.21883127 -0.0313375 -0.052823145 -0.033660978
0003e0 88 39 bf 3d 26 b9 04 be f1 02 5b be b8 8c 93 3d
       0.09337145 -0.12961254 -0.21387841 0.07204574
0003f0 82 c6 6a 3c f5 ae e3 bd 5c 82 01 3e e3 bc d8 3d
       0.0143295545 -0.11117355 0.12647384 0.10582902

conv3.conv.3.weight f4 [64, 64, 1, 1]
000000 bd be ce 3d ff aa 91 bb ec fb 84 be af e5 00 bc
       0.10094974 -0.004445433 -0.2597345 -0.007867261
000010 82 80 bf bd 17 c0 08 ba c3 e1 ec 3c df c9 f5 3d
       -0.09350683 -0.0005216612 0.028916245 0.120013945
000020 80 0c cf 3d af 06 c7 3d 48 a2 14 be 5b 27 3c 3e
       0.10109806 0.09718072 -0.1451503 0.18374388
000030 f2 10 83 3d 2f 15 c6 bd 55 69 f3 3d df f0 57 3d
       0.063997164 -0.09672009 0.11885325 0.052719947
000040 08 5f 8b be fc ff 53 be f3 c4 0b be 24 68 99 bd
       -0.2722094 -0.20703119 -0.13649349 -0.074905664
000050 c0 4c f9 3d c6 2a 56 3d 8f 61 a1 3d 21 ce 0b be
       0.12172842 0.052286886 0.07879936 -0.1365285
000060 71 e4 22 3d 9e 8f 87 3d 2a 7d ba bc 8d cf 71 3e
       0.03976864 0.0661919 -0.022764761 0.2361433
000070 e7 f6 21 bd 21 b6 f7 3d c0 1c bc bd 63 19 be bd
       -0.039542105 0.12095285 -0.09185171 -0.09282186
000080 a3 93 e3 3d 9d 7e 5c 3d 66 ad cf bd 22 7a f4 3d
       0.11112144 0.053831685 -0.10140495 0.119373575
000090 86 5c 24 3c d1 a9 9f 3c ce 06 17 3d 99 29 8b bd
       0.010031825 0.019490154 0.036871724 -0.067950435
0000a0 6a eb d4 3c e8 b8 ce 3d 5b f5 13 be 36 e6 53 3c
       0.02599116 0.10093862 -0.14449064 0.0129333045
0000b0 22 2d 0b bc c9 a6 87 bd 54 a8 37 be 19 58 30 3e
       -0.008494647 -0.066236086 -0.17935306 0.17221107
0000c0 8f 90 db 3c 00 a6 02 be 25 6b 93 bc 93 bb 5e 3e
       0.02680233 -0.12758636 -0.017995426 0.21751241
0000d0 1d e9 2d bd cb d9 29 bd 7d a4 32 bd 2a ec 00 be
       -0.042458642 -0.04146747 -0.0436139 -0.1259009
0000e0 97 60 37 3d 79 a2 30 3e 97 42 1c be b0 ca 36 3d
       0.04476985 0.17249478 -0.15259777 0.04462689
0000f0 9d b4 4c bd 69 e0 2c bd b0 4b 2e 3d c2 91 ce 3d
       -0.049976934 -0.0422062 0.04255265 0.10086395
000100 18 df 28 bd 45 b0 0c be cb 02 40 be 57 84 6d 3d
       -0.041228384 -0.13739116 -0.18751065 0.057987537
000110 8b 08 6f 3e 04 e6 b9 3b 68 ac d5 bd 66 54 04 bd
       0.23343103 0.005673172 -0.104332745 -0.03230705
000120 5b 8d 13 ba 27 ba 61 be 99 ef 5d 3c ac 78 48 3d
       -0.00056286686 -0.22043668 0.013545894 0.048943207
000130 39 aa 74 3b 49 5e 83 bc 28 e1 3e be 44 56 a6 bd
       0.0037332906 -0.01603617 -0.18640578 -0.081219226
000140 cb 52 73 bd 9b 2f 41 3e 29 33 6e be b9 3b e3 bd
       -0.05940513 0.18865816 -0.23261704 -0.110953756
000150 08 fd 24 be 36 7e 9f bd c2 0f 26 bd 62 11 eb bc
       -0.16112149 -0.07787745 -0.04054237 -0.028694812
000160 2b 5a 8d bc da 7c 3d 3d a1 e8 b7 3d 7b af c3 bc
       -0.01725491 0.046261646 0.08979917 -0.023887387
000170 62 a8 46 bd a8 bc 65 bd 8d 29 a0 3d 30 82 de bd
       -0.048500426 -0.05608812 0.07820425 -0.10864675
000180 03 8f bc bd 7e 6e fe bd bb ed 04 be 12 27 be 3d
       -0.09206965 -0.124234185 -0.12981312 0.09284796
000190 0d c9 19 3e 62 e6 ef bd 98 21 95 bd 59 8b 70 bd
       0.15018101 -0.11713864 -0.07281798 -0.058726642
0001a0 f8 64 59 3d b5 49 f0 bc 13 4c f7 bd 70 63 2f 3e
       0.053074807 -0.029332021 -0.12075057 0.17127776
0001b0 de 64 39 be c8 dd 1b 3e a6 a6 86 be b6 7f 32 3d
       -0.18104884 0.15221322 -0.26299018 0.043578826
0001c0 d9 50 01 be a2 a3 17 be 39 4f 93 3d b4 16 5e bd
       -0.12628497 -0.14808515 0.07192845 -0.05422087
0001d0 99 65 ba bb 68 c9 6d 3d fd 73 87 bd fe 3e 05 be
       -0.005688381 0.058053404 -0.0661392 -0.13012311
0001e0 49 f6 8e bd da 4d e2 3d ff ba 26 3e 4d e8 37 3e
       -0.06980569 0.11050005 0.16282271 0.1795971
0001f0 e1 21 14 be f9 c8 14 be e0 fc 4d 3e bd 3a 6a 3d
       -0.14466049 -0.1452979 0.20115995 0.057184923
000200 fd bd 36 3d b3 f4 20 3e c9 36 15 3e 72 0f ff bc
       0.04461478 0.15718345 0.1457168 -0.031135295
000210 40 9b cb bd 0c f9 a5 bb cf c6 b9 bd ac 7c 20 bd
       -0.09941721 -0.005065089 -0.09071123 -0.039181396
000220 7f 10 8d bd 16 9d 16 3e 8a 5d 8f bd f0 ca 86 3b
       -0.06887912 0.14708361 -0.07000263 0.0041135475
000230 fc b4 81 3d d1 18 7c bd 00 62 22 be 02 f0 98 bd
       0.06333348 -0.061547104 -0.15857697 -0.07467653
000240 f9 73 e9 3d 94 1b 66 3d 68 a9 e8 bc f3 6e 1b 3e
       0.11399073 0.056178644 -0.028401092 0.15179043
000250 ba a8 15 3e 35 fc c9 bb 96 ae 40 3e 7b 7a cd 3d
       0.14615145 -0.0061640986 0.18816599 0.10033127
000260 b7 5e 02 be e2 ad cf bc b9 27 44 3b ca ea f3 bc
       -0.12731443 -0.025351468 0.0029930903 -0.029775042
000270 7e fc 80 be f6 f2 ce bd 27 d3 97 bd 82 03 63 bd
       -0.25192636 -0.10104935 -0.07413321 -0.055423267
000280 e1 5e 4e bc b8 aa 9f bc 4e fe e8 3c 81 c4 06 be
       -0.012595863 -0.019490585 0.028441574 -0.13160898
000290 e7 0b 2a be 72 ba a1 3d 70 71 33 3e 49 ca 4e 3d
       -0.16606103 0.0789689 0.17523742 0.050485883
0002a0 9a 73 31 be eb 26 f8 3b 22 51 ce 3c 35 79 e3 bd
       -0.17329255 0.0075729988 0.025185172 -0.11107103
0002b0 9c 49 18 3e 26 c4 dc 3d 56 e0 8c 3d b1 68 ed bd
       0.1487183 0.107796 0.06878726 -0.11592234
0002c0 9f 04 95 3c 2f 09 d5 3d 22 1b 20 bc 3d 1f e4 bc
       0.01819068 0.10402142 -0.009772094 -0.027846927
0002d0 f3 40 a1 bd a1 d9 6a 3e 57 26 20 3e 48 ba cc 3e
       -0.07873716 0.22934581 0.15639625 0.3998587
0002e0 03 3b 1b be 0b 2b 33 bc ee 57 ab bd 80 ee 41 be
       -0.1515923 -0.010935555 -0.08366381 -0.18938637
0002f0 76 c3 49 3b 4d b9 39 3e 4a 11 92 be da a7 95 bd
       0.003078667 0.18137093 -0.28528816 -0.07307406
000300 f1 f6 8d be 45 d9 02 be e0 41 29 be 2f 8a 8b bd
       -0.27727464 -0.12778194 -0.16529036 -0.06813466
000310 86 f5 1e 3d dd 64 ff 3c a6 a2 64 bb e6 26 9f 3d
       0.03880837 0.031176025 -0.0034886985 0.07771091
000320 85 ff 48 3e d4 ea 79 bd 72 58 05 3e 81 f8 12 3e
       0.19628723 -0.061014965 0.1302202 0.14352609
000330 7e 8d ef 3d b3 77 de bd ae 45 78 be dd 08 3f bd
       0.11696909 -0.108626746 -0.2424533 -0.046639312
000340 b5 ee f1 bd 3a 0a 27 3e c0 c6 bf 3d 90 d8 7a 3d
       -0.11813108 0.16312495 0.093640804 0.061241686
000350 1a 72 e4 bc e1 9e 3e 3d 23 ee da 3c 43 67 60 3d
       -0.02788644 0.046538237 0.02672488 0.054785978
000360 1a 05 bf bd 21 22 39 be 15 1f 2a 3e 93 81 98 3b
       -0.09327145 -0.18079425 0.1661342 0.0046541183
000370 26 02 ac bd 79 03 43 3d 30 03 12 be b6 18 81 3c
       -0.08398847 0.047610734 -0.14259028 0.015758853
000380 ad b5 22 be c5 60 82 bd 34 e5 09 be 30 00 84 bc
       -0.15889616 -0.063661136 -0.1346634 -0.01611337
000390 6f d4 70 ba 45 8f 2d bd d2 02 69 3d a6 32 fe 3d
       -0.00091869285 -0.04237296 0.056887455 0.12412004
0003a0 14 1e c3 bd 3a 1d d6 bd 52 6b b0 bd 22 21 e9 3d
       -0.09527221 -0.10454793 -0.0861422 0.11383273
0003b0 02 52 01 bd 81 a6 84 bd 47 b9 74 be 21 f1 bc bc
       -0.03157235 -0.064770706 -0.23898803 -0.023064198
0003c0 34 14 a5 3c 7e 6a 2a 3d 71 34 f5 3d 98 ff 3e bd
       0.020151235 0.041605465 0.11972893 -0.046630472
0003d0 57 f1 0c be 53 9a 8a bd ef a4 a0 be 31 61 10 be
       -0.13763939 -0.06767716 -0.31375834 -0.14099576
0003e0 26 ff 5b 3d 61 e4 a3 bd da 7f 91 bc 69 aa f5 3d
       0.053710125 -0.08002544 -0.01776116 0.11995394
0003f0 be 43 8c bd bd cd 78 be 73 bd b1 3c 9e 9c 87 be
       -0.06848858 -0.24297233 0.021696782 -0.26486677

conv3.conv.6.weight f4 [64, 64, 1, 1]
000000 9f e6 19 be 9c b6 f6 3d d1 c9 5f be 09 fb fc bc
       -0.15029381 0.12046549 -0.2185433 -0.030881422
000010 7b 74 71 bd 4d 9c 3f bc 07 48 41 be 2e 67 2b bd
       -0.058948975 -0.01169498 -0.18875133 -0.041846447
000020 90 3a 12 3e 81 23 f0 bd f3 56 6d bc 06 1e 4a 3d
       0.14280152 -0.11725522 -0.014486062 0.04934504
000030 76 39 14 3e 1b bc f7 bd 3a 31 50 be 7e af 98 bd
       0.14475045 -0.12096425 -0.20331278 -0.074553475
000040 df fd a0 bd 46 f2 5b be a1 ef 6f be 12 9b 03 3d
       -0.07860922 -0.21479139 -0.23431255 0.03213031
000050 ec 1e a9 3b dc 4b 18 3e ac 77 33 3d f0 b9 34 3d
       0.005161157 0.14872688 0.0438153 0.044122636
000060 20 60 e3 bd 33 b1 96 be a5 f1 22 3e e3 df a1 3d
       -0.11102319 -0.29432067 0.15912493 0.07904031
000070 d7 29 10 be 5f f8 2e 3e 25 80 58 3d 83 67 e9 bc
       -0.1407846 0.17086934 0.052856583 -0.028491741
000080 3f 6f 74 3c 10 d4 60 be 78 b5 9b 3d d1 39 72 3d
       0.014919101 -0.21955895 0.07602972 0.05913717
000090 9e 40 c9 bd a2 8c 28 3c c5 d2 3c 3e 7d a8 73 bd
       -0.09826778 0.010287436 0.18439777 -0.059486855
0000a0 80 29 1c 3d 58 3a d9 bc 84 0d 20 be 59 28 90 3c
       0.038125515 -0.026517078 -0.15630156 0.017597364
0000b0 43 a7 93 bd f4 6b 48 bd 08 85 8b 3b 41 5e ff 3d
       -0.07209637 -0.048931077 0.004257802 0.124691494
0000c0 3a 37 43 bd 02 f7 8f bb 4e ed c5 bd fc f1 90 bd
       -0.04766009 -0.0043934593 -0.09664403 -0.07077405
0000d0 52 a0 16 3e bd cb 0b be 78 70 32 be 82 82 87 3a
       0.14709595 -0.13651939 -0.17425716 0.0010338577
0000e0 0f 4a e3 3d ca c7 19 be 9f 08 fd bd f9 3e a9 bd
       0.1109811 -0.1501762 -0.1235516 -0.08263964
0000f0 4c f4 0f be 20 4d dd bd 58 09 49 bd b9 09 29 3d
       -0.14058036 -0.10805726 -0.049081177 0.041269038
000100 76 43 9e bb 0c f1 19 3e 94 cd 7c bd 02 71 06 bd
       -0.0048298193 0.15033358 -0.061719492 -0.032822616
000110 1b 04 7e bb 37 09 32 be 90 e9 a1 ba 38 cc 52 bd
       -0.0038759771 -0.17386328 -0.0012352932 -0.05146429
000120 cf 5c 87 bd 60 82 21 3d fc 3e 35 3c c5 af 23 bd
       -0.06609499 0.039430976 0.01106238 -0.03996255
000130 31 e8 9e bc fa 3d 46 bd e6 7b f5 bd 75 26 3a 3e
       -0.019397827 -0.04839895 -0.119865224 0.18178733
000140 55 1a 89 3d a1 18 37 3e ed c8 e3 3c 91 aa 88 bc
       0.066944756 0.17880489 0.02780577 -0.016682895
000150 f7 7d 39 be 35 ad af 3c de 37 b4 bb da b0 cd 3d
       -0.18114458 0.021444896 -0.005499824 0.100434974
000160 05 73 d2 3c 3f 13 d4 3d 8a 6d 0b 3e 75 9b dc 3d
       0.025689611 0.103552334 0.13616005 0.107718386
000170 34 07 cf 3c 09 8d 51 be 9f 9a 2c 3d 5a 0b 12 3d
       0.02527199 -0.20463957 0.042139646 0.035655357
000180 b2 d9 dc 3d a8 cb ef 3b 53 59 b7 3c 98 f0 e0 3d
       0.107837096 0.007317979 0.02238146 0.109833896
000190 c8 ef 90 be 77 bd 3d 3d 8b 78 cf 3d e3 fc 1b bd
       -0.2830794 0.046323266 0.101304136 -0.03808297
0001a0 29 e2 42 bd cc a8 15 3d 65 fe 8a 3b 32 aa 58 3d
       -0.047578964 0.03653793 0.004241752 0.052896686
0001b0 57 3a 04 bd 50 b7 ca bd 28 a8 8b 3d 9f 0b a3 bd
       -0.0322822 -0.09898245 0.06819183 -0.07961201
0001c0 59 6c f6 3d 03 b5 f2 bd ca f1 dc bc e8 42 b9 3d
       0.120323844 -0.118509315 -0.026970763 0.090459645
0001d0 0c f2 de bd 13 ae 3b 3e 3b 9e 56 be fa 2f 0d be
       -0.108860105 0.18328123 -0.20958798 -0.13787833
0001e0 98 dd 92 3d 89 0a 20 bc fd 8d 80 be e0 68 29 3d
       0.07171172 -0.009768137 -0.25108328 0.041359782
0001f0 b1 1a be 3c 13 fd 90 b9 e1 bc 34 be 2b b2 d3 bc
       0.023206087 -0.00027654375 -0.17650177 -0.025841793
000200 29 5b 1f be 9f f0 0a be 83 80 9f 3d 40 6b ea bc
       -0.15562119 -0.13568352 0.077881835 -0.028615594
000210 97 37 d3 3d a3 d0 a4 bd f3 f7 9b bd b6 d7 5f 3d
       0.10313337 -0.08047607 -0.07615652 0.054649077
000220 1c 21 d1 bd 99 18 4f 3e 21 12 d0 bd 12 80 88 3d
       -0.10211393 0.20224227 -0.10159708 0.066650525
000230 32 fc 65 be b1 64 02 3e 32 7c 4c bd 13 dd ae bd
       -0.22459486 0.12733723 -0.04992313 -0.0853826
000240 fd 03 65 3b 11 c2 64 3e 1c b3 11 bd b8 91 e8 3c
       0.0034945004 0.22339655 -0.035571203 0.028389797
000250 8f cf 85 bd 76 7f b5 3d aa 3c 69 be 95 8d 0b 3e
       -0.06533729 0.08862202 -0.22777048 0.13628228
000260 65 37 16 3c c3 c1 57 3e 62 da 31 3d 61 94 34 3d
       0.0091684805 0.21070008 0.043421157 0.044086818
000270 4a 72 0e 3e 5c 03 00 3d e5 ef cd bc a9 fd fc bc
       0.13910785 0.031253204 -0.025138805 -0.030882673
000280 46 b2 2b 3e fb 11 a4 3d b0 1c 3a 3d ae e0 01 be
       0.16767225 0.08011242 0.045437515 -0.12683365
000290 91 76 16 3e 8b 36 fc 3d 13 a2 6f 3e 29 76 ee bc
       0.14693667 0.12315091 0.2340167 -0.029109078
0002a0 e0 bf 3c 3d 7e 37 f6 3d 88 f2 b5 3d 5c b8 9c 3e
       0.046081424 0.12022303 0.0888415 0.30609405
0002b0 71 3f 37 bd 38 05 28 be 62 7e db bc 6d e0 25 bd
       -0.044738237 -0.16408241 -0.026793662 -0.040497232
0002c0 1b c2 9d 3d a2 32 f9 bc f0 68 46 be 09 d8 e4 bc
       0.07703038 -0.030419651 -0.19375968 -0.027935045
0002d0 a8 88 38 bd ba e2 06 3d 90 35 ea 3c ee 5c 76 3c
       -0.0450522 0.032931067 0.028589994 0.015036805
0002e0 ec 3c be 3b 8b a9 e7 3d 97 ae ea bb 77 be 64 3d
       0.0058056023 0.11311635 -0.007161926 0.055845704
0002f0 d5 70 0d 3e 3a 2f 91 3e e3 98 44 3e 21 1d 8c 3d
       0.13812573 0.28356344 0.19198947 0.068414934
000300 8d d8 66 bd ff a1 bf bd 0a 36 88 3e 5a d2 1e 3d
       -0.056358863 -0.0935707 0.2660373 0.038774826
000310 cb 0f 3f 3e bb 5a f2 3d e7 92 da bc c8 d1 f3 3d
       0.18658368 0.11833712 -0.026681377 0.11905247
000320 01 f6 c8 bd d1 ee 22 bc 7a b6 9f 3c ea 67 87 bd
       -0.098125465 -0.009944634 0.019496191 -0.06611617
000330 ab 71 cf bd 87 e5 f1 bd 1a 0a 67 be a2 63 03 be
       -0.10129102 -0.11811357 -0.22562447 -0.12830976
000340 6b bf ef 3d fb 55 22 be d7 35 33 3d ca 45 fa 3d
       0.11706432 -0.15853111 0.043752518 0.122203425
000350 8a e6 e8 ba ba 76 19 bd 8b 5f 8b 3b a8 37 60 3d
       -0.0017768901 -0.037466742 0.004253333 0.054740578
000360 29 df a1 bd 93 8f 2b be ca c3 28 be 44 ae 9d bd
       -0.079038925 -0.16753988 -0.16480938 -0.07699254
000370 f5 46 15 be 78 cb 00 3e c6 0e 8f be f2 a1 d5 3d
       -0.14577849 0.12577617 -0.2794096 0.10431279
000380 ec 56 80 3c f5 22 8f bb 46 37 e5 bd 24 72 76 be
       0.015666448 -0.004368181 -0.11192183 -0.24066979
000390 cd 46 97 bd 2d 73 43 3d 94 de 14 bd 69 19 1d 3e
       -0.07386551 0.047717262 -0.03634508 0.15341724
0003a0 64 bb 37 bd 3e 2b 5b bd 48 19 87 3c 37 25 02 3e
       -0.044856444 -0.053508036 0.016491547 0.12709509
0003b0 52 ab d2 bd fc f1 78 be 2d cb 61 bd 08 79 13 3d
       -0.10286583 -0.2431106 -0.055125404 0.036004096
0003c0 a5 ea ea bd d6 c3 57 3d df 5f 75 be 96 a3 cc 3d
       -0.11470536 0.052676998 -0.23962353 0.09992139
0003d0 9d b9 30 3d 8d 9b 78 be 85 57 a5 bd 8d 01 ce 3c
       0.043145765 -0.24278088 -0.08073334 0.025147224
0003e0 3f fa 08 be 6d 06 9a bd 65 21 01 3e 0b 01 cb bd
       -0.13376711 -0.07520757 0.12610395 -0.09912308
0003f0 83 75 9d bd 5b 6f 06 bc 6f 9d 21 3e a7 23 dc bd
       -0.07688429 -0.00820526 0.15782712 -0.10748988

conv4.0.weight f4 [64, 64, 1]
000000 1d c3 27 be c0 e2 d7 3d 8c 7f 0b be 12 b5 02 3e
       -0.16383024 0.10541296 -0.13622874 0.12764385
000010 f0 85 08 3e ec 26 f9 bd 23 de 73 3d fd 26 0f be
       0.13332343 -0.12165627 0.059538018 -0.13979717
000020 4f 4c 35 be 0d 49 09 be 63 ff 86 3c af 64 d5 bd
       -0.1770489 -0.13406773 0.0164792 -0.104195945
000030 5e 12 8b bc cd 84 7c bd 1d 51 9e be 94 e6 1d bd
       -0.016976532 -0.061650086 -0.3092126 -0.038549975
000040 ee d7 b7 be 7d 1e a1 bd 20 ed c5 be 76 1b e2 3d
       -0.3590693 -0.07867143 -0.38657475 0.11040394
000050 43 d1 60 bc 4b e0 60 bc d8 c7 3c bb 0f a0 29 bc
       -0.013721767 -0.013725351 -0.002880564 -0.010353102
000060 b0 9a 00 be 4d 6b b8 bd e7 93 e9 3d c7 a3 05 be
       -0.12559009 -0.09004841 0.11405163 -0.13050757
000070 09 f6 06 bd f8 de 1e be ff 21 d4 3d a9 3c 71 3d
       -0.03294948 -0.15514743 0.10358047 0.05889574
000080 f4 1f 7a bd 30 45 15 bd 19 8c 96 bd f7 03 05 3e
       -0.06106563 -0.036442935 -0.0735094 0.12989794
000090 70 ca 46 3d d0 19 19 be 34 9b a0 be b3 1c 94 3d
       0.048532903 -0.14951253 -0.3136841 0.072320364
0000a0 04 64 c8 bd fe 75 f7 3d b0 db 4f be db 06 1c 3d
       -0.097847015 0.12083052 -0.20298648 0.038092475
0000b0 76 06 01 3e b0 78 c5 bb 45 0c 08 3e b8 37 d0 bd
       0.12600121 -0.00602635 0.1328593 -0.101668775
0000c0 17 5c 9e 3d 5f 19 64 bc af 31 ba 3d e2 77 3b bd
       0.077324085 -0.013922065 0.09091508 -0.045768626
0000d0 b2 85 62 bb da 4f 49 3d 49 79 59 bd 74 ae be bd
       -0.0034564552 0.049148418 -0.053094182 -0.09310618
0000e0 7c a9 66 be a2 96 26 3c 45 2c 39 3c 4a cf d7 bd
       -0.2252559 0.01016775 0.011302059 -0.10537584
0000f0 4f 38 0c be 73 1f a7 bd 95 8b 4c 3c bd 87 80 be
       -0.13693355 -0.08160295 0.012484451 -0.2510356
000100 60 2f 0f 3e f8 0c f1 bd 00 ae 1e be 7a a7 51 bc
       0.13982916 -0.11770052 -0.15496063 -0.012796277
000110 77 1a 94 3d 5e 58 22 bd 04 9a b7 3c 5a d3 8f 3d
       0.0723161 -0.039635055 0.022412308 0.07022734
000120 8f 35 f6 3b 0b 8f a9 3d ee 15 b3 bb f9 4a fe 3d
       0.007513709 0.082792364 -0.0054652607 0.12416644
000130 47 ae 90 3d 97 35 36 3e 16 d7 35 3e 90 7f fd 3c
       0.07064491 0.1779388 0.1775783 0.030944616
000140 df 5a b0 bd 00 a0 c1 bc 89 aa e2 3d 5a ea 8f bd
       -0.08611082 -0.023635864 0.11067683 -0.07027121
000150 8b 9c a9 3d ad 13 f6 bd e5 60 ea 3d f5 47 22 bd
       0.08281811 -0.120154716 0.114442624 -0.039619405
000160 79 91 19 3e f9 be 35 be 58 0f 23 be e8 a5 99 3d
       0.149969 -0.17748632 -0.15923822 0.07502347
000170 f1 e4 83 bd 2d f2 2c be 1c 90 fe 3d b9 29 0c be
       -0.064401515 -0.16889258 0.124298304 -0.13687791
000180 48 5f d3 bd 86 86 7b bd c6 28 33 bd 40 4d 60 be
       -0.10320908 -0.06140759 -0.043740056 -0.21904469
000190 a8 d3 1f 3e 1e 3f 8d 3d ac 0a ed 3d 55 5f 00 be
       0.15608084 0.06896804 0.11574301 -0.12536366
0001a0 5a f9 0f 3e a1 af 79 3d ca 2e 88 bd 81 44 ba 3d
       0.14059964 0.06095851 -0.06649549 0.09095097
0001b0 bb 2c f4 3d 92 48 ba ba 56 f6 66 bd 00 d3 11 3e
       0.11922594 -0.0014212301 -0.056387268 0.14240646
0001c0 50 bd 26 3d fb 32 63 bd f7 3f b5 bd b5 bb d1 bd
       0.040707886 -0.05546854 -0.08850091 -0.102408804
0001d0 b0 30 45 3e 8f e5 30 3e 19 b1 23 3d 9a 3c 40 bd
       0.19256854 0.1727507 0.039963815 -0.046932794
0001e0 9f d5 3b 3d 90 c4 1c 3e 47 1d d3 bb 08 eb 09 be
       0.04585802 0.15309358 -0.006442699 -0.13468564
0001f0 0f 66 3b 3e de f0 28 be b9 c4 82 be bf 51 2e 3e
       0.18300651 -0.16498134 -0.25540712 0.17023371
000200 25 f4 26 3e 06 32 c1 bc 63 cc 08 3e 7a 5a 33 be
       0.16304071 -0.023583423 0.13359217 -0.17514983
000210 fc 66 32 be 35 ac 87 b9 4d 96 95 be 01 fa 2f 3e
       -0.17422098 -0.0002587751 -0.29216233 0.17185213
000220 10 4f 1c bd 8c 24 aa bd 48 0c f0 3d 10 cc 6c 3e
       -0.038161337 -0.08307752 0.117210925 0.23124719
000230 7f bf 96 3d 75 06 4c 3e fc 7c 8d 3b 82 f9 d6 3d
       0.07360744 0.19924338 0.004317878 0.104968086
000240 fc 5b cc bc a2 d8 0a 3e 94 44 7a bb c4 9e e2 bd
       -0.024946205 0.13559201 -0.0038187848 -0.110654384
000250 39 1e 4f 3b a5 a9 00 be 72 c0 03 be 6b 27 18 be
       0.0031603707 -0.12564714 -0.12866381 -0.14858787
000260 89 d8 83 3e e6 e2 b2 3d 92 46 44 3c 91 d0 37 3d
       0.2575114 0.08734684 0.011979716 0.04487664
000270 38 f2 98 be bf 2f b5 3d 48 d8 11 3d d8 44 25 bc
       -0.29872298 0.088469975 0.035606652 -0.010087214
000280 39 5d 54 bd fb 33 5e be 10 ef 3c 3d ad cb b5 be
       -0.051846717 -0.21699516 0.046126425 -0.35506955
000290 2b 0c 3b bd 8f 35 74 bd 2c 0f f1 3d 49 5f 44 be
       -0.0456659 -0.05962139 0.11770472 -0.19176973
0002a0 b7 95 94 3d 21 c1 f6 3c 5f 93 9b be 34 f7 87 3d
       0.07255118 0.030121388 -0.30385873 0.06638947
0002b0 0b 76 84 bd 98 7a ab bd 4c 9d 58 bd 5b a7 54 bc
       -0.064678274 -0.08372992 -0.052884385 -0.012979354
0002c0 84 8e 1a be c5 e9 9d bd 4e 32 9f 3e db 23 24 3c
       -0.15093428 -0.077106036 0.31093067 0.010018314
0002d0 f5 3a 5c bc 02 9d 6a be a3 e4 ce 3d 37 e8 90 be
       -0.013441791 -0.22911456 0.10102203 -0.28302166
0002e0 8a ad 27 3d 28 76 6e 3e c5 50 04 3e 70 92 03 bd
       0.040936984 0.2328726 0.12921436 -0.032122076
0002f0 e0 c9 04 3e 6a 7d 36 be df 0e 71 3c 61 36 69 3d
       0.12967634 -0.17821279 0.014713018 0.056936625
000300 64 33 62 be 63 65 39 be ea 29 bc 3c 82 5b 92 3d
       -0.22089916 -0.18105082 0.022969205 0.0714636
000310 e1 0a 84 3e 86 7b 13 3e e3 f5 89 bc 0d d8 4c 3d
       0.2578955 0.14402589 -0.01684088 0.05001073
000320 c7 f2 51 3d ef 40 9c bd dd b8 24 be 55 f2 19 be
       0.05125692 -0.076295726 -0.16086145 -0.15033849
000330 02 99 2c 3c 80 bb 77 be 8e 4d 5f 3d 9d 48 80 be
       0.010534527 -0.2419262 0.05451732 -0.250554
000340 49 12 ef 3b 53 f4 89 3d 6c 6d 8f bd 16 1d 1b bc
       0.007295881 0.06736054 -0.070032924 -0.009467384
000350 e3 56 18 be 1c 5c d5 bc 9b ff 28 3c 81 61 6d bd
       -0.14876895 -0.026044898 0.010314847 -0.057954315
000360 f3 a1 48 bd a5 04 97 be 5b d5 41 3e b7 2d d6 bd
       -0.04898257 -0.2949573 0.18929045 -0.10457938
000370 69 16 53 3e be 59 c9 3b f4 30 d9 3d 81 dd ae 3d
       0.20614018 0.0061447313 0.1060504 0.08538342
000380 95 e0 f0 3d b3 a7 5c 3e 32 d3 31 3e 1d 9a 85 3d
       0.117615856 0.21548347 0.17365721 0.065235354
000390 38 eb 1f be 23 1e fb ba 70 a8 a2 bc 82 14 1f 3e
       -0.15617073 -0.0019158762 -0.019855708 0.15535167
0003a0 fe 19 90 bd bd e3 ef 3d c8 67 7b 3c 41 dc 53 be
       -0.070362076 0.117133595 0.015344568 -0.20689489
0003b0 cc 0b 69 3d 5a 98 d2 3c 16 45 86 3e db 33 05 be
       0.056896016 0.025707413 0.26224583 -0.13008063
0003c0 09 98 88 bd 7b ff 41 3e 64 1d 88 bc 2d 1a 2b 3d
       -0.066696234 0.18945114 -0.016615577 0.04177301
0003d0 0e dd 56 bc 3a b3 92 3d 64 4c ad bd f9 92 84 3d
       -0.013114227 0.07163091 -0.08461836 0.06473345
0003e0 9c 24 92 bd 76 1a c4 bd cb 7e f6 bd 7c 25 e1 bc
       -0.07135889 -0.095753595 -0.120359026 -0.027483694
0003f0 f1 d0 8c bd ec e3 1b 3e 0f cb c8 bd 78 f6 b0 bd
       -0.0687579 0.15223664 -0.09804355 -0.0864076
