models_slbp+gf/case8_final.pth (torch_old, 110331 bytes, 9 tensors)

conv1.conv.3.weight f4 [32, 32, 1, 1]
000000 9c da 8c bd d2 af 1c be 6c 98 21 3e fb 52 7f 3e
       -0.06877634 -0.15301445 0.157808 0.24933998
000010 89 f0 fb 3d 35 57 6c bd 1c 17 2f bd f8 42 50 bc
       0.12301738 -0.057700355 -0.04274665 -0.012711279
000020 79 33 83 be 4f c4 5b 3c 99 86 85 bd 02 d0 a5 bd
       -0.25625208 0.013413503 -0.06519813 -0.08096315
000030 30 61 e1 3d f8 bb 93 bd bc c7 60 bd aa 24 b4 be
       0.11004865 -0.072135866 -0.05487798 -0.35184222
000040 4d 2d 24 bd 8b 05 64 3e e4 22 0a be 64 53 4c be
       -0.040082265 0.2226774 -0.13489872 -0.19953686
000050 5b a2 1d be fa 21 8b be e7 22 89 bd c1 22 88 3e
       -0.15393965 -0.2717436 -0.0669611 0.26589015
000060 6e 33 cf bc c3 89 38 3e 4e 57 5a 3e a3 a9 37 3e
       -0.025293078 0.18021302 0.21322367 0.17935805
000070 1d 66 a3 3b df e6 48 be 28 2d 10 3e 8e ab a2 3d
       0.004986538 -0.1961932 0.14079726 0.07942878
000080 6b 1f bb 3d 8e 38 bb 3d b7 dc be 3d 62 dd 2c 3e
       0.09136852 0.09141646 0.09319442 0.16881326
000090 e7 f6 30 3e 69 ea 90 bc c1 65 7d 3b 5d 3d a0 3d
       0.17281686 -0.0176899 0.0038665386 0.07824204
0000a0 08 84 dd bd 40 6b 80 3d 29 b2 8d be e7 47 35 3d
       -0.108161986 0.06270456 -0.27674988 0.044258025
0000b0 9b fb 76 3e 09 4b da bd 2b 92 96 be d7 2f 06 be
       0.24119417 -0.10658843 -0.29408392 -0.13104187
0000c0 65 22 c6 bd ba 0b 0a be 3e ed 8d be a0 43 25 be
       -0.09674529 -0.13481036 -0.27720064 -0.16139078
0000d0 ec 39 77 be 82 ce b5 3c be 79 03 3c ff 2a 2c 3e
       -0.24143189 0.022193197 0.008024631 0.16813277
0000e0 45 40 0e 3e 76 c8 1e 3c 7c 01 7e 3e 35 55 32 3e
       0.13891704 0.009691348 0.24805254 0.17415316
0000f0 f9 1e c5 3d c8 61 b2 3c 50 cd d9 3d c1 b4 f7 3d
       0.09625048 0.021775141 0.106348634 0.12095023
000100 07 f7 07 3e b4 fe 08 be 98 61 3f be 31 56 98 bd
       0.13277827 -0.13378412 -0.18689573 -0.07438315
000110 c7 3e 86 bd cc a0 54 bd 1b 2f 14 3e c0 31 74 be
       -0.065549426 -0.05191116 0.14471094 -0.23847103
000120 b7 3f df 3d 4c 8d 89 3e b8 a3 23 be 73 80 19 be
       0.109008245 0.26865613 -0.15980422 -0.14990406
000130 4a 36 08 bd 65 c4 a3 bd 54 ac e1 3c a9 af 97 bd
       -0.0332549 -0.07996444 0.027547993 -0.074065514
000140 80 1e 21 be da 4b 0c 3d 8f 05 e8 3b 85 dc 89 bb
       -0.15734291 0.034252025 0.0070807408 -0.004207196
000150 59 02 ac 3d 01 d2 f5 bd 9f fe 0d bd 99 9a 24 3d
       0.08398885 -0.12002946 -0.034666654 0.0401865
000160 73 3d 02 3e 36 34 57 be a1 e6 01 be 34 86 c6 3c
       0.12718754 -0.2101601 -0.12685634 0.024233915
000170 a9 13 b4 bd 87 40 d5 3d a5 ef 39 3d 34 8b 94 3c
       -0.087928124 0.10412698 0.04539456 0.018132783
000180 7d c0 4d 3d a2 3e 96 3d ba 36 d8 3d 03 4c a7 be
       0.0502324 0.07336165 0.10557313 -0.3267518
000190 b8 72 8f 3e 2c c8 33 3e 46 96 74 3e 51 87 db 3d
       0.2801721 0.17556828 0.2388545 0.10719169
0001a0 a7 de 97 bd 85 c7 f8 3b fe cf f9 3d 79 ab 69 3e
       -0.074155144 0.007592144 0.121978745 0.22819318
0001b0 48 ad dd 3c 11 14 bd bd a6 2a 29 bd 9e 97 99 3e
       0.027060166 -0.09232343 -0.04130044 0.29998487
0001c0 05 11 ea bb 5b e1 ca 3e 4c 75 1b 3d 83 94 09 bd
       -0.007143142 0.39625058 0.03795366 -0.033588897
0001d0 2c b2 a8 3d 98 1e 89 3e e3 6a 43 3d 5b 2b 60 be
       0.082371086 0.26781154 0.047709357 -0.21891539
0001e0 07 f4 d4 38 5a cd 4e 3e ca 5e a7 bb 4d c9 98 3d
       0.000101544014 0.20195523 -0.0051077353 0.0746027
0001f0 2c 49 74 3c 61 3d 50 bd b7 a9 14 3d 70 bb ea bd
       0.014910024 -0.050839785 0.036294665 -0.11461532
000200 70 b0 53 3e b3 39 fd 3d dd bd a0 be 4c 90 f6 bd
       0.20672774 0.12364521 -0.31394854 -0.12039241
000210 ee 2f ba bd bc cf 2d 3d 85 43 56 3d aa 29 50 be
       -0.09091173 0.04243444 0.052310485 -0.20328394
000220 34 5a 82 3a 5a f2 8c 3e b2 a6 f7 3d 1f 4d 81 be
       0.0009945096 0.2752865 0.120923415 -0.2525415
000230 95 a0 8a 3c c9 72 e6 3d c3 ad 21 3e d1 88 06 3e
       0.016922275 0.11252362 0.15788941 0.13138129
000240 5f 31 7e be fe af 67 3c d0 34 b5 bd 5e 1d e5 bc
       -0.24823521 0.014141081 -0.08847964 -0.027968105
000250 93 ba 44 be e0 3b 22 3e 27 c6 19 be 06 ba 0a be
       -0.19211797 0.15843153 -0.15016995 -0.13547525
000260 43 23 d8 3d 57 a1 c0 3c ae d0 a9 bd 25 d1 c6 3d
       0.10553601 0.023514433 -0.082917556 0.0970786
000270 0f 2f b0 3e 1b 4c bc 3c ae 9e e3 3e 9b 9c 56 3e
       0.34410903 0.022985509 0.44457 0.20958178
000280 28 cd 15 be 11 e6 3e 3d da d4 e6 bd e1 ad 28 be
       -0.14629042 0.046606127 -0.11271067 -0.1647258
000290 39 13 41 be 3d a6 eb bc 57 3d c7 3c 24 b0 59 3e
       -0.18854989 -0.028765792 0.024321241 0.21258599
0002a0 e9 76 d4 bd d7 27 d7 3d 4e e5 11 be 69 16 37 be
       -0.10374243 0.10505646 -0.14247629 -0.17879643
0002b0 9d 59 ea 3d 13 49 2c be 11 33 a1 bd 11 4e 2f be
       0.114428736 -0.1682475 -0.07871068 -0.17119624
0002c0 7c 26 ad bc ea 8e 2c be b2 ad c1 bc 6c b8 8f be
       -0.021136515 -0.16851392 -0.023642395 -0.2807039
0002d0 1c dd 5d be c8 82 8d 3d b5 69 96 3c da 1d 5d be
       -0.21666378 0.0690971 0.018360952 -0.21593419
0002e0 3c 0b 57 bd 31 95 67 bd eb 47 68 3e e4 e2 64 3e
       -0.05250095 -0.056538764 0.22683685 0.22352177
0002f0 59 13 2f 3e d4 1f b0 bd ad ee 01 be 6e 82 57 bd
       0.17097224 -0.08599821 -0.12688704 -0.05261462
000300 b2 cb e6 bd 8a cb af bb 6a cf 89 be e9 6d 36 3d
       -0.112693205 -0.00536484 -0.26916057 0.044538412
000310 76 59 7c bd 17 17 eb bd f5 4c a6 bd 8e 86 e3 3d
       -0.061608754 -0.114790134 -0.08120147 0.11109649
000320 04 9f bf 3d e6 45 70 3e 57 9e 4b 3e 94 2e 42 3c
       0.09356502 0.23464164 0.1988462 0.011851925
000330 1c 55 10 3d 1d d0 8b bd 10 9b 4b be f5 74 89 be
       0.035237417 -0.06826804 -0.1988337 -0.26847044
000340 ae 2e 55 be d0 23 9c bd 1f 88 c0 bc 19 0b 0c bd
       -0.20818588 -0.07624018 -0.023502408 -0.03419027
000350 17 65 fd be 47 da af 3d 57 f8 4b be 70 11 e0 3d
       -0.49491188 0.08586555 -0.19918953 0.10940826
000360 6d 84 67 3e 0f 1a b6 3d 1b 55 48 bc f4 c7 c0 3d
       0.2260911 0.08891689 -0.012227322 0.09413138
000370 33 ae 58 3e c5 d2 d4 bd 5b 93 a3 bd 99 4f 46 3e
       0.21160202 -0.103917636 -0.0798709 0.19366302
000380 21 f9 d6 3c c5 4a 4e 3e 9c 72 b8 3d c0 c3 91 bd
       0.02624184 0.2014571 0.09006235 -0.071174145
000390 84 d2 51 3e a6 d9 7b 3c 4e 91 7e bc 97 cc d5 3c
       0.20490462 0.015371716 -0.015537573 0.026098533
0003a0 c6 e8 02 3e af bc 47 3e ee 72 0c be 48 65 9a 3e
       0.12784109 0.19505571 -0.13715717 0.30155396
0003b0 f2 73 e2 3d 62 18 20 3e 1b 88 5d 3e aa 33 e7 bd
       0.11057271 0.15634301 0.21633951 -0.11289151
0003c0 4d 5b a7 3d 9c d1 f7 3d 36 c0 37 3c c6 6e 2f 3e
       0.08171711 0.12100527 0.01121526 0.171321
0003d0 b5 a9 42 3d 0a 33 1a bd 7a b8 24 bd af b8 7d 3e
       0.047525126 -0.03764633 -0.040214993 0.24777482
0003e0 e4 4d 99 bd 47 2f 8d 3e 57 4a c6 3d f2 a7 9a bd
       -0.074855596 0.27575132 0.09682148 -0.07551564
0003f0 c7 94 09 bc fa 75 21 3e ce 8f cb 3d 4e a1 84 be
       -0.008397288 0.1576766 0.09939538 -0.25904316

conv1.conv.6.weight f4 [32, 32, 1, 1]
000000 dc be 83 bd 09 17 9d 3e da a3 9a 3e 17 e0 4d be
       -0.06432888 0.30681637 0.30203134 -0.20105015
000010 53 13 36 3d b7 0f aa 3e 66 38 33 bd db c9 38 3d
       0.044452023 0.33215114 -0.043754958 0.04511438
000020 c6 8b 32 3d ad 2d 1e be 6d ff cd 3d b7 bb 5a bd
       0.04359033 -0.15447111 0.10058484 -0.053401675
000030 e4 88 06 3e 8e fd 04 be a2 c9 a3 3c 85 60 8e 3d
       0.13138157 -0.12987348 0.019993607 0.069520034
000040 01 fe b6 3c 15 e8 c1 bd b9 bb 8c 3d 09 a8 4b bc
       0.022337915 -0.09468094 0.06871743 -0.012430199
000050 26 ee 4d be 5a 12 81 3e e0 04 c8 ba 03 8d ea 3d
       -0.20110378 0.25209314 -0.0015260242 0.11452677
000060 e8 7a 0b be 74 77 af bd 19 e4 a0 3e 97 fb 45 3d
       -0.13621104 -0.08567706 0.31424025 0.048335638
000070 1f d8 a0 bd 32 2c fe 3d 37 c4 02 be 61 56 b0 3d
       -0.07853722 0.12410773 -0.12770163 0.086102255
000080 e4 ae d9 3d 59 47 a8 bc a2 d6 60 3e fa ab 30 be
       0.10629061 -0.020541834 0.21956876 -0.17253104
000090 44 94 09 be 8e 5e c4 bd 60 20 93 bd 28 1a 8f be
       -0.13435465 -0.095883474 -0.071839094 -0.27949643
0000a0 96 9d 72 3e f5 fb f4 bd 0a ef b7 be 3d d4 34 be
       0.23692927 -0.119621195 -0.3592456 -0.17659087
0000b0 00 14 38 be 2f ad c4 bd a4 d0 45 be 74 bd 8f b9
       -0.1797638 -0.09603345 -0.19317871 -0.0002741624
0000c0 46 cf 25 3e 34 b0 08 3e 31 6d 53 3e 7e 91 46 be
       0.1619235 0.13348466 0.20647122 -0.19391438
0000d0 ae d0 63 3c 07 d5 bf be a0 b5 79 3d 79 f7 3e 3d
       0.013904734 -0.37467214 0.060964227 0.046622727
0000e0 92 aa be bd d3 79 82 be 65 b2 e0 3c 33 d2 4a 3e
       -0.093098775 -0.2548357 0.027428815 0.19806747
0000f0 7b f0 e6 bd fe dc 0e bd 63 1c 03 3e f4 c2 ad bd
       -0.11276337 -0.034878723 0.12803797 -0.0848445
000100 ee 9d a0 3d 24 6e 05 3d 4f 8a 06 3e 20 4e 39 be
       0.07842623 0.03257574 0.13138698 -0.18096209
000110 84 fe 98 bd 01 fd 2e 3d 9c 2a 6d 3b 00 be 99 be
       -0.0747042 0.042721752 0.0036188727 -0.3002777
000120 e9 64 12 be bd e8 a3 3d 4d 8b 74 3e 38 60 b1 be
       -0.14296307 0.08003376 0.23881264 -0.34643722
000130 8b 8f ee bb 39 cd 6f be b5 44 0f 3e 92 d3 2a 3d
       -0.0072802952 -0.2341813 0.13991053 0.041705675
000140 f8 25 8d 3b 41 63 e1 bd c4 25 23 be f3 f6 13 bd
       0.0043075047 -0.11005259 -0.15932375 -0.03612418
000150 e5 fb 55 bd 6c f5 c6 bd de 96 9d 3d 04 d3 25 bd
       -0.05224218 -0.09714779 0.07694791 -0.040484443
000160 09 e9 43 3e d8 f6 a6 be 4e bc 40 ba f0 6d 84 3d
       0.19131865 -0.32610202 -0.00073522783 0.064662814
000170 6e 7e f5 3d 48 40 0b bd 0f 59 d1 bc ce 66 9b 3e
       0.11987005 -0.03399685 -0.025555162 0.3035187
000180 48 b1 0b 3b 9a a2 5b 3d a3 0c 70 be 59 c7 58 3d
       0.0021315385 0.053621866 -0.2344232 0.052924488
000190 2a 74 2d be 44 12 97 bd 38 a0 72 3e eb 17 1a 3e
       -0.16938844 -0.07376531 0.23693931 0.15048186
0001a0 d3 ec 28 3e 8e ad 36 3e 4b c4 ad bc 62 c8 b3 bb
       0.16496591 0.17839643 -0.021211764 -0.005486534
0001b0 28 75 4a 3e 67 3a 2a bd 73 c0 80 3c 48 c9 97 be
       0.19771254 -0.041559603 0.015716767 -0.29645753
0001c0 b4 c1 da 3d 1e c1 64 3e f3 f9 a2 be 72 01 4e be
       0.10681477 0.22339293 -0.3183132 -0.20117739
0001d0 aa 32 b1 bd 7c 40 a0 bd 4f b8 b2 bd df 0c 00 bd
       -0.086522415 -0.078247994 -0.0872656 -0.031262275
0001e0 11 ce 8a bc c8 0c 25 bd 9f 6d e1 bd 82 a6 0a 3e
       -0.016943963 -0.040295392 -0.11007237 0.1354008
0001f0 e8 72 f6 3d 66 e1 04 be 55 56 c9 bd b4 32 24 be
       0.120336354 -0.12976608 -0.0983092 -0.16034967
000200 63 63 46 be e0 8a 25 bd 7d cb 11 bc 18 4f 7f 3e
       -0.1937385 -0.040415645 -0.008898613 0.24932516
000210 fb f4 88 3b 56 ac af bd 49 ef d6 3b ea af 26 be
       0.0041795946 -0.08577792 0.0065592867 -0.16278043
000220 76 2e 26 3e 9e d0 0e 3e 43 ee c3 bd a1 94 8e bd
       0.16228661 0.13946769 -0.09566929 -0.069619425
000230 4e 6f 4f 3d 1d 2b 45 3d a8 51 13 be 9c 62 7f 3c
       0.050643258 0.04813682 -0.14386618 0.015587475
000240 ea 7d e8 bd 1e 3d 22 3d 7b bc 40 bc 2e 79 9c bd
       -0.11352141 0.039609067 -0.011763687 -0.07640301
000250 ac 78 ff 3d 43 38 82 be 97 3b 92 be 9b 11 17 be
       0.12474188 -0.2543355 -0.28561088 -0.1475281
000260 10 e9 bc bc e5 b2 29 3e c5 45 23 bd 8a af ad bd
       -0.023060352 0.16572149 -0.03986146 -0.08480747
000270 05 cf 5b be 7a 25 5c 3e 40 6d 74 3e 4d c9 a4 bd
       -0.2146569 0.21498671 0.238698 -0.080462076
000280 99 ce be 3d a8 e4 b7 bc 7b 14 0c 3d f8 f1 87 be
       0.09316749 -0.022447899 0.03419922 -0.26551795
000290 e0 81 b8 3d d6 dd d4 3d 4f 62 8d 3d e6 b0 f1 bd
       0.09009147 0.10393874 0.069035165 -0.11801319
0002a0 d9 36 fd 3d a8 53 be bd 98 4a 83 be af fa b6 be
       0.12363977 -0.092933 -0.25642848 -0.3573813
0002b0 b7 63 9d 3d c8 40 97 be 7a 3f 16 be 29 a4 c5 3d
       0.07685035 -0.29541612 -0.14672652 0.09650452
0002c0 51 31 c6 ba d5 ff 96 3c 94 8d 36 3e 2c c9 49 be
       -0.0015120899 0.018432537 0.17827445 -0.19705647
0002d0 c0 bc b7 bd d2 72 76 be 85 eb c6 bd c2 d8 ba bd
       -0.08971548 -0.24067238 -0.097128905 -0.091233745
0002e0 72 40 38 bd 8c 07 26 be 66 ce 9d bb 02 e1 5a 3e
       -0.044983335 -0.16213816 -0.0048158644 0.21374896
0002f0 6c 39 17 3e 40 00 f0 bd 6b bc 69 3c 68 51 3c bc
       0.14767998 -0.11718798 0.014266114 -0.011494018
000300 c8 83 51 3e 43 cb 00 3e 10 d8 2e be 47 04 57 3d
       0.20460427 0.12577538 -0.17074609 0.052494314
000310 8c c8 ad be a8 64 27 bd 6f 98 ae be be 91 d4 3d
       -0.33942068 -0.040867478 -0.34100673 0.103793606
000320 5f be 32 bd 49 26 c9 bd 0d 46 68 bd ce d6 8a 3c
       -0.043638583 -0.098217554 -0.05670743 0.01694813
000330 ed ca 65 be 62 41 10 bd 45 bd 9b 3b 92 cd f0 3d
       -0.22440691 -0.035218604 0.0047527873 0.117579594
000340 e5 4f 2e bd 5f 56 f5 bd d4 83 84 bd a9 f5 96 bd
       -0.042556662 -0.119793646 -0.06470457 -0.07371075
000350 4f 37 5f bd 68 36 85 be f6 b4 c0 bd 83 64 1f be
       -0.054496106 -0.2601807 -0.094095156 -0.15565686
000360 30 6f bd bd cb d1 80 be c6 db 8f be 49 33 3f 3e
       -0.09249723 -0.2516006 -0.2809736 0.18671907
000370 12 38 b2 3c 2d 70 a2 bd 5c 7d ae bd cc b0 19 3d
       0.021755252 -0.07931552 -0.08520004 0.037522122
000380 44 af 0c 3e 3e 3e 15 3e b5 3e b0 be 48 89 76 3d
       0.13738734 0.14574525 -0.34422842 0.060189515
000390 89 16 00 3e 9f e2 28 bc f4 84 65 3e ff 21 5e 3e
       0.12508596 -0.010307937 0.22413999 0.21692656
0003a0 12 9a 7b 3d 39 60 15 be c8 0b 34 3e 34 b9 8d 3e
       0.06142623 -0.14587487 0.17582619 0.2768036
0003b0 ce f3 c5 bd 51 26 03 bd ea bd f1 bd e1 9a 8a 3c
       -0.09665643 -0.032018963 -0.11803801 0.016919555
0003c0 53 b6 32 3e 23 1d 8a 3d 4e 9c ab be 8f d5 16 3e
       0.17452364 0.06743839 -0.3351769 0.14729904
0003d0 f0 23 50 be 0a 3d 78 be 33 f8 4c bd b3 c7 b9 bc
       -0.20326209 -0.24242035 -0.05004139 -0.022678232
0003e0 45 bf 41 be 0b 89 1e 3e d8 5c 25 3d 80 56 a7 bd
       -0.1892062 0.15481965 0.040371746 -0.081707954
0003f0 c5 48 11 bd d4 3a 3d 3d d7 19 a5 be c2 09 77 3d
       -0.03546979 0.04619868 -0.32246277 0.06031204

conv2.conv.3.weight f4 [32, 32, 1, 1]
000000 35 19 25 3e c4 0d 84 3e f9 bd 5d 3e c6 8e 55 3d
       0.16122897 0.25791752 0.216545 0.052138112
000010 ad 6c 5a be 71 ad 8b bd f8 24 46 3e 6b 19 70 3d
       -0.21330519 -0.06820191 0.1935004 0.05861799
000020 2c fa 3a 3e 13 77 ee bd af 5a 8e 3e 97 92 52 be
       0.18259495 -0.11643805 0.2780356 -0.20563732
000030 cb 7b 13 3e 6a 8c 91 bc eb 7c 34 3d 61 9a 00 bc
       0.14402692 -0.01776715 0.044064444 -0.007849307
000040 9e f4 b8 3d 29 d3 65 bd 64 4b 82 3e aa ad 3a 3e
       0.09031032 -0.05610958 0.25448143 0.1823031
000050 3b b6 2e be 63 fb 7a 3d b1 ac 01 be fc eb 72 be
       -0.17061703 0.061274897 -0.12663533 -0.23722833
000060 96 70 b2 bc 06 d5 a1 3d 23 a1 38 3a 44 0f 4b 3e
       -0.0217822 0.07901959 0.0007043054 0.19830042
000070 1e c6 11 be 42 e4 13 3e 74 bc c9 3d 6d d0 1a 3e
       -0.14235732 0.14442542 0.09850398 0.1511857
000080 2f ba 3c be 38 d6 9b 3c 87 37 3b be 23 10 83 bd
       -0.18430398 0.019023046 -0.18282901 -0.06399562
000090 74 f0 da 3d 73 af 51 bd 50 79 3c be fc 52 ad 3d
       0.10690394 -0.051192712 -0.18405652 0.08463094
0000a0 91 07 57 3e f9 f2 4b 3e 95 84 9b 3e 98 02 d9 3d
       0.2099898 0.19916905 0.3037459 0.10596198
0000b0 79 50 64 3d d8 f9 89 bd 88 84 39 3d 9d fb 41 be
       0.055740807 -0.06737107 0.045292407 -0.18943639
0000c0 d7 b4 24 3e c5 ce e2 3d 41 e4 30 3e 9e 8e 0e be
       0.1608461 0.110745944 0.17274572 -0.13921592
0000d0 a6 61 58 be 78 ab 75 be c2 84 49 3e c7 bc 3a be
       -0.21131 -0.23991191 0.1967955 -0.18236075
0000e0 73 7b 01 3e 7b 1b 3c bb 3c d0 b7 bd 80 fa 12 be
       0.12644748 -0.0028702903 -0.089752644 -0.1435337
0000f0 82 9f 50 bd bc 54 80 bd 53 e1 26 be 8a e1 91 bd
       -0.05093337 -0.06266162 -0.16296892 -0.07123096
000100 62 5b f1 bd 61 4a 40 3e e7 c9 89 be bc 7a 55 bc
       -0.11785008 0.18778373 -0.26911852 -0.01302975
000110 4c 0d ee 3c d7 f3 a4 3b 39 1b 60 be 4c 5a b8 be
       0.029059075 0.005033951 -0.21885385 -0.3600639
000120 6b 97 20 3e 65 21 cf 3d 7a ce bc bb 41 d5 03 3e
       0.15682761 0.101137914 -0.0057619186 0.12874319
000130 dd 90 05 3e 09 59 ea 3b 5e 17 be 3c c0 a6 13 be
       0.13043542 0.007151727 0.023204502 -0.14419079
000140 84 1d 9e 3e 4d ca 0e 3d 25 fb bb bd 32 c8 b6 bd
       0.30881894 0.034860898 -0.091787614 -0.08924903
000150 50 fd d9 3b 70 17 e1 3d 0d 33 02 3e 28 ee 2d 3d
       0.0066525117 0.109907985 0.12714787 0.04246345
000160 13 bb c4 bd c0 b4 d3 3d 8e 71 c8 3d cf 26 53 3d
       -0.09605994 0.1033721 0.09787284 0.051550683
000170 d2 ee 58 3e d7 6b 3f bd 10 ea 6e 3b f1 91 e0 bd
       0.21184853 -0.046733703 0.003645543 -0.10965336
000180 fd 45 0e be 73 f3 29 be a1 a0 0a 3e 08 4c c6 bd
       -0.13893886 -0.16596775 0.13537838 -0.096824706
000190 1b 73 77 3e e9 d7 23 3e 45 db e3 bd b7 08 49 bd
       0.24165003 0.16000332 -0.11125807 -0.049080577
0001a0 3a df e2 3c 53 68 8f bd a6 2d c1 bd 83 8c b1 bb
       0.027694333 -0.0700232 -0.09432535 -0.0054183616
0001b0 bb d5 b6 be 64 79 67 3c ed 38 31 3e 7b 5b ef 3d
       -0.35709938 0.014128063 0.17306872 0.116873704
0001c0 43 61 3b be e4 28 35 bd ee ce 11 be 7d bd 2f 3e
       -0.18298821 -0.04422845 -0.14239094 0.17162128
0001d0 48 2d 20 be 56 01 80 3d ce 31 de 3d eb a9 e8 3d
       -0.15642273 0.06250255 0.10849343 0.11360534
0001e0 bd fa 0f 3e 8e 04 2c 3e 81 84 38 3d 49 d2 7e bd
       0.14060493 0.16798612 0.04504824 -0.062212262
0001f0 e4 02 d5 bd ad 0f 71 be 89 d8 85 bd 76 dd a3 be
       -0.10400942 -0.23541136 -0.065354414 -0.320049
000200 5f 44 18 be d9 b9 54 3c a1 b6 68 3d cb 7c c7 bd
       -0.14869832 0.012983763 0.056814793 -0.09740599
000210 99 95 fe 3c 8b f0 04 be aa 22 a7 bd ec c7 e2 3d
       0.031077193 -0.12982385 -0.081609085 0.11073288
000220 ca 5f 1c 3d 06 3b 4b bd b5 73 80 3e 8b 8b 2f be
       0.03817729 -0.049616836 0.25088277 -0.17143075
000230 bd 34 28 3e ac c2 a6 be b8 66 a1 3e 5e da f8 bd
       0.16426368 -0.32570398 0.3152368 -0.12151025
000240 06 2f df bc ee ef 56 3b 05 f7 9f bd a0 a2 48 ba
       -0.027244102 0.0032796818 -0.07810787 -0.00076536275
000250 aa da 70 3d 29 07 3d 3c 93 24 a0 3d 9c 5e 2e bd
       0.058802284 0.011537352 0.07819476 -0.042570695
000260 49 82 cf bd bd ea c9 3d ba 34 7c bd 0a f7 3a be
       -0.10132272 0.09859226 -0.06157372 -0.182583
000270 6a 66 5a bd fd cc 49 be a5 e1 42 3d 17 f3 ab 3c
       -0.053320326 -0.19707103 0.047578473 0.020989938
000280 fe 53 9a bd 11 3b f6 bd 9a 5d 3e be 7a 05 03 3e
       -0.075355515 -0.12022985 -0.18590394 0.12795058
000290 32 11 a1 bd 23 92 eb bd f3 aa ca bd 4f c8 13 3c
       -0.07864608 -0.11502483 -0.09895887 0.009019925
0002a0 f2 eb b8 bd c6 a4 69 3e b3 b3 a9 bd 00 df d9 3d
       -0.09029378 0.22816762 -0.08286228 0.10638237
0002b0 bd 99 aa 3e 16 ce fa bd cc 0c 80 be 26 30 2f bd
       0.33320418 -0.12246339 -0.25009763 -0.042770527
0002c0 0d f4 19 3d 00 03 6e bd c6 31 a4 3d 6d 15 68 3e
       0.03758626 -0.05810833 0.08017306 0.22664423
0002d0 bb 10 01 be 04 db 0f bd 79 a3 5e be 40 43 49 bc
       -0.12604038 -0.03512098 -0.21742047 -0.0122841
0002e0 ca 2c f1 bc 34 ef a0 be 60 76 84 3e b5 f1 f8 3c
       -0.029440302 -0.31432498 0.25871563 0.030388692
0002f0 3f 6d 00 be 33 ef e2 bd f4 58 37 bd ca 93 3e bd
       -0.12541674 -0.1108078 -0.044762567 -0.04652766
000300 1f e1 15 3e 58 05 28 be 05 86 a4 be 56 40 85 3e
       0.14636658 -0.16408288 -0.321335 0.26025647
000310 8a 8d 4e 3d 5e 87 4d be d3 3e 26 bc 2e 34 43 be
       0.05042795 -0.2007117 -0.010146814 -0.19062874
000320 59 e2 46 bd 90 b5 0c 3e b4 36 9e 3d d4 2f 05 3e
       -0.048555706 0.13741136 0.077252775 0.13006526
000330 64 c0 19 3d 98 1a 1d bd cc d1 25 be f1 38 e4 bd
       0.037536994 -0.03835544 -0.16193312 -0.11143673
000340 97 ca 46 3e d0 54 20 be 35 a8 a4 3e 3c 49 04 bd
       0.1941322 -0.15657353 0.32159582 -0.032296404
000350 91 f6 21 bc 2f d7 05 be c3 fc 30 be a3 40 12 be
       -0.009885446 -0.13070367 -0.17283921 -0.1428247
000360 87 ba 18 3e d9 dc 68 be 5e a7 9c 3e 5e 64 e2 bc
       0.14914905 -0.22740497 0.3059644 -0.02763575
000370 d3 85 0d 3e 23 1b 0f be 5b 89 0d 3d 9d 6c 0c bc
       0.13820581 -0.13975196 0.03455482 -0.008570817
000380 af 3d 70 3e 07 95 a3 3d 57 ef 75 3e d6 89 0b 3e
       0.2346103 0.07987409 0.24017082 0.13626799
000390 b4 b5 39 be 2c ab 8b 3d c6 77 b7 bd 23 12 93 3d
       -0.1813572 0.06819758 -0.08958392 0.07181194
0003a0 df 13 18 3d 6c a1 7b be 8e ea ed 3d 28 c1 a2 bd
       0.037128326 -0.24573296 0.116170034 -0.07946998
0003b0 4f f4 ef bd 8f 6f f9 3d 38 55 2e 3d 65 09 90 be
       -0.1171652 0.12179481 0.04256174 -0.28132167
0003c0 67 fa c2 3b f5 d8 0f 3d 2d 69 9d 3d 4f 68 d8 bd
       0.0059502604 0.035119016 0.07686076 -0.1056677
0003d0 d1 03 82 3e 73 22 9a 3d e6 18 e1 bd f6 a3 03 be
       0.25393537 0.07526102 -0.10991077 -0.12855515
0003e0 e8 1b dd bd 5a 43 ba bd 1a f7 8e bd 2b de 0f 3e
       -0.10796338 -0.090948775 -0.06980725 0.14049594
0003f0 37 a2 7c 3e 8e a8 0e 3e 1d e3 4e be 32 5b 90 3e
       0.24671255 0.13931486 -0.20203824 0.28194577

conv2.conv.6.weight f4 [32, 32, 1, 1]
000000 90 1e 84 3e c4 45 e6 3c 7f ae d3 bd a3 c3 6a be
       0.25804567 0.028109439 -0.10336017 -0.22926192
000010 b8 fc ba 3b 14 82 d6 3d d1 2b 63 3e 3c 8d 7a be
       0.005706396 0.10474029 0.22184683 -0.24467939
000020 a0 96 51 bb 07 cd 07 bd e4 09 11 3e ee 2d 2a be
       -0.0031980649 -0.033154514 0.14163929 -0.16619083
000030 35 8a dd bd bd 67 e7 3d 3e 9e a0 3d 61 a0 0c 3e
       -0.108173765 0.112990834 0.07842682 0.13733055
000040 22 fd 3c 3d 16 6a c9 bd 11 03 54 3e bf cf 0d 3e
       0.046139844 -0.098346874 0.20704295 0.1384878
000050 2e 39 f9 3c 91 89 2c 3d 5b 51 99 3d af 74 85 bd
       0.030422773 0.04212338 0.074862204 -0.06516396
000060 fe 2e 7c 3d 4c 84 36 3e 3a 7e e8 3e 96 58 2a 3e
       0.061568253 0.17823905 0.45408803 0.16635355
000070 17 e7 89 be 60 be f4 bd b1 42 c9 3d ce 3d 26 3e
       -0.2693412 -0.11950374 0.098271735 0.16234514
000080 8b b9 54 bd 60 9b 33 be d9 39 7f 3d 9f 7b 06 3d
       -0.05193476 -0.1753974 0.062311027 0.032832738
000090 e0 60 27 be 69 fb 42 be f9 4a a2 bd fc 63 ea 3d
       -0.16345549 -0.19041218 -0.07924456 0.11444852
0000a0 6e e9 b3 3e 06 e9 db bc 82 1c 5d be d1 fa 18 be
       0.3513903 -0.026844513 -0.21592906 -0.14939429
0000b0 cf 11 2b be ea 51 00 3d 50 72 00 be a4 15 80 3e
       -0.16706012 0.03132812 -0.12543607 0.2501651
0000c0 2e dd 8b bd f3 05 a8 3d c7 ab 81 3e 7a 62 84 3c
       -0.06829296 0.0820426 0.25326368 0.016160239
0000d0 c7 6c 62 be d1 66 7e 3e a7 69 80 bd f2 67 25 3c
       -0.22111808 0.24843909 -0.062701516 0.010095583
0000e0 23 d6 5b 3e 81 ef 69 be be e5 3a be 24 86 5a be
       0.21468405 -0.2284527 -0.18251702 -0.21340233
0000f0 cf 04 3d 3e e7 06 5d 3e 31 18 a1 3d 47 ec f8 bd
       0.18458866 0.21584664 0.07865942 -0.12154441
000100 b5 70 41 3d 7e 21 7b 3e ca 2d 7a 3e 69 cb ec bd
       0.047226626 0.24524495 0.2443153 -0.11562235
000110 ca 22 aa 3d 7f 58 e1 3d 1a c9 16 3e 7b af 29 be
       0.08307417 0.110032074 0.14725152 -0.16570847
000120 bb 8a c2 3d e3 06 30 3e 15 ca 9b be c6 ab e7 3c
       0.09499117 0.17190127 -0.30427614 0.02828015
000130 6d 64 81 3d 6a 6a 86 be 7a 8f aa bc fe 3e 77 3d
       0.06317983 -0.26253062 -0.020820368 0.06036281
000140 0b 55 46 be 44 99 bf 3d 98 a6 3d be 6f bc b1 be
       -0.19368379 0.09355405 -0.18520582 -0.34714076
000150 0a 14 c3 bc 8a 53 23 be 98 05 a9 3e d6 1b 40 3e
       -0.023813266 -0.15949836 0.3301208 0.18760619
000160 df dd 4a be 4f 07 07 be f2 26 09 be 3b 6b f0 3d
       -0.198112 -0.13186382 -0.13393763 0.117392026
000170 4b e3 27 bd 45 fe f8 3d 02 59 8b 3d 86 13 7e 3d
       -0.040988248 0.12157873 0.06804086 0.062030338
000180 c2 bb 7c bd ff b8 dd 3c c2 73 b1 3b 56 9c b2 bd
       -0.061702497 0.027065752 0.0054154107 -0.08721225
000190 a0 00 f6 bd e5 1c dc 3e 64 c8 3e 3e af 5e a9 bd
       -0.12011838 0.42990795 0.1863113 -0.082700126
0001a0 95 e1 4a 3d 3f 2a 40 3e af 75 ca 3d e6 66 23 3e
       0.049531538 0.18766116 0.098857276 0.15957221
0001b0 1a 14 2b be 86 52 d2 3d 2f f2 cc 3d 67 86 67 be
       -0.16706887 0.10269646 0.1000713 -0.22609864
0001c0 a1 71 c2 bc f2 e8 73 3e 04 29 67 3d 1a 12 0e 3e
       -0.023735823 0.2381933 0.0564356 0.13874093
0001d0 d8 3a 00 3d 6c 19 8e 3d ed 7f 0b be 39 90 ab be
       0.031306118 0.069384426 -0.13623019 -0.3350847
0001e0 36 9f 82 3d 5e 7a 03 3e 3f 81 6c 3e 2d 0b 90 bd
       0.06378023 0.12839648 0.23096178 -0.070333816
0001f0 d9 80 ad bd 84 8c b1 bd 83 bc 71 3e f7 cd 04 3e
       -0.08471841 -0.08669379 0.23607068 0.12969194
000200 ae 50 dc bd e6 f5 c2 bc 3e 1e 50 be b4 ed af 3c
       -0.10757576 -0.023798894 -0.20324036 0.02147565
000210 a8 95 a8 3d fb c1 11 be 79 6e 09 3e 59 aa b6 be
       0.0823167 -0.14234154 0.13421048 -0.3567684
000220 b9 53 c5 3d 85 05 39 3e c4 45 1f be 20 b2 64 be
       0.096351095 0.18068512 -0.15553957 -0.22333574
000230 26 a9 a0 3d 7c b7 f0 3d db b8 63 3e e8 1c 47 3e
       0.078447625 0.11753747 0.22238486 0.1944462
000240 03 79 25 3d 08 dd 4a bd 8d 3d 44 3e 1f 85 6d 3e
       0.04039861 -0.049527198 0.19164105 0.23195313
000250 88 47 62 bc e5 5e 07 3e 57 0b 8f 3d ad e3 39 be
       -0.013811 0.13219793 0.06984585 -0.18153258
000260 e1 c3 e1 3d 0e dc f4 3d 0d 15 3d 3e 85 8b 3d bd
       0.11023689 0.119560346 0.18465061 -0.046275634
000270 34 ba cf bd a0 4f af be 8b 38 08 be d8 b2 84 3c
       -0.10142937 -0.34240437 -0.1330282 0.01619856
000280 e4 06 32 3e 82 0c 11 bd 78 a1 0a be 94 18 fc 3d
       0.17385441 -0.03541232 -0.13538158 0.123093754
000290 77 e5 bd 3d 3b a0 55 be a0 76 9f be 46 41 a1 be
       0.092722826 -0.20861904 -0.3114519 -0.31495112
0002a0 8e 73 95 3e 94 69 dd 3b e8 53 e0 bd 04 19 0b 3d
       0.29189724 0.0067569707 -0.10953504 0.033959404
0002b0 e2 58 b4 bd da 13 d4 3d 57 ac 63 bb d5 72 8a 3e
       -0.088060156 0.10355349 -0.0034740174 0.27040735
0002c0 fc 43 49 3d 34 84 03 be fa bb a2 be dd 0b 4b 3d
       0.0491371 -0.128434 -0.3178404 0.04957186
0002d0 12 cb b2 bd 31 05 78 3e a0 06 a1 3d 3e a1 c5 3d
       -0.08730139 0.2422073 0.07862592 0.09649895
0002e0 38 aa 36 3d 62 ce 7a 3d 0e ad f8 3d d9 78 f2 bd
       0.044595927 0.06123198 0.121423826 -0.11839456
0002f0 2d 3f a5 bd 14 cd 14 be 70 e9 2e 3e 44 d7 1d 3e
       -0.080686904 -0.14531356 0.17081237 0.15414149
000300 9c c8 80 3d 29 9e 89 3e c6 a8 0b 3e e4 02 9b 3d
       0.06288263 0.2687848 0.136386 0.07568911
000310 e2 8b 8a bd 6f fc bc 3c cd 7a a7 bc 85 50 cd bd
       -0.06764962 0.023069588 -0.020444298 -0.100251235
000320 4a ce 8f bb 30 c1 a7 3d 15 6d ab 3e 58 15 56 3e
       -0.0043886052 0.081911445 0.3348166 0.2090658
000330 2a 65 4e be a7 c5 49 3c 05 11 e9 bd e9 49 34 be
       -0.20155779 0.01231519 -0.11380199 -0.1760632
000340 be 6a 7b 3e 86 e5 f4 3d ce 10 6e 3e f9 4e 7c bd
       0.24552438 0.119578406 0.23248598 -0.06159875
000350 1d 49 c5 bd 25 03 f8 3d 4b 1b d9 3d 7c 43 7f 3e
       -0.09633086 0.12109975 0.10600909 0.24928087
000360 ab 96 6a 3d b0 1c 85 be 02 de c0 3d 25 38 74 3e
       0.057272594 -0.2599845 0.09417345 0.23849542
000370 80 68 43 3d 2f ce c1 3a c0 09 ad bb 8f a0 30 3e
       0.04770708 0.0014786179 -0.0052807033 0.17248748
000380 85 bc d4 3e c7 f9 a5 bd e8 d7 55 bc 76 c6 cf bd
       0.4155008 -0.08104282 -0.013051964 -0.10145275
000390 cd 10 b8 3d 51 7c 2a be a7 3a a2 bd b5 4b cb 3e
       0.089875795 -0.16648985 -0.07921343 0.39706197
0003a0 fa 5d b5 ba be 00 1f 3d 4b a6 0a 3e e2 8c 43 3a
       -0.0013837211 0.038819067 0.13539998 0.0007459653
0003b0 72 f9 fe 3c cd 79 c6 3e 1c bc 58 bd d4 c8 19 be
       0.031124804 0.38764802 -0.05291377 -0.15018016
0003c0 b2 07 02 be ac a3 30 bc 3c a9 20 3d 7b 98 2a be
       -0.12698248 -0.01078121 0.039223894 -0.16659729
0003d0 fb 51 22 bc 0d 56 14 be fb 63 30 3d 96 f0 4c 3d
       -0.009907241 -0.14485951 0.0430641 0.050034128
0003e0 73 a4 e2 3d fe 45 b3 3c 67 78 a7 be 27 e3 bf 3e
       0.110665224 0.02188396 -0.32709047 0.3747799
0003f0 5d c2 b0 3d 6e 5d bf 3d a1 52 86 be 6c 83 d9 3d
       0.08630822 0.09343992 -0.26234916 0.1062077

conv3.conv.3.weight f4 [64, 64, 1, 1]
000000 04 1d 39 3e 40 ce 08 3c ef 47 a4 3d a8 5a 5d 3c
       0.18077475 0.008349955 0.08021533 0.013510384
000010 1a 2b 3a bd ee 57 8b bc 7a f4 a4 3c db 74 a5 3b
       -0.04545126 -0.017009702 0.020136107 0.0050493306
000020 42 65 a2 bd 0a bb 55 3d ba 0f 9d 3d 84 4f 11 3d
       -0.0792947 0.052180327 0.07669015 0.035476223
000030 2c 75 e1 3d a7 59 34 bd cc 6b d9 3d 0e 4d 3c 3e
       0.11008677 -0.04403081 0.10616264 0.18388769
000040 c6 f9 b4 3d d1 01 09 3e 62 af 25 3d cf 6f f7 3c
       0.08836703 0.13379599 0.04045046 0.030204682
000050 63 77 0d be 5e 49 26 bd f4 b5 2c 3d 76 44 b2 bd
       -0.13815074 -0.040597312 0.04216571 -0.08704464
000060 6e 29 b0 bd 9b 30 84 be 38 93 26 3e c6 66 e3 3a
       -0.08601652 -0.25818333 0.16267097 0.0017349354
000070 ca 51 3c ba 6a 24 a0 3d ef e8 2b 3d f1 d2 1c 3e
       -0.00071838184 0.078194454 0.04197019 0.15314843
000080 a8 16 b8 3d 67 8a ea bc 4b e7 46 3e 50 42 64 bd
       0.08988696 -0.028630449 0.19424169 -0.055727303
000090 63 14 13 3e a9 0b 8f bc fe 46 a8 3d f1 80 85 ba
       0.14363246 -0.017461615 0.08216666 -0.0010185522
0000a0 45 a5 09 3d 2e ef f5 3d 8f 45 b1 3c 05 bb 18 3e
       0.03360488 0.120085105 0.021639613 0.14915092
0000b0 01 27 87 bd 0c 4c 25 be db ee 6a bd 04 56 18 3e
       -0.06599236 -0.16142291 -0.057356697 0.14876562
0000c0 58 c8 39 3e db e0 df 3d 77 7f c3 3d fe 52 44 3e
       0.18142831 0.1093156 0.09545796 0.19172284
0000d0 76 99 eb 3d 6a b6 14 be 3f c2 c1 3d 8f 6e 1b 3e
       0.1150388 -0.1452271 0.094608776 0.15178894
0000e0 2b c9 38 3e fa 11 76 bd 71 4f bd bd 88 9e c1 bb
       0.1804549 -0.060075738 -0.09243668 -0.005908791
0000f0 20 71 51 3b ad 73 96 3d 7d 59 87 3d 55 69 1f 3e
       0.0031958297 0.07346282 0.066088654 0.15567525
000100 57 d5 3a bd de be b5 bd 0c b7 a6 bc 7b 1f 16 3e
       -0.045613613 -0.08874296 -0.020350955 0.14660446
000110 27 12 3f 3d fd c3 7a bd a3 d8 69 3d 6b 9e 0b 3d
       0.04664817 -0.061222065 0.057091366 0.034086626
000120 69 50 d3 bd 3c 39 6a 3b d3 6b 99 3d 7c 7f 48 3e
       -0.103180714 0.003573968 0.07491269 0.19579881
000130 d5 72 28 3e d9 16 73 3b 0e 40 82 be e5 87 d2 bd
       0.16450055 0.0037092476 -0.25439495 -0.10279826
000140 21 49 58 be e0 e1 4d be 5e 7c f9 bd 5b d4 ea 3d
       -0.21121646 -0.20105696 -0.12181924 0.11466285
000150 db 2d 38 3e 0d d9 1f 3c e8 b9 a7 3c bb f4 88 3e
       0.17986242 0.009756339 0.02047439 0.26749215
000160 b7 06 b3 3a df 82 b0 bd 7b 6e 10 3e 8c 7d de bd
       0.0013658617 -0.08618712 0.14104645 -0.1086379
000170 28 a4 41 3e ca 77 72 bd cc 44 5b 3e fd 31 83 3e
       0.18910277 -0.05919627 0.21412963 0.25624076
000180 49 0b 9c 3d 0c d1 6c 3d 6b 69 16 3d 21 26 79 3e
       0.0761934 0.05781655 0.03672163 0.24330951
000190 cb 0c 05 be b9 66 45 bd 89 d1 5b bd a0 35 eb bd
       -0.12993161 -0.048193667 -0.053666625 -0.114848375
0001a0 7d 73 d2 3c 58 3b c9 3d 1c 60 bd 3c 05 12 a9 bd
       0.025689835 0.09825772 0.023117118 -0.0825539
0001b0 5e f9 04 3c 8e dc 8e 3c 98 86 49 3e f7 ce b9 bd
       0.008116094 0.017439153 0.1968025 -0.090726785
0001c0 11 21 40 bc 23 53 fe 3d 4a eb c8 bd a1 43 8f bd
       -0.011726634 0.12418201 -0.09810503 -0.06995321
0001d0 9d 94 05 bd 1b 34 e6 bd 9f 16 ae bd df a2 24 3e
       -0.03261243 -0.11240407 -0.085004084 0.16077755
0001e0 7d 1f 9b bd a8 f6 c4 bd 9c 46 0f 3d 3a 8c ed bd
       -0.07574365 -0.096173584 0.034979448 -0.11599012
0001f0 44 5d 53 bc c0 bc e5 3d b8 3f 2a 3d c7 ba 41 be
       -0.012900654 0.11217642 0.041564673 -0.18918906
000200 06 ed 36 bd e2 cd da bc db d8 56 3d a7 37 b8 3d
       -0.044659637 -0.0267095 0.052452903 0.0899499
000210 29 17 23 3e 23 0c 28 bd c4 01 1d 3e 93 c2 a4 bd
       0.15926804 -0.0410272 0.15332705 -0.080449246
000220 2a 6d eb 3d f7 74 74 bb 69 7d 81 bd 8b 2c 4a 3b
       0.11495431 -0.0037301162 -0.06322748 0.0030849304
000230 d4 72 88 bd e6 65 80 bd 7e 0d 13 3e 05 2a df 3d
       -0.06662527 -0.062694356 0.14360616 0.108966865
000240 8b a6 15 3e 89 bf 91 3d 1a ef 91 3e 9c 14 ca 3d
       0.14614312 0.071166106 0.28502733 0.09867212
000250 67 73 9d bd 25 a9 25 3d 14 fb ab 3c 12 88 92 bc
       -0.07688027 0.040444512 0.020993747 -0.017887149
000260 0b c8 6f bd 3e 95 bd bd f1 55 0a be b5 82 8b 3e
       -0.058540385 -0.09256981 -0.13509347 0.2724816
000270 c5 f5 f7 3d 1c f9 c1 3d 0f 86 10 3e 41 49 32 3c
       0.12107424 0.09471342 0.1411364 0.010881723
000280 54 10 71 3d 18 a8 21 be 5c 39 b1 3d c6 02 e3 3c
       0.058853462 -0.15786779 0.086535186 0.027711283
000290 6e a9 f3 bd 49 3b 52 bc 60 a2 4b 3e 06 cc 04 3e
       -0.118975505 -0.0128315175 0.1988616 0.12968454
0002a0 28 b1 a1 3d ed 88 9c 3e 2b 78 79 3d 64 98 07 3e
       0.07895118 0.30573216 0.060905617 0.13241726
0002b0 68 bc ee ba a6 e0 83 be 4f c2 34 3d db a7 3c bd
       -0.0018214108 -0.2575733 0.04413062 -0.046058517
0002c0 34 4e 93 3e 92 ee 69 be cc 13 0e be 1d 02 2d 3e
       0.28770602 -0.22844914 -0.1387474 0.16895337
0002d0 84 86 74 3d 09 73 40 be 99 0c ef 3d 55 8a 57 be
       0.059698597 -0.18793882 0.11672325 -0.21048863
0002e0 ab 5e 68 b8 f8 15 01 3e 22 9c 3d 3d dc c4 d2 bd
       -5.5401277e-05 0.12606037 0.046291478 -0.10291454
0002f0 8d ab 43 bd 19 36 73 bd 82 e4 1c 3e 0f 7d 29 3d
       -0.047771025 -0.059377763 0.15321544 0.04137903
000300 c7 7e 29 be 41 3a 0b 3d 8d a0 b6 bc 9e f6 39 be
       -0.16552268 0.033991102 -0.022293353 -0.18160483
000310 47 2d e5 bd 87 2b fc bd e0 6a 5f 3e ea c5 1d bc
       -0.111902766 -0.1231299 0.21818113 -0.009629706
000320 ea 5e 17 be 82 09 12 3d 2a fd 9d bc c2 d4 a5 3c
       -0.147823 0.0356536 -0.019285757 0.020243052
000330 72 58 06 3e 8b bc b5 bd 1a da 34 3d 44 a0 ef bd
       0.13119677 -0.08873852 0.04415331 -0.1170049
000340 df ce 23 3d cd 22 45 be e4 6e 2d be a2 2e 5a 3d
       0.03999221 -0.19251557 -0.16936833 0.05326713
000350 3a 64 e1 3b 1d 7f 40 bb af e8 29 3c 8c e3 1e 3d
       0.006878403 -0.002937264 0.0103704175 0.038791224
000360 8e bb 30 be 51 b7 19 3e 9a 35 86 3c 0a 2c c6 bd
       -0.17259046 0.15011336 0.016382981 -0.096763685
000370 d7 45 83 3c c8 a5 2e be f3 f0 ff bd 1e 2b 84 3d
       0.016024513 -0.17055428 -0.12497129 0.064535365
000380 07 2c a6 3c c1 b9 ea bd 37 1b bd 3d b2 96 06 bd
       0.020284666 -0.11461211 0.092337064 -0.032858558
000390 01 98 df bc 52 9f 03 be 19 1e 38 3e c8 23 89 3c
       -0.02729416 -0.12853745 0.17980231 0.016740695
0003a0 99 c6 0d be 04 95 6a bd 71 5d a3 bd e7 bf 1b be
       -0.1384529 -0.05727102 -0.07976807 -0.15209924
0003b0 d0 27 c4 bd 34 dd 90 bd 54 d6 27 3c 52 35 a6 ba
       -0.09577906 -0.07073441 0.010243971 -0.0012680686
0003c0 a5 d3 ac 3d f3 d0 0e bd ad 4f 03 be 27 26 cc 3d
       0.084388055 -0.03486724 -0.12823363 0.099682145
0003d0 b3 68 37 be 04 4e 46 be ca ad 30 be c2 b6 fc bd
       -0.17911033 -0.19365698 -0.17253795 -0.12339546
0003e0 9a 09 94 bd c2 73 80 bc 05 9b dd bd 49 d8 13 3c
       -0.07228394 -0.015680198 -0.10820583 0.009023734
0003f0 63 ca 08 be 25 7a 1d 3b 12 3d a2 3e 7b 0c 97 bd
       -0.13358454 0.0024029103 0.31687218 -0.07375427

conv3.conv.6.weight f4 [64, 64, 1, 1]
000000 5d 3e 83 bd aa 97 1d bd 37 04 e7 3d d0 c1 99 3e
       -0.06408379 -0.038474716 0.11280101 0.3003068
000010 3a ad 74 3e eb 8c b7 bd 9e 00 49 3e 54 69 58 3e
       0.23894206 -0.08962425 0.19629142 0.2113393
000020 7e 9a 92 bd ce d0 cb 3d f7 d3 53 3d 22 4f 13 3d
       -0.07158373 0.09951936 0.051715817 0.03596414
000030 fb 24 ec bd 47 ad 0b 3e 28 c0 2f 3d 61 c0 68 bd
       -0.11530491 0.13640319 0.042907864 -0.05682409
000040 ed c1 80 3e c1 b0 c9 3d e7 e3 2a 3c d4 66 34 3e
       0.25147954 0.09848166 0.010430313 0.17617351
000050 67 2e a1 bd 07 9f 92 bd d4 fc 57 3d f2 58 9d 3e
       -0.07870179 -0.07159238 0.05273135 0.30731922
000060 45 d3 cc 3d 8e 72 be bc e9 e8 a0 3d 62 c8 e6 bc
       0.10001234 -0.023247983 0.07856924 -0.028171722
000070 af ce 3b 3e 3e d4 0d be bb 27 01 bb dd 36 8b be
       0.18340562 -0.13850495 -0.001970752 -0.27190295
000080 e7 6b 39 3e 8e cd 1b bd f9 55 dd 3c 0f e9 2e 3e
       0.18107568 -0.03803783 0.027018534 0.17081092
000090 7d 6d ae 3d b0 34 57 3d 34 77 56 3e 12 42 e4 3d
       0.08516977 0.05254048 0.2094391 0.111454144
0000a0 8c 4e 39 be 78 57 b0 3e a5 7b 9b 3d 65 57 51 3d
       -0.1809637 0.34441733 0.07591943 0.051108737
0000b0 93 d6 2d 3e ca e4 db bc 28 24 6d be 64 65 95 3e
       0.16976385 -0.026842494 -0.23158324 0.29178917
0000c0 ae 63 5b 3e 8e 37 b7 bc b3 17 26 be 4e 70 17 3e
       0.21424744 -0.022365358 -0.16219978 0.14788935
0000d0 e1 ad d4 3b 2d 16 a9 3d 3a 0d 50 3e 99 c4 25 3d
       0.0064904545 0.08256183 0.20317546 0.040470693
0000e0 e2 2a 26 be 49 74 6d bd 37 be ce 3d db 50 26 bd
       -0.16227296 -0.057972226 0.10094874 -0.040604454
0000f0 c0 24 e7 bb ff 1c c5 3d 6b 9d dc 3b 75 b6 96 3b
       -0.0070539415 0.09624671 0.006732633 0.0045993873
000100 c0 4c fd bc f0 8a 9b bd 9c 78 1e 3d 19 50 0a 3e
       -0.030920386 -0.075948596 0.03868924 0.13507117
000110 2e 8f 6c 3e 67 03 61 3d 17 96 20 3e 1c a5 a6 bd
       0.23101494 0.054934885 0.15682255 -0.08136961
000120 22 99 da b8 aa 85 36 3e cf fe e2 bd 1a 82 2a 3c
       -0.00010423573 0.17824426 -0.11083757 0.010406995
000130 e7 ce 74 3d da d2 2e 3d 79 8a 1f 3e 64 66 a2 bd
       0.05976763 0.042681552 0.15580167 -0.07929686
000140 9d 0e d2 3c 10 41 b2 bd f7 14 ea 3c ab 8e 37 bd
       0.025641734 -0.08703816 0.02857445 -0.044813793
000150 b3 e7 cf 3d 45 57 17 be 57 39 13 3d 6a 25 41 3d
       0.10151615 -0.14779384 0.035943355 0.04715482
000160 ed fa 5c 3e 62 fc da bd ff 87 1d 3e 51 6b ff bc
       0.21580096 -0.106926695 0.1538391 -0.031179102
000170 28 18 aa 3d 31 f6 82 bd 96 fa 0c be 9f 79 1d be
       0.08305389 -0.063946135 -0.13767466 -0.15378426
000180 16 a6 65 3e 1e ae 0c 3c 42 02 1a 3d 65 72 26 3e
       0.22426638 0.008586435 0.03759981 0.16254576
000190 32 94 cb bd e4 ff ff 3d 90 67 86 bd 19 05 aa bd
       -0.099403754 0.12499979 -0.06562722 -0.083017536
0001a0 37 c9 53 bd b7 9b fa bb 05 33 cd bd ec a1 97 3d
       -0.051705565 -0.007647957 -0.10019497 0.07403931
0001b0 cb 74 85 bc d3 40 21 be 1f 4f ad bd 72 4c 8b 3e
       -0.016291043 -0.15747385 -0.08462357 0.2720676
0001c0 0d 88 39 3d 32 a7 05 bc e5 cb 11 bd 2c ba 79 3d
       0.045295764 -0.008157538 -0.03559484 0.060968563
0001d0 99 a5 34 bd 3a fd 1c 3c 02 18 d2 3d 43 69 35 3d
       -0.04410324 0.009581858 0.102584854 0.04428984
0001e0 4b 22 19 3e ac e6 31 be ba e7 df 3d a3 76 14 bd
       0.14954488 -0.1737315 0.1093287 -0.036245953
0001f0 6b c0 04 3e cf b9 ee 3d 7b a5 6f bd c6 cd 4c 3d
       0.12964027 0.11656534 -0.058507424 0.05000093
000200 db a7 bb bc 04 65 68 3c 06 b6 f0 3d e5 99 d3 bd
       -0.022907188 0.01418424 0.11753468 -0.103320874
000210 c0 bf 50 3d 38 22 69 bc 97 ba d0 39 13 dd cf 3d
       0.050964117 -0.01422935 0.00039811872 0.101495884
000220 b8 cc 31 be 29 69 da 3d 39 bb 77 3d 13 4d f6 bd
       -0.1736325 0.10664589 0.060481284 -0.120264195
000230 18 9d af bd cc 33 d5 3d 3f 01 85 bd 06 80 be 3c
       -0.08574885 0.1041027 -0.06494378 0.023254406
000240 b8 64 45 3d ce 4a b8 bd 10 b0 d9 3c 00 d6 6d 3e
       0.048191756 -0.08998643 0.026573211 0.23226166
000250 16 56 38 3d e3 67 83 bd 96 9d 3f bd 3e 67 bd bd
       0.045003973 -0.06416299 -0.046781145 -0.092482075
000260 27 9e 3f 3e ca dc 9f 3d 52 03 eb 3d 7b 0d 9d 3c
       0.18712674 0.07805784 0.11475243 0.019171467
000270 60 b8 31 3d e8 cc 61 3c e6 24 21 be 5e 99 0e 3e
       0.043388724 0.013781764 -0.15736732 0.13925692
000280 65 49 20 3e 88 27 7c bc 73 96 08 3d b0 cd d0 3d
       0.15652998 -0.015390284 0.033346605 0.10195482
000290 1b 97 4b 3e c8 8d 39 3e e2 17 1a 3d 03 f9 4f 3e
       0.19881861 0.18120492 0.037620433 0.20309834
0002a0 ff da 66 be d4 a6 5b bc 2e 84 12 3e 23 d3 14 3e
       -0.22544478 -0.013406474 0.14308235 0.14533667
0002b0 b7 e8 11 3e 6c aa 75 3c 3c ff 86 3d 20 ff 01 bb
       0.1424893 0.014994245 0.06591651 -0.0019835904
0002c0 1c 0c d8 3d 62 18 8e 3d 3b 04 f5 bb 72 09 11 3e
       0.10549185 0.069382444 -0.007477311 0.1416376
0002d0 56 71 2d 3d 2c d7 19 3e 2d 93 57 3e 4e cc fc 3d
       0.042344414 0.15023488 0.21052237 0.123436555
0002e0 38 0b 64 be 1b 1d db 3c ca 2d fd 3d 45 ad 52 3d
       -0.22269905 0.026747277 0.12362249 0.051434774
0002f0 b3 5e 7f bd 2c d1 f8 3d 15 3a d5 3d db 8d 57 be
       -0.06234617 0.12149271 0.10411469 -0.21050207
000300 34 1e 6c bd bf c6 1a bc 1f 58 00 3c ad c1 c6 bc
       -0.05764599 -0.009446799 0.00783351 -0.024262274
000310 69 ad 98 3e 27 f0 76 3e 94 88 69 3e a2 78 25 3e
       0.298198 0.24115048 0.22806007 0.16159299
000320 90 40 ab 3d db 2c ab 3d 0f b4 01 be 05 38 ed 3c
       0.08361924 0.08358165 -0.12666343 0.028957376
000330 cd 9b e6 3d 19 5e 08 be 99 3c d1 3d 24 a0 1e 3e
       0.112601854 -0.13317145 0.10216636 0.15490776
000340 1f a4 05 3e 57 5b 03 be 57 9a 8b 3d 9d 1a 14 3e
       0.13050888 -0.12827812 0.06816547 0.14463277
000350 f1 54 29 bd 21 55 bb bc 09 92 6b bd 41 59 9a 3e
       -0.041340772 -0.022867741 -0.057512317 0.3014622
000360 56 a8 52 3d db a6 8c 3d a4 5c b6 3e b0 9b 37 be
       0.05143007 0.06867763 0.35617554 -0.17930484
000370 6f 44 ef bc 1c 8c 98 3b 9b 23 3d be dc 51 d5 3c
       -0.029207436 0.004655374 -0.18470614 0.02604001
000380 c5 d8 30 3e c9 0c 7f 3d a8 ef e4 bd a9 ee 38 3e
       0.17270191 0.062268052 -0.11178523 0.18059792
000390 d7 ee f1 3d ef 7d c0 3d 53 e7 b7 3d db 19 7f 3e
       0.11813133 0.0939902 0.089796685 0.24912207
0003a0 b9 96 92 3d aa 23 57 3e 8a b3 86 bd d5 61 e0 3d
       0.07157654 0.21009699 -0.06577213 0.1095616
0003b0 10 ed 7d 3c f7 1d f3 bb d6 93 8e bc f4 4c 04 3d
       0.015498415 -0.0074193436 -0.017404478 0.03229995
0003c0 cc 29 59 3d eb 91 2f 3c 61 f9 8f 3d f8 e5 87 3d
       0.053018376 0.010715942 0.07029987 0.0663566
0003d0 e0 3e 59 3e 29 48 74 3d 8e b3 53 3e 28 af 85 3c
       0.21215391 0.05963913 0.20673963 0.016318873
0003e0 72 de 1d be f9 15 24 3e ef 99 ac 3d 80 73 67 3d
       -0.15416887 0.16024007 0.08427798 0.056506634
0003f0 37 f7 7b 3d 14 88 be 3d f7 d7 c8 bd fb 74 22 be
       0.06151506 0.093032986 -0.09806817 -0.15864937

conv4.0.weight f4 [64, 64, 1]
000000 32 7f 55 bd 19 41 f8 bc 4d c5 15 3d d3 be 14 bd
       -0.052123256 -0.030304478 0.036565114 -0.036314797
000010 66 d9 14 bd e6 36 40 be c4 46 9f 3e f0 d8 c2 bc
       -0.03634014 -0.18770942 0.31108677 -0.023785084
000020 4f 1e ad ba 60 7b c8 3c 32 f2 c8 3b f4 76 5d bd
       -0.0013207885 0.024472892 0.0061323876 -0.05406852
000030 1f 96 05 be 05 ba 3d bd cb 59 05 3d ae 4d 34 3c
       -0.13045548 -0.04631998 0.032556336 0.011004848
000040 b5 8f 90 3d c2 9a 39 be c0 5d 3b be 0b 1f 82 be
       0.0705866 -0.18125442 -0.18297482 -0.2541431
000050 27 df 34 be 99 79 31 bc 66 56 18 be 52 33 3a be
       -0.17663251 -0.010832214 -0.14876708 -0.1818364
000060 85 f6 fb bd ea 60 0c be 72 5d bf 3c 45 14 dd 3c
       -0.12302879 -0.13708845 0.023359988 0.026987204
000070 69 c3 21 be 4d 75 ae bd 8d 18 ad bd 35 59 3a bc
       -0.157972 -0.08518467 -0.08451948 -0.011373808
000080 8f 53 cc bd c8 83 c7 bd 72 96 48 3d f8 07 c8 bd
       -0.09976875 -0.09741932 0.0489716 -0.09767145
000090 97 10 3d 3d d0 c5 20 be 5c 4b 3f be 86 10 f5 bd
       0.0461584 -0.1570046 -0.18681091 -0.11966042
0000a0 6e d8 25 3d ef 4d 9f bd a7 73 55 be 8f 16 2a 3e
       0.040489607 -0.077785365 -0.20844899 0.16610168
0000b0 8e 23 d7 bd 1c f2 50 be ee 96 19 3e 10 35 50 bd
       -0.105048284 -0.20404857 0.14998981 -0.050831854
0000c0 02 41 9f bd 18 a9 13 be f3 5a e3 3c e5 94 d0 bd
       -0.07776071 -0.14419973 0.027753329 -0.101846494
0000d0 cb 50 1b be c7 75 fc bd a7 e9 71 be 30 9c 62 be
       -0.15167539 -0.12327152 -0.23624288 -0.22129893
0000e0 b9 ed 65 3d 93 ca b9 3d 4f 29 02 be 89 d3 42 be
       0.056134913 0.09071841 -0.1271107 -0.19026007
0000f0 d7 7b 35 be db 76 1d 3e 95 26 4c bd c6 aa 19 be
       -0.17723022 0.15377371 -0.049841482 -0.15006551
000100 dc 05 43 3d 14 ec 9a bb f6 81 d7 3d 2d 43 3b 3e
       0.04761301 -0.0047278497 0.10522835 0.18287344
000110 34 04 93 bd a6 73 62 3e e3 0d a2 bd b2 e7 0e 3e
       -0.07178536 0.22114429 -0.07912805 0.13955572
000120 c4 2f 9c bc f7 9d 48 be 7c 9c c2 3d a4 1f c7 3d
       -0.019065745 -0.19591509 0.09502503 0.09722832
000130 1c 38 45 3e 26 a2 3e 3d d6 ec 6d 3e fd 10 ae 3d
       0.19259685 0.046541356 0.23234877 0.08499334
000140 67 6c 9b 3d 06 ef 02 3d e4 13 9a 3d 92 19 a5 3d
       0.075890355 0.03196623 0.07523325 0.08061518
000150 3f 38 6b 3e 7a df 48 bd fc 5b 98 3d e6 6c c0 3d
       0.22970675 -0.04904125 0.074394196 0.09395771
000160 59 99 f0 3d cb c2 72 3e 57 12 5b bd 21 6c e7 bd
       0.11747999 0.2370712 -0.053484287 -0.11299921
000170 c9 fa f0 3c ba 3e b0 3d 43 70 39 3e e5 1d 64 3d
       0.029416459 0.08605714 0.1810923 0.055692572
000180 65 3f 44 3e 4d 2e 9e 3d c4 36 7f 3c 31 6e 67 bd
       0.19164808 0.07723675 0.015577022 -0.05650157
000190 02 dd c3 bd 8b 3f b3 3c 2b 43 28 3e d6 a0 0a 3e
       -0.09563638 0.021880886 0.16431873 0.13537917
0001a0 6b 44 05 be 36 c8 11 3d 33 0e 32 3e c3 b3 10 3d
       -0.1301438 0.035591327 0.17388229 0.035327684
0001b0 05 d2 2e 3e 49 18 03 3e ed c4 50 bd 90 b9 14 3d
       0.17072304 0.12802233 -0.050969053 0.03630978
0001c0 da 67 ce 3c d3 ac 29 3e 54 7e fa 3d 3f 67 d0 3d
       0.025196005 0.16569833 0.122311264 0.10175943
0001d0 5d 58 41 3e fe 41 b6 3c cf 2c cf 3d be 09 a9 3d
       0.18881364 0.022248264 0.101159684 0.08253811
0001e0 68 3e 38 bd d6 56 64 3d 86 1b 84 3d e9 5d 2b 3e
       -0.04498139 0.055746876 0.06450562 0.16735043
0001f0 e4 5b d8 3d d9 6c 08 3e 62 24 6b 3d b2 a9 e3 3d
       0.10564402 0.13322772 0.057407744 0.11116351
000200 1c 83 1b 3e d2 3e 6b 3d 7d 9b 1a 3e 22 80 e4 3b
       0.15186733 0.057432957 0.15098377 0.0069732824
000210 41 0b e4 3d 74 3a 47 be b6 f2 8a bd 55 43 44 3e
       0.11134959 -0.19455892 -0.06784575 0.1916631
000220 63 27 1c bd d1 60 3b bd f3 23 b8 bd 37 6d 8e 3d
       -0.0381235 -0.04574663 -0.08991232 0.06954425
000230 0e f6 26 3e 5e d8 1b 3e 41 53 26 3e e9 97 85 be
       0.163048 0.15219256 0.16242696 -0.2609246
000240 a1 fe 0c be 98 d9 ea bd b3 2b 80 3d 9e 74 dc 3d
       -0.13769008 -0.11467284 0.06258335 0.107644305
000250 9c 0b 18 bd f7 19 f0 3c b1 98 a4 3d 5c f9 ca bd
       -0.037120447 0.029309256 0.08036936 -0.09910843
000260 aa 25 9a 3c 87 2d 8f 3e 54 82 c6 3d 7e 6c 6a 3d
       0.018816788 0.27964422 0.09692827 0.057232372
000270 3f 1a 92 3d 91 a9 b1 3d f1 84 82 3e de 00 5a 3e
       0.07133912 0.0867492 0.2549205 0.21289393
000280 f8 e1 f5 3c 64 d9 5e 3d 57 b2 65 3b 7c 38 91 3e
       0.030014977 0.05440654 0.0035048926 0.28363407
000290 5e 3d ea 3c 51 fb b4 3e 2e 08 08 3e 89 42 78 3c
       0.028593715 0.3534799 0.1328437 0.015152582
0002a0 87 69 15 be a9 c1 87 3e c2 c1 e7 3d bb e9 dd 3c
       -0.14591037 0.26514938 0.11316253 0.02708899
0002b0 8e 12 a8 3d 30 07 66 3d 3c 07 14 3c cd 9f 6d bd
       0.08206664 0.0561592 0.009034928 -0.058013726
0002c0 78 5e 0f 3e a9 93 84 3d 57 7b ba 3b 67 c0 bb 3d
       0.1400088 0.064734764 0.005690973 0.09167557
0002d0 f1 5a 8e 3e 2d fc 61 3d 6e e9 a0 3e 4c 86 b7 bd
       0.27803758 0.055172134 0.31428093 -0.08961162
0002e0 e5 e2 4a 3d 36 a7 57 be 0a 05 e3 3d c2 1f b4 3d
       0.04953279 -0.2105988 0.110849455 0.0879512
0002f0 5c 07 63 be 39 cf 5e 3c 07 08 70 3d 8b 24 e6 3d
       -0.22170776 0.01359921 0.058601405 0.11237439
000300 5d 65 8f 3c 7a 71 6f 3e c8 e1 59 bd 58 7f 44 3c
       0.017504388 0.23383132 -0.053193837 0.011993252
000310 c2 d0 5f bd b5 88 87 bd 94 1f 10 be ae d6 7c 3d
       -0.054642446 -0.06617872 -0.14074546 0.061728172
000320 fe 92 e8 3c 85 98 c2 bc 50 84 49 bd f4 ca e0 3c
       0.028390404 -0.023754368 -0.04919845 0.027440526
000330 6a b1 6c 3e 68 f7 46 3d 6e 8a c5 3d 17 99 6d bc
       0.23114553 0.04857579 0.09645544 -0.0145018315
000340 a7 af 2b bd 87 ef 9e ba 6e 4a 8e 3d ff 9c 81 3e
       -0.041915562 -0.0012125828 0.0694779 0.2531509
000350 86 bb 03 3e df 9e 0b bd c0 d5 d7 3d 40 e0 2c 3e
       0.12864503 -0.03408706 0.105388165 0.1688242
000360 78 3d 39 3d 4d 6a c7 3d ea 9c 7d 3d bd ea 16 3e
       0.045224637 0.09737072 0.061917223 0.14737983
000370 26 da 80 3e 12 9c 99 bc 2c ac 1f 3d 13 e0 17 3d
       0.25166434 -0.018751178 0.038982555 0.03707893
000380 06 f2 54 3c 4a 0b 0a bd 8b 75 52 3d bf 6a 6a 3d
       0.012997156 -0.033702172 0.05138163 0.057230707
000390 b2 d0 73 bd 07 b5 26 3e 4c 56 10 3e 85 e0 56 3d
       -0.0595252 0.16279994 0.1409542 0.052460212
0003a0 b0 19 87 3c 43 a9 ed 3c f5 0b f9 bd 5a cc 9d bd
       0.016491741 0.029011374 -0.12160484 -0.077049926
0003b0 d6 c0 c7 3d d9 01 5c bd 07 c1 01 3e 62 51 7f 3d
       0.097535774 -0.0537127 0.1267129 0.062333472
0003c0 59 6a 10 3e 96 6a 99 3e 96 71 95 bd 02 b5 47 bc
       0.14103068 0.2996413 -0.072970554 -0.012189152
0003d0 0d e9 72 3e d8 ba 71 3c 14 94 9f 3d 1d 50 f2 3d
       0.23721714 0.01475402 0.077919155 0.11831687
0003e0 b3 7b 3f bd 9b db b2 3d 7e 4b d9 3d 57 d0 c0 3d
       -0.04674883 0.08733293 0.10610102 0.09414738
0003f0 e8 c5 b0 bd 1e 9e 83 bd c3 a3 c0 bd 56 bc 5b 3e
       -0.086314976 -0.06426643 -0.09406235 0.21458563
