models_slbp+gf/case7_final.pth (torch_old, 110331 bytes, 9 tensors)

conv1.conv.3.weight f4 [32, 32, 1, 1]
000000 b9 94 25 bd 8c d4 98 bd 8b aa f0 bd 8c 8b 7e be
       -0.040425036 -0.07462415 -0.117512785 -0.2485792
000010 e7 f5 b0 bd 33 60 82 bd 6d bb 3c 3e 61 0e 0a bd
       -0.08640652 -0.06366005 0.18430872 -0.03370512
000020 9b 42 15 be 36 86 84 be 85 8f f6 bc 6f 13 7f bd
       -0.14576189 -0.25883645 -0.030097732 -0.062274393
000030 a2 0b 9a bd bd a8 f9 bd c5 73 c0 bc ba b5 34 bd
       -0.0752175 -0.121903874 -0.023492703 -0.04411862
000040 43 61 50 3d 71 19 c4 bc 1e 82 e1 bd c1 60 14 3e
       0.050874006 -0.023937913 -0.11011146 0.14490034
000050 94 b0 d0 bc dc 02 7d bd 3c a0 81 bd 43 23 7c be
       -0.025474824 -0.061770305 -0.063293904 -0.24622826
000060 6b 9e 60 bd 62 e3 01 3e 24 01 5f be 70 67 a0 bd
       -0.05483858 0.12684396 -0.21777779 -0.07832229
000070 8f 26 fa 3a 01 8d 3f bd 6e 0d 30 be f1 86 46 3e
       0.0019084978 -0.04676533 -0.17192623 0.19387414
000080 88 94 31 3e d8 80 11 3e 03 38 95 be bf 70 35 3e
       0.17341816 0.14209306 -0.29144296 0.1771879
000090 c7 73 93 bd fe df 4b bd fb 40 6c be 43 4d 1b bc
       -0.07199817 -0.049774162 -0.23071663 -0.00947887
0000a0 9e c5 42 3d 7c c2 b2 3d cd 5c 16 3e fa c8 e5 bd
       0.047551744 0.08728501 0.14683838 -0.11219974
0000b0 ef c9 47 3e 2f 88 3c be 2b f6 86 bc 66 51 2d 3b
       0.19510625 -0.18411325 -0.016474804 0.0026446222
0000c0 34 76 34 3d 12 88 ff bd df c8 3e bd 00 5e 56 bd
       0.04405804 -0.12477125 -0.046578284 -0.05233574
0000d0 8b 85 d5 3d d0 0c 92 3e ac 30 9b 3d fb 80 b3 bc
       0.10425862 0.285254 0.07577643 -0.021912089
0000e0 2c 99 a9 3d 5b 43 66 bd e8 6f 8f be 8e d2 43 3e
       0.08281168 -0.05621658 -0.28015065 0.19123289
0000f0 c7 04 37 be b3 65 e6 3d a8 b0 fd 3d 76 df 77 be
       -0.17872916 0.11249866 0.1238721 -0.24206337
000100 95 fc 94 3e 06 c7 e9 3d 70 cf 3b bd fd 55 a5 bb
       0.29098955 0.11414914 -0.045852125 -0.005045651
000110 e0 1d 2c 3e 2d 92 71 bd 78 31 55 be bb 0e d8 bd
       0.16808271 -0.058977295 -0.20819652 -0.105496846
000120 44 f8 8c 3d 2b e7 65 3e 6e d9 3d be a9 32 d2 3c
       0.068832904 0.22451465 -0.18539974 0.025658922
000130 b5 49 ee 3d 71 27 59 be 7b e7 2f 3c 27 66 3b bd
       0.11635152 -0.21206452 0.010736342 -0.045751717
000140 a3 13 26 bd 28 bb 6b 3e 5f af e5 3d 30 cf 33 3d
       -0.04054607 0.23020613 0.1121509 0.04389876
000150 e8 7f 58 3d 97 d9 60 bd da 91 3a 3e da 94 8d bd
       0.052856356 -0.05489501 0.182197 -0.06913157
000160 5b 28 02 be 2b e1 91 bc 5e 68 7e 3e 75 f3 5d 3d
       -0.12710707 -0.017807564 0.248445 0.054187257
000170 37 7e 24 be 76 5f b4 3d 60 2c 23 bd 92 f8 13 be
       -0.16063772 0.0880727 -0.03983724 -0.14450291
000180 45 4c b4 bd 68 d9 5b be 70 d2 98 3c 11 aa b3 bd
       -0.0880361 -0.21469653 0.018655032 -0.08772672
000190 91 bc 4b 3d ae 0f 05 be 78 50 7a 3e d6 6f 36 bd
       0.049740378 -0.12994263 0.24444759 -0.04454025
0001a0 ae b7 02 3d 9b b4 20 bd c0 ac 2e 3d 1c 3a f8 3d
       0.03191345 -0.03923474 0.042645216 0.121204585
0001b0 b7 5b 9f bd 12 e9 61 bb 7b 5a 08 3c c4 53 62 3d
       -0.07781165 -0.0034471196 0.0083223535 0.055255666
0001c0 15 ad e2 bc ac 42 26 be 48 ad 25 3e 47 e5 4b 3e
       -0.027670423 -0.16236371 0.16179383 0.19911681
0001d0 5f 68 11 3e d8 29 aa bd f4 76 b8 bd e4 1f 3c bc
       0.1419997 -0.08308762 -0.090070635 -0.011482213
0001e0 5d 3b 1c be 59 3d 7c 3e cf 93 f4 3d b2 85 2a be
       -0.1525702 0.24632777 0.11942255 -0.16652563
0001f0 fb bd 07 be 0b 22 8d 3d 0e d5 ff bd b2 2f 42 3e
       -0.13256066 0.06891259 -0.12491809 0.18963507
000200 57 4c 0b bd 5c 54 05 be 77 82 b6 3d d5 86 f6 bc
       -0.03400835 -0.13020462 0.08911603 -0.03009359
000210 d1 06 6c 3d 36 db 93 bd a5 91 06 3d bc f8 eb bb
       0.057623688 -0.072195455 0.03285374 -0.0072012823
000220 e5 b4 b7 3d 11 e2 84 3d e0 8b 03 3e 08 13 1c bd
       0.0897005 0.06488431 0.12846327 -0.038104087
000230 86 9e 7b be 0c 52 8c 3e a4 bc 57 be 95 a0 32 3e
       -0.2457219 0.27406347 -0.21068054 0.1744407
000240 e9 9c ce bd 5a 18 00 be 63 e2 2c 3e a8 b2 45 3e
       -0.10088522 -0.1250929 0.16883235 0.19306433
000250 cc 59 9c bc 21 0c bd 3d dc 6a 05 3d 6a b6 ba bb
       -0.019085787 0.09230829 0.032572612 -0.005698015
000260 51 29 f8 bd d2 09 55 3e b5 ce e9 3d 40 d5 18 be
       -0.121172555 0.20804527 0.11416379 -0.14925098
000270 79 43 6e bd be ea 38 be c4 03 84 be 3d 24 87 3d
       -0.058169816 -0.18058297 -0.25784123 0.06598709
000280 87 1c e7 bc 67 fb 1c 3e 32 b9 0d 3d a7 06 c2 3e
       -0.028211845 0.15330277 0.034600444 0.378957
000290 69 ff b6 bd cf f3 a4 bc 82 6b bf bd d7 e1 37 3d
       -0.08935434 -0.020135788 -0.09346677 0.044893112
0002a0 47 f9 b4 bc 60 d0 cb bd 7e c6 96 bd f0 fe ee 3b
       -0.022091521 -0.09951854 -0.07362078 0.0072935745
0002b0 04 fd 62 3e aa 3f b1 3d ab a1 87 3e b8 82 41 bd
       0.2216683 0.08654721 0.2649053 -0.047243804
0002c0 49 a2 a3 bd b7 18 05 3d 87 a3 40 be ba d9 85 3d
       -0.07989938 0.032494273 -0.1881238 0.06535669
0002d0 61 58 b0 3c 40 c2 a7 bb 69 25 4b 3e a4 a9 20 be
       0.021526517 -0.005119592 0.1983849 -0.15689713
0002e0 ea 09 3b bd b2 55 34 3a 55 2d 7a 3e 5e ea 7c 3e
       -0.04566375 0.00068792247 0.24431355 0.24698779
0002f0 72 a1 a6 3d 6d 6c 0a be c6 af 41 3e bf 61 3d be
       0.08136262 -0.13517924 0.18914708 -0.18494318
000300 a2 c3 cc be 8d 25 37 be 82 72 ea bc 26 c3 af bd
       -0.39993006 -0.17885418 -0.028619055 -0.085821435
000310 02 e9 1d be c7 28 b7 bd b2 ee de bd 76 4a 2a 3c
       -0.15420917 -0.089433245 -0.10885371 0.010393729
000320 ef 21 64 be 9f 2c 93 be b9 1c 1e 3e 0b d3 3f 3d
       -0.2227857 -0.2874498 0.15440644 0.046832126
000330 4c 4f 5d bd 7c c5 02 be dc 96 18 be 3e b7 69 3b
       -0.0540307 -0.12770647 -0.14901298 0.00356622
000340 c2 b0 26 be df ed 17 be 43 2a ac bd bf 74 ae bd
       -0.16278365 -0.14836834 -0.08406498 -0.08518361
000350 ed 53 bb bd ec 1f 6b 3e 19 51 3a be 2f 25 06 be
       -0.09146867 0.22961396 -0.18194999 -0.13100122
000360 3b 38 96 bc b7 65 ac 3d 8a 0b 60 be 90 7e fe bd
       -0.01833736 0.08417838 -0.21879402 -0.12426484
000370 0e 0c 86 3e 9e cf b7 3d a0 2e bc bd bc f9 2a 3e
       0.26181072 0.08975147 -0.091885805 0.16696829
000380 47 f8 98 3d ff 10 87 bc a6 8e b6 3e 1d 57 e7 bd
       0.0746923 -0.016487597 0.35655707 -0.112959124
000390 e6 a1 fc bc b5 8d e3 3c 8d 5b 58 3d 57 f5 06 be
       -0.030838918 0.027777532 0.052821685 -0.13179527
0003a0 f9 e7 0e 3e 3c fe b4 bc da af e5 3e 7b c1 cb bc
       0.13955678 -0.022093885 0.44860727 -0.024872532
0003b0 58 a5 fe bd 3c e5 6a bd 33 25 26 bd 52 74 b4 bd
       -0.124338806 -0.05734752 -0.04056282 -0.08811249
0003c0 e4 c5 ee bd 82 fb eb 3d f2 3d 2e be fe 02 04 bb
       -0.116588384 0.11522581 -0.17015818 -0.0020143385
0003d0 c4 7f 87 3d 6c d7 14 be e8 28 53 3e a2 1d 5d bd
       0.06616166 -0.14535302 0.20621073 -0.05398334
0003e0 80 8c 9c bd 66 27 4e 3e 31 17 6e bd fd f3 e3 bd
       -0.07643986 0.20132217 -0.058127586 -0.111305214
0003f0 ca ee 5d bc 10 47 91 be b0 e6 ca bd 41 b3 df bc
       -0.013545701 -0.2837453 -0.099072814 -0.027307155

conv1.conv.6.weight f4 [32, 32, 1, 1]
000000 6d 2d b0 bd d0 7c 41 3d 18 da 15 be 55 83 60 3e
       -0.08602414 0.04723817 -0.14633977 0.21925099
000010 5b b0 2a 3e 30 1b d3 3b aa 1f 72 3d f5 fd 49 3d
       0.16668837 0.00644245 0.05911223 0.049314458
000020 4a af 9a be 04 c3 ff bd 05 c6 05 bd 64 64 12 3e
       -0.3021186 -0.12488368 -0.03265955 0.14296108
000030 ca e6 2f 3c 5c 93 fa bd 4c a5 07 be d1 eb 32 3e
       0.010736177 -0.12235138 -0.1324665 0.1747277
000040 ee 87 a2 3e df ad 2a be 63 a6 67 3e 5e 16 f3 3d
       0.3174433 -0.16667889 0.22622065 0.118695006
000050 de 19 ad bd 27 b6 2f 3d 0e 7e 7d 3c 01 fb a1 3c
       -0.084521994 0.042898323 0.015471948 0.019773008
000060 04 d8 33 bd c8 1f 0b 3d 50 e6 49 3d 65 73 60 be
       -0.04390718 0.033965856 0.04929191 -0.2191902
000070 b0 31 32 3e 8e a5 18 3e 29 50 cc 3d 23 5e d3 3d
       0.17401767 0.14906904 0.09976227 0.103206895
000080 5b 9a ad bb 17 12 47 bc 8b 26 34 be 07 a8 02 3d
       -0.0052979416 -0.012150309 -0.17592828 0.031898525
000090 9b 0f 48 3d 71 6f 8e 3e 75 e5 80 bd 87 cb 2c be
       0.048843008 0.27819398 -0.062937655 -0.16874515
0000a0 e6 df d1 3c 2e c4 7d be d3 10 09 3d c6 e3 a5 3d
       0.025619458 -0.24781868 0.03346331 0.08100085
0000b0 d6 af 74 3c f4 e0 0a be 90 5c 87 3e 3d 5e 88 3d
       0.014934501 -0.13562375 0.26437807 0.066585995
0000c0 a0 a0 dd bd 18 98 03 be 1b 43 1b 3e f3 b3 50 3d
       -0.108216524 -0.12850988 0.15162317 0.050952863
0000d0 fd 00 47 3e 6c 7e a4 3e a5 b3 9f 3d 85 f9 c3 3d
       0.19433971 0.32127702 0.07797936 0.095690764
0000e0 b6 0c 47 3d 98 34 cb bd f1 86 6e 3e cc ce 8b be
       0.048596106 -0.09922141 0.23293664 -0.2730621
0000f0 51 c9 70 bd 0a 88 5a 3c f1 42 8d 3e f3 b4 80 bd
       -0.05878574 0.013338098 0.27590135 -0.06284513
000100 04 e7 b1 3d 5f cd 57 3d 39 16 e8 3c d5 14 27 3e
       0.08686641 0.05268609 0.02833091 0.1631654
000110 c0 5a 7f 3d 4e f1 da 3c 06 67 07 3e ac 28 0f 3c
       0.062342405 0.026726391 0.13222894 0.008737724
000120 38 8e d5 bc 64 5f 7a be 6a a7 02 be ec 3b 76 bd
       -0.026068792 -0.24450451 -0.12759176 -0.06011574
000130 f1 7a 42 3e cc 09 76 be 90 f5 1d be d5 59 67 bd
       0.18992211 -0.24027175 -0.15425706 -0.056482155
000140 85 96 37 3c 75 d0 71 bd f3 06 7a 3d f3 43 4f be
       0.01120532 -0.05903669 0.061041784 -0.20240764
000150 f5 93 28 be c9 ae 79 be 65 a7 5e bd ce d7 a6 bd
       -0.16462691 -0.24383081 -0.05435886 -0.0814663
000160 35 bb 07 3e c9 70 86 3e 96 b6 b7 bc 50 bb 0e be
       0.13255008 0.26257923 -0.022425931 -0.13938642
000170 92 f8 cb 3d ca a1 a8 3c 13 ae 31 be 63 1e fc 3d
       0.099595204 0.02058496 -0.1735156 0.12310483
000180 2c a6 1b 3d 95 74 1d 3d ab b7 2e bd a9 66 a3 3d
       0.03800027 0.03844126 -0.04265563 0.07978565
000190 79 16 c3 3d 8d 2a 5b be a0 6f 85 bd 9a ae 24 bd
       0.09525771 -0.2140295 -0.065154314 -0.040205576
0001a0 4a 47 62 3d 14 fe 8f 3d 2b 29 3d 3d 27 d1 b9 3e
       0.055243768 0.070308834 0.04618184 0.36292383
0001b0 65 88 87 3b 94 9b 43 bd 08 cd 51 3e 9c 34 cb bd
       0.0041361325 -0.047755793 0.2048837 -0.09922144
0001c0 9b 98 19 be 90 87 8e be ef ed 58 3c ac 23 88 3e
       -0.1499962 -0.278378 0.013240322 0.26589715
0001d0 ab 13 38 be e0 6d 34 3d f5 bc 4d bd 2d 9c 8c 3d
       -0.17976253 0.044050097 -0.05022903 0.06865726
0001e0 15 e4 cc 3c 97 ac f8 bd 42 b6 ab 3c 55 e2 30 3e
       0.025011102 -0.12142294 0.02096093 0.17273839
0001f0 8f 57 25 3e a1 82 16 3e c6 5f 0c be 15 ea de bd
       0.16146682 0.14698268 -0.1370841 -0.10884491
000200 7f 6d be bc 09 00 a5 3d b9 01 35 3d 94 da 34 bd
       -0.023245571 0.08056647 0.044191096 -0.044153765
000210 c3 a1 95 3e 80 d8 89 3e 33 ff 80 3e 32 84 8a 3e
       0.29224977 0.2692299 0.25194702 0.27053982
000220 87 50 2b be e4 f0 5d 3d 0d 99 78 3e c0 22 3e bd
       -0.16729937 0.05418481 0.24277134 -0.04641986
000230 c3 fa 90 bd 90 5d 0a 3d 2d 55 6b 3d c8 61 53 3c
       -0.07079079 0.033780634 0.057454277 0.012901731
000240 30 4d 6f 3e 66 59 7b be 5b 80 a0 3e 07 e0 66 bd
       0.23369288 -0.24545822 0.31347927 -0.056365993
000250 81 60 95 3c 31 81 01 3e eb 45 4d 3d cb ff 05 3e
       0.018234493 0.12646939 0.050115507 0.13085859
000260 26 62 de bc 2b 8a f1 3d e3 d7 a1 3d 2c d5 8a 3d
       -0.02714641 0.117939316 0.07902505 0.067789406
000270 ec c6 26 bb 03 72 80 3d 68 c5 d3 3c 76 7b 20 3c
       -0.0025448157 0.06271746 0.025850967 0.00979506
000280 0e d6 6e 3d ad 9a 9e be 26 14 a9 3c 2d 15 e3 bd
       0.058309607 -0.30977383 0.02063949 -0.11088023
000290 b7 38 9a be 03 b9 83 3e 40 6b 1b be b6 da d3 3c
       -0.30121395 0.2572709 -0.15177631 0.025861125
0002a0 16 84 8f be 9c 47 8a 3c 42 a1 3f be b0 a5 ed 3d
       -0.2803046 0.01687985 -0.18713859 0.11603868
0002b0 d6 f5 1d 3d b2 e8 cb b9 f1 7d 45 3d 30 d8 10 be
       0.038564526 -0.0003889255 0.04821581 -0.14144969
0002c0 88 0b 29 be d4 e1 18 bd 75 c9 90 be b1 a9 29 bc
       -0.16508305 -0.03732474 -0.282787 -0.010355399
0002d0 e5 93 19 bd 41 6d e2 bb 56 02 f9 3d 51 60 25 3d
       -0.03749456 -0.0069099967 0.12158649 0.040375058
0002e0 99 eb 75 3d da 56 7b bd 19 ac 0f be 2d cd dd 3d
       0.060039137 -0.061362125 -0.14030494 0.1083015
0002f0 31 ae 70 3e 96 3b 32 3d bf dd 28 3d 24 8c bc 3d
       0.23503949 0.043513857 0.0412271 0.09206417
000300 70 58 bc 3d 12 42 d8 3d b0 95 8d 3c 4f 40 2b 3e
       0.091965556 0.10559477 0.01728329 0.1672375
000310 3f ff 13 be 52 52 9b 3d cb 7e 9e bd 8e 4e 8e be
       -0.14452837 0.07584061 -0.077390276 -0.27794307
000320 f1 84 cf bc 5f cf 44 3e 4a ab 00 be eb 5f 7d bb
       -0.025331946 0.19219731 -0.12565342 -0.0038661908
000330 13 90 b8 3e d3 a3 13 be 36 44 71 3e 77 dd 0a be
       0.3604742 -0.14417963 0.23561177 -0.13561045
000340 65 40 d5 bd b0 b9 a8 bd c0 f8 5f 3c 5a 56 3f 3e
       -0.10412673 -0.08238542 0.013670146 0.18685284
000350 bc fa 26 be 93 90 02 be af 73 4b 3e bc 47 ee 3d
       -0.16306585 -0.12750463 0.19868349 0.11634776
000360 14 1a 8f 3e a3 98 b5 bd 9e 51 35 bd ab 04 f8 3d
       0.27949584 -0.08867004 -0.04426729 0.12110265
000370 7f 9d 5d 3d 98 ad 90 bd 7d 6d b9 bd 33 be 9d be
       0.054105278 -0.070643604 -0.09054086 -0.30809173
000380 05 31 2a be 1a 07 56 bd 65 75 4a 3e d6 56 e5 3b
       -0.16620262 -0.052252866 0.19771345 0.006998877
000390 99 3e c5 3d d6 31 cb bd 78 43 b8 bd 81 2f 80 3e
       0.0963108 -0.09921615 -0.08997244 0.25036243
0003a0 5a 89 f5 3c 36 e8 33 3e 0e 6c c3 bd 54 71 93 3d
       0.02997272 0.1756905 -0.09542094 0.0719935
0003b0 bc 77 e6 3d 7b 0a 10 be 27 67 c4 bd c5 d4 7d bc
       0.11253306 -0.14066498 -0.09589987 -0.015492623
0003c0 57 58 a5 3e bc fe 91 bd be 79 41 be 3f 08 67 3e
       0.3229396 -0.07128665 -0.18894097 0.2256174
0003d0 90 27 f2 bd 82 d8 c6 3c d4 02 1b bd 40 93 f0 3d
       -0.11823952 0.02427316 -0.037844494 0.11746836
0003e0 a1 db 0f 3b f7 7b c9 3d 57 de 30 3d e8 9f ca bd
       0.0021950977 0.098380975 0.04318079 -0.09893781
0003f0 55 00 10 be 88 3e 43 be 08 ad 9a 3d 8f da 8d 3d
       -0.14062627 -0.19066823 0.07552534 0.06926452

conv2.conv.3.weight f4 [32, 32, 1, 1]
000000 12 2e 86 bd 4c e5 81 3d 29 0d 42 3d cd 35 0e be
       -0.06551756 0.06342563 0.04737583 -0.13887711
000010 cb ee 87 be d1 5b b7 bd dd c2 7a 3e ba 7c 82 bc
       -0.26549372 -0.089530595 0.24488397 -0.015928615
000020 ed 21 58 3e d6 61 51 bd 28 0c 4a be df 3a 33 3e
       0.21106692 -0.051118694 -0.197312 0.17502926
000030 99 ce c1 3d 9a 4a ac bd 45 63 81 3d 16 b4 06 be
       0.094632335 -0.084126666 0.06317762 -0.13154635
000040 83 cd d9 bd 17 7c 8f 3e 97 20 46 3e 93 98 df 3d
       -0.106349014 0.2802436 0.1934837 0.10917773
000050 42 81 89 3e 55 22 b1 bb cc c8 32 bd 04 cc 31 3e
       0.26856428 -0.005405704 -0.043648526 0.17362982
000060 8c 53 9d 3d a5 8a 29 3e 7a 58 54 bd 68 94 3f 3e
       0.07681951 0.16556795 -0.05184219 0.18708956
000070 67 fa cf 3d ac 7d 0c 3d cc f7 2a be 99 5b 0d be
       0.10155182 0.034299538 -0.1669609 -0.13804473
000080 2f 19 b9 bd a3 7b 47 3e 56 ba 45 be bc b2 20 bd
       -0.090380065 0.19480757 -0.19309363 -0.039232954
000090 73 8d 3c bd e6 5e 04 3e 96 28 08 bc 41 b7 18 3e
       -0.046033334 0.12926826 -0.008310458 0.14913656
0000a0 14 11 b8 bd 84 99 95 bd 07 01 38 be 15 ea 5c 3e
       -0.089876324 -0.073046714 -0.17969142 0.2157367
0000b0 35 10 5f 3e cd 30 0c 3e 77 9a 1c be c9 6f 14 3e
       0.21783526 0.13690491 -0.15293299 0.14495768
0000c0 85 02 dc 3d 60 08 3c be af 1a 18 3e db 47 b8 3d
       0.10742668 -0.1836257 0.14853929 0.0899808
0000d0 71 dd 25 3c 62 4c 48 3e 28 e9 91 bd c3 69 31 be
       0.0101235965 0.19560388 -0.07124549 -0.17325501
0000e0 cb cc 3a 3d a8 97 94 be 76 b9 31 be e6 1b 4e 3d
       0.045605462 -0.29021955 -0.17355904 0.050319575
0000f0 38 c9 95 be d6 bd 34 be 3d 17 3d be f5 d8 cc 3d
       -0.2925508 -0.17650542 -0.18465896 0.10002319
000100 2d 43 c4 3d 87 00 ca 3d 33 3f 6d bd ad b0 8d bd
       0.09583125 0.09863382 -0.0579216 -0.06918464
000110 9c 2c 11 3c bd 07 3f bd 90 d2 c5 bd 7b 3d a3 3d
       0.008860733 -0.04663824 -0.09659302 0.07970711
000120 33 1e a0 bc 56 7a 09 be 5e 78 9d bd 00 0d ca 3e
       -0.01954565 -0.13425574 -0.07688974 0.39463043
000130 26 3c 13 be 2f 00 9a 3e 28 15 e7 bd 83 ef c9 bc
       -0.14378414 0.30078265 -0.11283332 -0.02465034
000140 d9 28 3e 3e dd 8e e4 3e f2 c7 5e 3c 08 e1 ab 3d
       0.1857027 0.44640246 0.013597475 0.08392531
000150 5c 27 19 be 75 ae 72 be 37 eb 6c bc d7 d3 ea bd
       -0.1495642 -0.23699363 -0.014460376 -0.114661865
000160 ce f8 7d be ac 40 82 be 22 e6 51 be d3 47 aa 3d
       -0.24801943 -0.25439966 -0.20497945 0.08314481
000170 99 02 d8 3d 11 68 38 be 90 55 e4 bd 96 51 26 3e
       0.105473705 -0.18008448 -0.11149132 0.1624206
000180 d7 3d 21 be 63 3e 5b be b7 78 4c be 60 9d 83 3d
       -0.15746246 -0.21410517 -0.19967924 0.06426501
000190 35 8b 01 3e 0d 08 a8 bd 60 91 e2 bc 30 10 92 bb
       0.1265076 -0.082046606 -0.02765721 -0.004457496
0001a0 ba 58 90 3d a5 38 0b 3e 91 f6 66 3e 19 17 4a be
       0.07048173 0.13595827 0.22554995 -0.19735374
0001b0 63 f3 7e be 8a af c0 ba eb 1b 0f be de fb d3 3d
       -0.24897532 -0.0014700752 -0.13975494 0.10350774
0001c0 eb 03 f0 3c 31 f1 86 3d 2a 13 c2 3d ab 21 d8 bd
       0.029298743 0.06588972 0.094763115 -0.10553297
0001d0 12 77 64 3d b1 41 dd bd 9e c9 5d be ea 1c ea 3d
       0.055777617 -0.10803545 -0.21658942 0.11431296
0001e0 9e 59 17 be bc 4d d6 bc 63 e4 5d bc 47 4e 47 be
       -0.1478028 -0.026160114 -0.013543221 -0.19463454
0001f0 9b cc dd 3d 7c 89 15 3e e4 80 42 3e 40 23 d6 3d
       0.10830041 0.14603227 0.1899448 0.10455942
000200 97 54 7e be 02 fe 69 bd 72 6e 41 bd e0 ec 8b 3c
       -0.24836956 -0.057127006 -0.04722447 0.017080724
000210 53 1d e3 bd 29 f3 32 3d 12 5e 4b 3d 06 b6 71 bc
       -0.110895775 0.043688927 0.04965026 -0.01475287
000220 d1 ea 00 be df db 43 3e 24 dd ff 3d 40 d8 9e bd
       -0.12589575 0.19126843 0.12493351 -0.0775609
000230 dc ed 8b 3e 8a d4 57 3e 6d 42 8d 3d e3 17 ab bd
       0.2732991 0.21077171 0.06897435 -0.083541654
000240 b5 77 f1 3d 21 ad 46 be 07 d2 60 3d 32 5f 17 be
       0.117904104 -0.19401981 0.054887798 -0.14782408
000250 3a b1 64 3e e6 60 df 3d a7 a5 81 bd ec d6 84 3e
       0.22333232 0.10907154 -0.06330424 0.25945222
000260 20 04 b0 3d e9 25 3f 3e 9a 7d 89 3d f9 bf 16 3d
       0.08594537 0.18666805 0.0671341 0.036804173
000270 b0 1d 1d 3e c6 66 7a 3d 5b 9a 01 bd b0 54 96 bd
       0.15343356 0.06113317 -0.031641345 -0.073403716
000280 19 ad 6b be 6b 79 80 3d 56 21 31 3e 75 be 98 bc
       -0.2301525 0.06273159 0.17297873 -0.018645504
000290 0d ca cb 3c 95 eb 33 bd fb d4 f2 3d 95 01 07 3e
       0.024876619 -0.04392584 0.11857029 0.13184197
0002a0 15 a3 08 bd 9d 61 8c 3d 34 5a c3 bd 86 ac 32 3d
       -0.033358652 0.06854556 -0.09538689 0.043621562
0002b0 19 b0 08 be 45 1b 08 bd e8 e5 ef 3c b3 60 c5 3d
       -0.13348426 -0.03322913 0.029284433 0.096375845
0002c0 e4 fe 9b 3d f4 71 a4 bc 81 e0 eb 3d d9 b9 a3 bd
       0.07616976 -0.020073868 0.1151743 -0.07994432
0002d0 c4 ce 42 be 9d 50 73 3e 07 4d 65 bd 02 8f 5a 3e
       -0.19024187 0.2376122 -0.055981662 0.21343616
0002e0 36 80 2d 3e 68 c5 9b 3b 92 4a 6d be e7 80 04 bd
       0.1694344 0.0047537573 -0.23172978 -0.032349493
0002f0 3d a5 73 be 38 5a 80 be 16 e4 13 bd 58 06 4e bd
       -0.23793502 -0.2506883 -0.03610619 -0.05029902
000300 bd 11 3e 3e 2e 4b 17 3e ee f7 61 bd 81 51 13 bc
       0.18561454 0.14774773 -0.055168085 -0.0089916
000310 d7 7b 9e 3e 3e 7b 0a be 0a d0 28 be 2c e1 18 3d
       0.30953857 -0.13523576 -0.1648561 0.037324116
000320 d7 e1 97 3e 88 be 82 be 29 84 6c bd ac 86 4c bb
       0.2966449 -0.2553599 -0.057743225 -0.00312082
000330 61 71 aa be e9 56 bd 3c 75 ea 3e 3e b1 ee 91 bd
       -0.33289626 0.023112731 0.18644126 -0.07125605
000340 df 18 9d bc 11 82 3b be 47 1b 8d be 67 8e b9 bc
       -0.019176899 -0.18311335 -0.27559873 -0.02265091
000350 f9 5a 4f 3e d7 3c f1 bd fa 48 2d 3d db b1 40 be
       0.20249547 -0.117791824 0.042305924 -0.18817846
000360 37 13 e2 bd 82 b3 e3 3c b3 12 22 bd 1b 91 08 be
       -0.11038821 0.027795557 -0.039568614 -0.13336603
000370 df 79 f5 3d c5 a8 62 3d 4b 82 33 3d 91 9f 23 3e
       0.11986136 0.055336732 0.04382543 0.15978839
000380 40 c8 fe bd 36 99 7d be 85 51 96 3e 53 46 34 bd
       -0.124405384 -0.24765477 0.2935907 -0.04401238
000390 e6 1c 33 bd f3 c6 54 bd e5 ec cf 3b a9 1b 43 3d
       -0.04372873 -0.051947545 0.0063453787 0.0476338
0003a0 75 7f 2f 3d 98 30 0b 3e 25 a4 53 3e a2 85 a5 3b
       0.042846162 0.13592756 0.20668085 0.0050513307
0003b0 7f 2e 31 3d 44 4c 03 be 64 ee d3 3d 85 6f 9c 3e
       0.043257233 -0.12822062 0.10348204 0.30553833
0003c0 eb ab 1b be b9 ac df 3d 51 eb 32 bd 4c 90 61 be
       -0.152023 0.10921616 -0.043681446 -0.22027701
0003d0 ee d1 1e be 22 05 ac bd e2 a6 0b be ee b3 2f bd
       -0.1550977 -0.083994165 -0.1363788 -0.042896204
0003e0 6e 48 1c be ea d4 da bd 98 bb ee 3d e4 f4 a8 3d
       -0.15262005 -0.106851414 0.116568744 0.08249834
0003f0 d9 8a ca 3d 79 55 8e 3d 2a 63 04 3d 36 6f 11 3e
       0.09889764 0.06949896 0.032321133 0.1420258

conv2.conv.6.weight f4 [32, 32, 1, 1]
000000 a9 5e 8c be 26 5a 34 bd 91 fb f6 bd 8a 7c 99 3e
       -0.2741597 -0.044031285 -0.12059701 0.29977828
000010 a9 59 f6 3c d0 da a4 bd 1f 57 8d 3d 3c b7 69 3e
       0.03007205 -0.08049548 0.06901383 0.22823805
000020 b0 ce dc bc b8 9c d5 bd e3 11 4d bd bd 28 5a 3d
       -0.026954025 -0.10430282 -0.050065886 0.053261507
000030 32 54 f9 3c a3 3c 05 be c3 d0 20 bd 7b 7d 15 3e
       0.030435655 -0.13011412 -0.03926159 0.14598648
000040 2a cf 71 bc 5e 35 86 3d ff 53 61 bd 42 a0 08 be
       -0.014758864 0.06553148 -0.055011746 -0.13342384
000050 80 72 88 3d aa f0 19 bd 35 c0 82 bc d9 42 82 be
       0.06662464 -0.03758303 -0.015960792 -0.25441626
000060 fe c6 4f be 98 4b 61 3c f1 74 8f 3d 42 bb 5d be
       -0.20290753 0.013750933 0.07004727 -0.21653464
000070 a6 b8 5c 3c 5d 14 1d be a9 89 0e be b6 83 89 bd
       0.013471758 -0.15339799 -0.139197 -0.06714575
000080 16 1e f7 bb 86 54 b9 bc cd 29 8f 3d 02 24 37 3c
       -0.0075414283 -0.022623312 0.06990395 0.0111780185
000090 ad 71 03 be d6 e6 a2 bd 1d f1 34 3e 0e 8c 15 bc
       -0.12836333 -0.07954185 0.17670102 -0.00912763
0000a0 45 b6 eb 3d 75 9d 84 3e 53 d3 8b 3e 47 78 50 3e
       0.115093745 0.2590138 0.27309665 0.20358382
0000b0 96 04 ff 3d f7 dc 28 3e 59 88 3a 3d 46 ec 2e 3e
       0.124520466 0.16490541 0.045540188 0.17082319
0000c0 45 f2 52 3e fd 76 63 3d b8 ff a2 bc a1 ae 33 3d
       0.20600231 0.055533398 -0.019897327 0.04386771
0000d0 56 3a fb bd 11 a0 79 bc 1c b1 e4 bc dc 6b 58 3d
       -0.12266986 -0.015235917 -0.027916484 0.052837238
0000e0 8c 07 b4 3d b8 ba 00 bc ee 63 b9 3e c5 03 1b 3e
       0.08790502 -0.007857017 0.36209053 0.15138157
0000f0 e4 10 c7 bc 0e 0c d0 3d f6 fc 38 bd f8 64 7f 3c
       -0.024300046 0.10158549 -0.045163117 0.015588038
000100 6d 62 92 3b 01 4c a5 3d 2d f3 f7 3d b8 56 1d be
       0.0044672997 0.08071137 0.12106929 -0.15365112
000110 b6 96 99 3e c5 8d 91 3c 14 7a 4e be ae bd 0d be
       0.29997796 0.017767796 -0.20163757 -0.13841888
000120 e5 41 5b bb 3d 4d e4 3d cf 10 6e be 1f c9 ae 3c
       -0.0033456024 0.111475445 -0.232486 0.021336136
000130 1a a5 0a be e3 0f 43 3d 8b 4e 8b bd 03 41 44 3d
       -0.13539544 0.047622573 -0.0680209 0.047913563
000140 c0 47 87 bc 1b 50 1b be 5b 15 0b be 5c 67 f9 bd
       -0.016513705 -0.15167277 -0.13582365 -0.12177917
000150 99 07 34 3e d9 22 f6 bd fe 06 a6 bd ff 6a c9 3b
       0.17581023 -0.120183654 -0.081068024 0.006146788
000160 e6 9e 84 3d b5 b9 6a 3e df 57 79 3d b8 d2 bf 3c
       0.0647562 0.22922404 0.060874816 0.023415908
000170 d0 c8 0d 3e df 7b 42 3e f9 31 07 3e 6d 25 d9 3c
       0.13846135 0.18992566 0.13202657 0.026507104
000180 b6 fa 12 be ca 58 92 be f1 18 8b 3d bb 1e 8e be
       -0.14353451 -0.28583366 0.067918666 -0.2775782
000190 48 22 78 3e 09 9f bb 3c 03 ed 09 3e c9 2e 31 3d
       0.24231827 0.022902982 0.13469319 0.04325751
0001a0 2b 1a 5f 3e 37 7b 12 bd 79 58 88 3e dd 06 9f bd
       0.21787326 -0.035762038 0.2663 -0.07764981
0001b0 89 47 1a be 24 e7 43 3e 41 d5 e7 3c 39 37 f6 bd
       -0.15066351 0.19131142 0.02829993 -0.12022252
0001c0 86 66 22 bc af f1 3b be 6c e0 83 3d ca dc 1a 3e
       -0.009912139 -0.18353914 0.064392895 0.15123287
0001d0 e0 8d 20 bd 1e 07 05 3e 65 e0 ce bd 52 4e fb bd
       -0.039197803 0.12990996 -0.101013936 -0.12270798
0001e0 a1 08 54 3e 68 29 ad 3e 0d a7 56 3c a4 f3 86 3e
       0.20706417 0.33820653 0.013101351 0.26357758
0001f0 2a f9 94 bd ac 05 1c 3e 53 23 f5 bc da 1e 03 3d
       -0.07274087 0.15236539 -0.02992407 0.032011844
000200 04 a3 da bd f6 82 48 bd 27 77 53 3d a6 4b c7 bd
       -0.10675624 -0.04895302 0.051627304 -0.09731226
000210 e7 b2 84 bd 89 74 6a 3d 2e c6 5a 3e 20 e2 88 bd
       -0.064794354 0.057240043 0.21364662 -0.06683755
000220 4c e5 bb bd 40 f5 5a be e9 1d 1f bd d3 74 ed 3b
       -0.09174594 -0.21382618 -0.038846884 0.0072465925
000230 20 44 2d be a7 a7 39 3e d3 f6 9f 3e 4e 69 17 3d
       -0.16920519 0.1813036 0.31243 0.03696566
000240 eb 5d 5e 3d d4 66 93 3e f7 59 34 be c2 a7 6e be
       0.054288786 0.2878939 -0.17612444 -0.23306182
000250 9f cd b5 bc 2c 20 45 bd c4 3c 31 be 91 bc 9b 3d
       -0.022192774 -0.048126385 -0.17308336 0.076043256
000260 8b 48 2c be 9b 57 92 be 60 c9 4c 3e e5 fd 5e bc
       -0.16824548 -0.28582463 0.19998693 -0.013610338
000270 1d 8d 93 bd a9 5c 28 3e da 9b b2 bd f1 db 9e 3c
       -0.072046496 0.16441597 -0.087211326 0.019391986
000280 60 15 03 3d 99 01 63 3e 22 9a 0a 3e f9 6f 6c 3e
       0.032002807 0.22168578 0.1353536 0.23089589
000290 4e 3d ac 3d 30 b2 e8 bd ee 95 2d 3e 71 92 2d 3e
       0.084101304 -0.113621116 0.16951725 0.16950394
0002a0 ae 49 ba 3d d4 12 b3 3e e6 47 9d 3d 8d 0f 00 bd
       0.090960845 0.34975302 0.07679729 -0.03126483
0002b0 9b 03 0c 3e 6a b2 51 3e 70 6d 67 bd 8f 7c 45 3e
       0.1367325 0.20478216 -0.056500852 0.19285797
0002c0 73 1c 3f bd bb f4 5a be 9a c3 90 3d 68 c8 98 3e
       -0.04665799 -0.2138242 0.07068558 0.29840398
0002d0 4a 37 2e be 7c 9d 83 3e 5d 2e 70 3d fb 02 1d 3c
       -0.17013279 0.2570609 0.058637965 0.00958323
0002e0 47 6d fa bc 0c f7 ca bd 0f f2 c1 bd bc 2e 9b bd
       -0.030569686 -0.09910402 -0.09469997 -0.07577273
0002f0 2f 39 47 be 7e 70 ac 3d e9 cd 2f 3d 46 85 cb bd
       -0.19455408 0.08419894 0.04292098 -0.09937529
000300 57 64 39 bc 98 49 eb bd 37 44 06 3e 45 1c ff bc
       -0.011315427 -0.11488646 0.1311196 -0.03114141
000310 ee b4 b2 be 8c 24 8f bd 47 cd af bd 33 04 b8 3d
       -0.34903663 -0.06989393 -0.085840754 0.08985176
000320 a6 40 a6 bc 9a 06 49 3c e3 ab ea bd f2 44 12 3d
       -0.020294499 0.01226964 -0.11458566 0.035710283
000330 45 73 53 be 0e aa 36 bd b9 7f 4e 3e 80 35 34 be
       -0.2064944 -0.04459577 0.2016591 -0.17598534
000340 50 59 15 be ae 60 6a 3d 06 50 5d be e7 12 14 3e
       -0.14584851 0.057221107 -0.21612558 0.14460336
000350 97 f3 4d be 9d 90 7f 3c b1 bc 75 be a6 01 93 be
       -0.20112453 0.015598443 -0.23997761 -0.28712195
000360 ce 6b ee bc 44 02 07 be 8e 37 59 3d e7 f3 11 be
       -0.02910414 -0.13184458 0.053031497 -0.14253198
000370 9d 5c ab be 02 f7 9d bd 39 c8 fa 3d d2 f6 b5 be
       -0.33469096 -0.077131286 0.12245221 -0.3553987
000380 ac ed c0 3d 2d d8 05 be 2e 71 8f be e6 84 04 3e
       0.09420332 -0.13070746 -0.28016037 0.12941322
000390 42 cc b1 3e da 76 06 3d bb f6 f3 bd 5a b7 49 bd
       0.3472615 0.03282819 -0.119122945 -0.049247123
0003a0 0a 89 0f 3e 15 86 4e 3d 54 5e 70 3e fe 7f 3e 3d
       0.1401712 0.05042084 0.23473483 0.04650878
0003b0 52 b8 10 3e 17 f4 31 bd 4a 62 18 3e 9b bd df bd
       0.14132813 -0.043445673 0.14881244 -0.10924836
0003c0 78 b1 c2 bd 53 7c b7 bd 55 c0 e7 3d 87 c5 7a bb
       -0.09506506 -0.0895926 0.11315981 -0.0038264708
0003d0 2a 3b d1 3e 91 03 20 bb dc ec 2d 3e 66 1e a0 3d
       0.4086545 -0.0024416188 0.16984886 0.07818298
0003e0 1d 49 45 3e b4 db 41 3d 9f 5f 4f bd 92 b9 0e 3e
       0.19266172 0.047328666 -0.0506283 0.13937977
0003f0 ac 1b 14 3e a9 2f 99 bd d9 4e 11 3b 9b 11 09 3e
       0.14463681 -0.074797936 0.002217224 0.13385622

conv3.conv.3.weight f4 [64, 64, 1, 1]
000000 a7 77 7d bd 48 60 90 bc 62 9d 2b 3d 5c 8b 1e be
       -0.061881687 -0.017624035 0.04189814 -0.15482849
000010 cd 55 14 be b1 3b ce bb 59 93 bf 3d ed 99 d3 3d
       -0.14485855 -0.006293737 0.09354276 0.103320934
000020 b0 4f 13 3e 8a ab f8 bc 46 9c 6c 3c 1c 83 ab bd
       0.14385867 -0.030355234 0.014441555 -0.083746165
000030 30 c1 55 be ce a1 95 3d c8 19 03 be f8 05 9f 3d
       -0.20874476 0.073062524 -0.12802804 0.0776481
000040 c5 bc 32 3e a6 50 65 3d c2 e6 cb bd 7f b4 15 3e
       0.17454822 0.055985115 -0.09956123 0.14619635
000050 b6 bf 14 be a3 d4 13 be e0 b7 b5 3d 76 20 a2 3b
       -0.14526257 -0.14436583 0.08872962 0.0049477173
000060 d5 26 be bc 94 5f da bc 3a 86 15 be 21 6c 6a bd
       -0.023211876 -0.026656903 -0.14601985 -0.057232026
000070 4a fb 39 be 92 dc 45 bd 4f 91 26 3e d1 94 30 3d
       -0.18162265 -0.048306055 0.16266368 0.043110672
000080 dc 9a 56 be 94 5f 34 be 1e 92 5d be fb ed a6 bc
       -0.20957512 -0.17614585 -0.2163777 -0.02037715
000090 a2 8e 83 3c 1a 4b 2e 3e da 7f a7 bd 6b 12 8c 3d
       0.016059224 0.17020836 -0.081786826 0.068394504
0000a0 03 e2 1f be 4f 3a a1 bd f4 ef 55 3e db 81 82 3c
       -0.1561356 -0.078724496 0.20892316 0.01593106
0000b0 7c 38 50 be f5 37 91 3d aa 28 77 3d ef 3b f9 bd
       -0.20334047 0.07090751 0.060341515 -0.121696346
0000c0 f4 fb 86 3d 52 dc 33 bc 4d c1 83 3e 34 f0 08 bd
       0.06591025 -0.010977821 0.25733414 -0.0334322
0000d0 67 8d aa 3d 0a f9 9b bd cb 79 02 be 8a 2f 14 3d
       0.083277516 -0.0761586 -0.12741773 0.03617815
0000e0 3e da 09 bb 06 8d 17 3e a2 2c ec 3b 1d 30 75 3e
       -0.0021034623 0.1479989 0.007207469 0.23944135
0000f0 90 88 0f 3e 98 85 5a be f1 30 23 be f4 60 35 be
       0.14016938 -0.21340024 -0.15936638 -0.17712766
000100 78 61 c5 3d 2a 9a 88 bc 99 b4 a5 3d a5 f8 eb 3b
       0.09637731 -0.016675074 0.08091087 0.0072012716
000110 d3 a5 ba bc 4a 9d 9c bd a5 1e b7 3d 90 fc 01 3e
       -0.02278415 -0.07647188 0.08941392 0.12694001
000120 75 06 4e 3e 5c 36 76 bd af c8 b3 bd 07 a5 49 3d
       0.2011965 -0.060110435 -0.08778512 0.049229648
000130 ab 34 62 3e 9f c8 8e bd 10 8a 96 3d 22 a6 73 bc
       0.22090404 -0.06971859 0.07350552 -0.014871152
000140 dc c2 b2 bd 2a 81 f3 3d 07 36 75 3d 30 ff 3e 3e
       -0.08728573 0.118898705 0.059865978 0.18652034
000150 68 53 ea bd f0 17 04 be e4 56 e1 3d b5 83 27 be
       -0.1144169 -0.12899756 0.11002901 -0.16358836
000160 da 96 c0 3c da d2 8b 3e 14 f3 ba bc 1e 9a 09 3e
       0.023509432 0.27309304 -0.022820987 0.13437697
000170 a0 98 d1 bd f0 33 f0 3d 6d 6f 47 3e 4f 49 08 3e
       -0.10234189 0.11728656 0.194761 0.13309215
000180 36 d8 13 3e 04 54 41 be 8f 6d 1e be 8b 5a 21 bd
       0.14437947 -0.18879706 -0.15471481 -0.03939299
000190 f6 00 fa bd ff 19 d4 bd 57 3c bf bd 05 55 ba 3c
       -0.122072145 -0.10356521 -0.09337681 0.022745619
0001a0 8e e1 28 be 3b 4a 20 3d 09 df 17 3e 35 bc 9a bd
       -0.16492292 0.03913329 0.14831175 -0.07555429
0001b0 17 4e ac 3c b9 83 93 ba 9e c5 ad bd 0d 24 5a 3d
       0.02103333 -0.0011254466 -0.08484958 0.053257037
0001c0 bc 32 b6 3d 92 26 c0 bb 1f e0 46 3e ea 37 00 be
       0.088963956 -0.005863973 0.19421433 -0.1252133
0001d0 31 01 0b be 98 a9 4a bc 67 f0 92 3e 83 c5 07 3d
       -0.13574673 -0.012369536 0.28699037 0.033147346
0001e0 05 5a 0f bd 05 a6 70 3e ae 1b dc bd c2 d3 82 3e
       -0.03499796 0.23500831 -0.10747467 0.25552183
0001f0 2e b4 05 be 25 8f 95 3d 1c c0 e2 bd bd 08 26 bd
       -0.13057014 0.07302693 -0.11071798 -0.040535677
000200 56 5a fe bd e7 87 52 3e de ad a2 3b c1 96 cc 3d
       -0.12419574 0.20559655 0.0049645742 0.099896915
000210 fa d3 f9 bd 1a 74 3b bd 7d af 83 bc 2c d1 58 3c
       -0.121986344 -0.04576502 -0.01607489 0.013233464
000220 5f cb 6e bd 72 ed 75 3d 8b cf d5 bc f7 54 7d 3d
       -0.05829942 0.0600409 -0.02609994 0.061848607
000230 71 8b 3a ba e7 31 8c 3d a5 b8 9c 3d b7 b5 00 3e
       -0.00071161153 0.068454556 0.07652406 0.12569319
000240 24 93 78 3d d6 6d c9 bd e6 6b 9c bd 43 f2 bc bc
       0.0606872 -0.09835403 -0.076377675 -0.023064738
000250 90 54 9d 3d 7b 37 c3 bd db 73 e0 3d f2 d7 a9 3c
       0.07682145 -0.095320664 0.10959598 0.020732854
000260 af 31 b6 3c 22 8a f4 3c 29 e0 b1 bd 17 23 33 3e
       0.022240488 0.029851023 -0.08685333 0.17493854
000270 f5 e1 65 bd 6c b2 20 3e 5c 47 37 bb c4 7a a4 bd
       -0.056123693 0.15693063 -0.0027966117 -0.08031228
000280 22 a1 a6 bb 74 76 09 3e 71 7f f3 bd 0f af b6 3b
       -0.0050851265 0.13424093 -0.11889542 0.005575068
000290 b5 8a 3e be b1 b9 10 be 97 9f 34 be 9e f8 2b be
       -0.186076 -0.14133336 -0.17639004 -0.16794059
0002a0 9a 70 a1 3e 06 7d 46 3c fb 4f f1 3d f8 72 cd bd
       0.3153122 0.012114769 0.11782833 -0.10031694
0002b0 9a 52 b9 bd de 17 ab 3c 1a 0f 72 3d d2 91 61 3e
       -0.09048958 0.020885404 0.059096433 0.22028282
0002c0 7e 1c b5 bd c9 80 fd bc 6f 67 d4 bc 98 b1 76 3e
       -0.08843325 -0.030945199 -0.025928227 0.24091184
0002d0 54 1d df ba ac 42 ef 3d 71 24 d2 3b 98 64 13 be
       -0.001702229 0.116826385 0.0064130356 -0.14393842
0002e0 46 91 f2 3c 59 e7 c9 bd 7c b1 da 3d 90 dd 9e bd
       0.029610287 -0.09858579 0.10678384 -0.077571034
0002f0 40 cd b6 3c f6 a5 1e be 9a 10 a8 bd 28 8b 84 3d
       0.022314668 -0.15492997 -0.082062915 0.064718544
000300 3f 40 f7 3c 6a 40 d2 bc 0a 32 fd bb 8b 64 1c bd
       0.030182002 -0.02566548 -0.0077269124 -0.038181823
000310 08 c2 43 3d 1e 8d f3 bd 80 d8 30 bd af 8a 00 be
       0.047792464 -0.1189215 -0.04317522 -0.12552904
000320 63 80 fb 3d ac cf bd 3c 10 ce 90 3d ff 84 88 bc
       0.12280347 0.023170315 0.07070553 -0.01666498
000330 28 e6 b9 bc 29 8a 25 3e af 1d a9 3b 3d d3 23 3d
       -0.022692755 0.16165985 0.0051610093 0.039996374
000340 01 03 2c 3e d6 55 c2 3c bb c3 9c 3d 4a e5 9e 3d
       0.16798021 0.02372257 0.0765452 0.07758577
000350 a7 32 c3 bd a5 d7 19 3e 1b 8f 91 bd 8f 5b 51 be
       -0.095311455 0.15023668 -0.07107373 -0.20445083
000360 85 18 48 3c 34 1b 7d bd 70 b4 3d bc 73 06 8d 3d
       0.012212877 -0.06179352 -0.011578664 0.06885996
000370 f0 52 3d be c8 52 9c 3d ca 65 4e 3d 2b de 2e bd
       -0.1848867 0.07632977 0.050390042 -0.042692345
000380 b8 a9 22 3e 5f c8 20 bd a4 1e 14 bc 95 25 15 3a
       0.15885055 -0.03925359 -0.009040508 0.0005689499
000390 ae f1 47 3d 79 1b 19 be 77 31 f9 bd 6f f5 40 be
       0.048814468 -0.14951886 -0.12167638 -0.18843625
0003a0 5a a5 9b bd 0b 39 cd bd a7 e5 89 bd 0b 92 8b 3e
       -0.07599898 -0.10020646 -0.06733256 0.2725986
0003b0 88 94 12 bd 22 04 41 bc 12 43 5b bb 4b 4a e5 3d
       -0.03578618 -0.0117807705 -0.0033456725 0.11195811
0003c0 66 14 02 3e f7 e4 2f 3e 73 33 b5 3d 4a 76 cb 3d
       0.12703094 0.17177187 0.08847704 0.09934671
0003d0 97 fd 45 bd 74 c4 a1 bd c0 3a ac 3b 95 d1 93 bd
       -0.048337545 -0.078987986 0.005256027 -0.07217709
0003e0 ec 7f 19 3d a1 16 bf bd 78 67 54 3e c8 24 1c be
       0.03747551 -0.09330488 0.20742595 -0.15248406
0003f0 ea 4e d8 bd e3 90 3a be f5 f0 20 3d cb 0b 9b 3e
       -0.10561927 -0.18219332 0.039292295 0.30282435

conv3.conv.6.weight f4 [64, 64, 1, 1]
000000 1f e0 5d be 1e 24 05 3d 54 b8 81 bd eb 0c 7c be
       -0.21667527 0.032505147 -0.06333986 -0.24614303
000010 c0 93 4b be 12 d2 e5 bd f5 d1 9b bd ef 4b cd 3c
       -0.19880581 -0.11221708 -0.076084055 0.025060622
000020 6b 23 9a bd 53 03 d1 3d 51 73 cb 3c d2 ca 8c bd
       -0.07526287 0.10205712 0.02483526 -0.068746224
000030 5c 24 6a be e1 3d 98 bd bf c6 74 3a 82 59 4a 3c
       -0.22865433 -0.074336775 0.0009337477 0.012350442
000040 0d 84 ca bd d9 34 6b 3d 87 13 8d 3d 94 49 27 be
       -0.09888468 0.057423446 0.0688849 -0.16336662
000050 ed 26 30 3e 73 7c aa bc c6 7d f8 bb b0 7d 11 be
       0.17202349 -0.020811295 -0.0075833527 -0.14208102
000060 f7 2c 04 be b0 73 1b be 6b 9b 91 3d 38 b3 57 be
       -0.12907778 -0.1518085 0.07109722 -0.2106446
000070 05 45 42 be 4f db b6 bd 8e e8 87 bd 14 17 a2 bc
       -0.18971641 -0.089285485 -0.06636153 -0.019786395
000080 54 4f 8e bd ab 56 7d be f2 a0 8c bd d8 2c 46 be
       -0.069487244 -0.24740092 -0.068666354 -0.19353044
000090 12 82 84 bc 47 8c 50 3d 9b 1f 65 3d dd 20 c9 3c
       -0.016175304 0.05091503 0.055938344 0.024551803
0000a0 1f 2a 79 bc 3a 3f 19 3e a0 33 1c be f2 ec 38 bd
       -0.015207796 0.14965525 -0.15254068 -0.045147844
0000b0 3f c9 06 be 64 c7 18 3e df c3 aa 3d fb e5 cc 3d
       -0.13162707 0.14919811 0.08338141 0.10004803
0000c0 af 72 a4 3d e5 1e 86 bd 99 36 15 3c a7 af 9f bd
       0.08029687 -0.065488614 0.009107255 -0.07797175
0000d0 41 98 c4 bc 1c 77 91 bd b4 7a 84 be 12 7c 25 be
       -0.023998382 -0.071027964 -0.25874865 -0.1616061
0000e0 80 65 b2 bd 9f d0 15 3e 9a 8a 70 bd 88 69 f9 3c
       -0.08710766 0.14630364 -0.05872593 0.030445829
0000f0 53 c9 97 be 7c 80 c4 3c 00 33 53 3d 50 f3 43 3e
       -0.29645786 0.023987047 0.05156231 0.19135785
000100 d4 ca 4d be 91 18 2d 3e 4e aa d4 bd fb ab 71 bc
       -0.20096904 0.16903903 -0.103840455 -0.014750476
000110 82 08 8c ba 4d 41 d4 3d fb c5 98 bd 41 a6 19 3e
       -0.0010683688 0.10364018 -0.07459637 0.15004827
000120 a5 5f bc 3d 17 78 9e 3e 4b d4 1f bd c0 f2 c3 bc
       0.0919793 0.30950996 -0.039020818 -0.023919463
000130 e1 f8 55 be 89 0b d4 bd 70 ef 10 be 27 ce e0 3c
       -0.20895721 -0.10353763 -0.14153838 0.027442051
000140 23 48 f8 3d 14 1e d6 3d 3b 89 a0 be 8f 29 e9 3d
       0.12123134 0.10454956 -0.313547 0.1138488
000150 85 b6 04 be b2 fa 98 3e d2 c7 3e 3e 1f 9b 92 3d
       -0.1296025 0.29878765 0.18630913 0.07158493
000160 79 1f 3f bd cb ac 12 bd 62 2d 8c 3d ec f8 8e bd
       -0.046660874 -0.03580932 0.068445936 -0.06981072
000170 1f d0 2c 3d 3a e5 63 3e 1a 7b 1f be 98 42 94 3e
       0.042190667 0.22255412 -0.15574303 0.28957057
000180 6e 2d 23 be 85 40 66 be 66 96 a9 bb a7 d9 7a 3d
       -0.15935299 -0.2248555 -0.0051753996 0.061242726
000190 8f e6 23 be 9a d6 c7 3d 19 2a 0c 3e fb 83 be bc
       -0.1600592 0.09757729 0.13687934 -0.023256293
0001a0 73 4e 48 3c f8 1a 45 be c4 8a 21 be bd b5 da 3d
       0.012225735 -0.19248569 -0.15775591 0.10679195
0001b0 84 b1 2e bd cf 24 24 bc 68 37 51 be 59 70 29 3e
       -0.04264976 -0.0100185415 -0.20431292 0.16546763
0001c0 0b d1 38 be 7f 98 c8 bd d4 0e ec bd b0 36 81 be
       -0.18048494 -0.09794711 -0.11526266 -0.25237036
0001d0 b3 67 20 3e 26 bc 30 3e f3 4c 77 3d da f6 be 3e
       0.15664558 0.17259273 0.06037612 0.37297708
0001e0 b9 8d 06 3e 2b ca ba be 13 5a 9c 3d 7c e0 28 3e
       0.1314 -0.36482367 0.07634368 0.16491884
0001f0 13 b8 13 3e f0 38 5d bd 62 7e 81 bd 94 09 9f 3c
       0.14425687 -0.054009378 -0.06322934 0.019413747
000200 58 36 df 3d 4c b9 db 3d d6 82 0b be b7 28 89 3c
       0.10899037 0.10728702 -0.13624129 0.016743047
000210 cc 17 8b bd c0 41 96 3b 45 a6 44 be 74 e0 1e 3e
       -0.06791648 0.0045854747 -0.19204052 0.1551531
000220 f4 cb b3 3c 1c da 21 3e 06 08 33 3e 87 e4 1b 3e
       0.021947838 0.15805858 0.1748353 0.15223895
000230 13 4a c0 bd 74 19 ff bd 1b 97 ec 3c 80 6e bb bd
       -0.093891285 -0.12456027 0.028880646 -0.091519356
000240 33 bc 04 be b3 36 d6 3d 1a 55 0b 3e 24 24 d9 3c
       -0.12962417 0.10459652 0.13606682 0.026506491
000250 39 ca 17 3d df 3b 0c be 49 85 8f 3d a2 3a 22 be
       0.03705809 -0.13694714 0.07007844 -0.15842679
000260 43 f1 f6 3c 5d ca ba bb 87 68 0c 3e e8 0b 04 bd
       0.03014434 -0.005700393 0.13711749 -0.032237917
000270 c0 bb af bc c8 0f 78 3e 69 a8 76 3d 44 e1 0f 3e
       -0.02145183 0.2422477 0.060219202 0.14050776
000280 df a1 13 3d 9b 5c c7 3d b6 31 63 be 9b b6 02 be
       0.036043044 0.0973446 -0.22186932 -0.12764971
000290 66 0e 13 3e b3 a1 ac bd 9a 44 03 3e 64 6f 26 3d
       0.14360961 -0.08429279 0.12819138 0.040633574
0002a0 1e 9a 98 bd 1c db 62 3e b6 65 65 3d 6d 91 0e be
       -0.074512705 0.22153896 0.056005202 -0.13922663
0002b0 6d 80 e5 bd 4c cb 6c 3e 88 0c a5 bc 04 31 71 bd
       -0.11206136 0.23124427 -0.020147577 -0.058884636
0002c0 c4 34 cf 3d fa d4 94 3e 4e 26 31 be e8 11 3c 3e
       0.10117486 0.29068738 -0.17299768 0.18366206
0002d0 ea e1 46 bd 41 93 ae bd 57 2c ad bd 79 6a 10 3d
       -0.048555292 -0.0852418 -0.08455723 0.03525779
0002e0 ca 02 06 be 50 72 64 3e 90 18 02 be 5e c3 57 3c
       -0.13087001 0.22309232 -0.12704682 0.013169138
0002f0 9f f0 ab 3d a4 8b 91 3c 22 63 8e 3e a7 12 74 3e
       0.08395504 0.017766781 0.27810007 0.2383524
000300 0b 34 84 bd a0 cb 4b be d3 6f 20 be 1c 6e e8 bd
       -0.06455239 -0.19901896 -0.15667658 -0.11349127
000310 75 a2 73 3e f3 41 29 be 41 5f 86 bc bb 68 04 bd
       0.23792441 -0.16529064 -0.016402842 -0.03232644
000320 41 65 2b be 65 19 bc bc 9e 6a 6d bd 4d 74 d2 bd
       -0.16737844 -0.022961328 -0.057963006 -0.10276089
000330 34 11 54 be 8c 82 31 be 20 6e 8d be 37 45 74 3d
       -0.20709687 -0.17334956 -0.2762308 0.05963632
000340 5e d9 23 be c9 f3 db 3d 49 48 7d bd be f0 a8 3c
       -0.16000888 0.10739858 -0.061836515 0.020622607
000350 35 dd 60 bd 1f 3b 5d 3d 89 a6 db bd 2f 01 5d 3d
       -0.05489846 0.05401146 -0.107251234 0.053956207
000360 89 08 88 bd a2 6b 09 3e bf 90 47 3d 6c b2 3b 3e
       -0.06642253 0.13419965 0.048722025 0.18329781
000370 e3 bf 12 be 27 b3 6e be cc 4b 2d bd 6b 99 8d bd
       -0.14331011 -0.23310529 -0.042308614 -0.06914028
000380 4a 07 cb 3d a8 1f 9b bd 38 36 f1 3c 50 bc ff bc
       0.099135 -0.07574397 0.029444799 -0.031217724
000390 f0 a9 2f 3e 15 07 5d bc 00 90 50 3d a2 82 b3 bd
       0.1715467 -0.013490458 0.05091858 -0.087651506
0003a0 28 41 1a 3d bf ec 16 be 1f b6 0f be 81 5e c3 3d
       0.037659794 -0.14738749 -0.14034317 0.095395096
0003b0 1c 95 73 bd be be 35 be ba f1 05 bd 2b b5 93 3d
       -0.059468374 -0.17748544 -0.03270123 0.072122894
0003c0 b0 c4 3a bd b8 88 7f bd 2d 3e 8d bd a8 1f be bd
       -0.045597732 -0.062386245 -0.06896625 -0.09283382
0003d0 dd 0a 8e b9 4c fe a5 3d 5b 8d 19 bd d6 3b 3a be
       -0.00027092444 0.08105144 -0.037488323 -0.18186888
0003e0 40 b2 ec 3d 9f 7f db bd 61 ba ae 3d a3 fe 71 bc
       0.11557436 -0.10717701 0.08531643 -0.014770183
0003f0 fb 4a 88 be 5c ef 93 bc b5 af c2 be 00 65 be bd
       -0.26619706 -0.018058471 -0.3802468 -0.09296608

conv4.0.weight f4 [64, 64, 1]
000000 42 11 1b be 3b 99 38 bd 84 f4 0f 3d dc 07 0a bd
       -0.15143302 -0.045068007 0.035145298 -0.0336989
000010 f3 3d 29 3d 62 2d 9c 3d 8e ac 97 3d 19 aa c0 3d
       0.041318845 0.076258436 0.07405959 0.094074436
000020 81 59 a7 3c c0 86 a6 3d c5 2c 37 be 6b ae 18 3d
       0.020428421 0.0813117 -0.17888172 0.037275713
000030 2d d8 01 3e 46 0b 10 bd d4 f6 4f 3d 02 a2 0d 3d
       0.12680121 -0.035167 0.050772503 0.03457833
000040 7c 70 ac bc 1c b0 df 3d 63 a9 03 3e 25 08 40 3e
       -0.02104973 0.10922262 0.12857585 0.18753107
000050 16 71 16 be ce bb 84 3d 7e 28 12 3e 71 61 e7 3d
       -0.14691576 0.064811334 0.14273259 0.11297882
000060 f4 6e 4b bd 93 c4 82 bd 55 58 07 3e 05 e1 9c 3d
       -0.04966636 -0.0638515 0.1321729 0.076601066
000070 7d fe d7 3d 3b 22 b8 3d eb 01 81 bd e0 77 12 3b
       0.10546587 0.08990904 -0.06299194 0.0022349283
000080 79 0b 25 be a7 5f 39 3d af 9c 6d 3e 4f 7f 5f 3d
       -0.16117658 0.045257237 0.23204301 0.05456477
000090 2a 68 27 3e e4 9c d1 3d e5 b6 0f 3e 6a 89 85 bc
       0.16348329 0.10235003 0.14034612 -0.016300876
0000a0 74 24 c1 bd 93 00 fc 3d 12 23 99 3d 00 03 53 3e
       -0.09430781 0.12304797 0.07477392 0.20606613
0000b0 e3 e0 9a 3c dc 99 cd 3d 71 a3 2b 3d 90 2e 70 bd
       0.018906062 0.10039112 0.041903917 -0.058638155
0000c0 12 c0 62 3a c1 14 6a 3e f5 00 15 3e af 6f 71 3d
       0.00086498365 0.2285948 0.14551146 0.0589444
0000d0 59 5c d2 3d 02 cc 3a be a6 e6 d0 bd 38 1f 34 3e
       0.1027152 -0.18241885 -0.10200243 0.17590034
0000e0 f0 bf ad 3d 10 fd 1f 3e fe 21 43 bd 72 64 3d 3e
       0.08483875 0.1562388 -0.04763984 0.18495348
0000f0 79 d6 3a 3e f8 5a 5d 3e 4c df db 3d ec a4 74 bc
       0.18245877 0.21616733 0.1073595 -0.014931899
000100 51 dc 4d bd 29 51 0a 3c 05 74 d1 bd 6c 7d 33 3e
       -0.05025894 0.008442202 -0.10227207 0.17528313
000110 1c 90 55 3d 1a 97 c8 bd af ae 15 be e6 dd 25 bc
       0.052139387 -0.09794445 -0.14617418 -0.0101237055
000120 c1 97 89 bc ad fb 52 bc 94 cb b9 bd e7 de 73 3e
       -0.016795995 -0.012877387 -0.090720326 0.23815499
000130 5e ea af 3b 4c 16 ba bd cb 63 d7 bd 95 41 9c bd
       0.005368515 -0.09086284 -0.10517081 -0.07629696
000140 99 68 04 be c0 c3 ce bc 82 da 6f be 26 e4 48 3d
       -0.12930526 -0.025239825 -0.23423198 0.049045704
000150 95 3b 6f 3d ca 96 05 be 93 69 2a be f7 82 2e 3d
       0.05840643 -0.13045803 -0.16641836 0.042605367
000160 ce 98 53 3d 38 29 54 3e 94 1e 02 be d8 ca 10 3d
       0.051659398 0.20718849 -0.12706977 0.035349697
000170 74 c5 39 be ff 3a d4 bd 22 a4 83 bc 91 6e 8b be
       -0.18141729 -0.10362815 -0.016069476 -0.27232793
000180 29 b3 d5 bd 10 8b d7 bd f9 6b 3b be aa 45 0c 3e
       -0.10434563 -0.10524571 -0.18302907 0.1369845
000190 fc 5f 00 bd ac 6a 13 be 7a 20 1d 3e d5 e6 1f 3d
       -0.031341538 -0.14396161 0.1534442 0.039038498
0001a0 78 77 d9 3d fd 3c a7 bb ab 0a 08 3d 1a 55 a1 be
       0.1061849 -0.005103706 0.0332133 -0.3151024
0001b0 6e 65 df 3d 89 17 35 be 1f 04 a7 bd d9 0b 1b 3d
       0.10908018 -0.17684759 -0.08155083 0.037853096
0001c0 43 9f cb 3d ef 5c 60 ba be 27 c4 be 82 90 4c be
       0.09942486 -0.000855877 -0.3831157 -0.19977
0001d0 2d 18 98 bd 75 e0 69 3e 55 72 75 be 5e 1d 56 be
       -0.07426486 0.2283953 -0.23969395 -0.2090964
0001e0 1a ed 68 be 88 e1 d7 3a ef 8b 08 be 3d bf 73 bd
       -0.22746697 0.0016470412 -0.1333463 -0.05950855
0001f0 d8 06 44 3d 06 b2 fd bd 40 7e 0d 3e ff a1 a5 bd
       0.04785809 -0.12387471 0.13817692 -0.08087539
000200 09 61 3a be 80 d9 40 3e a2 33 03 be c5 83 82 3d
       -0.18201078 0.1883297 -0.12812665 0.06372789
000210 b0 79 92 3d 22 4b 4c 3d 55 5b 1a be bc 83 d6 bd
       0.07152116 0.04987634 -0.15073903 -0.10474345
000220 9d 94 9e bd f9 93 2c 3c 44 c5 c7 bd 7c f3 fd 3d
       -0.077431895 0.010533326 -0.09754422 0.123999566
000230 c4 83 0c 3e 29 5f 17 3e cc a4 62 be 3a 0e a9 bb
       0.1372214 0.14782394 -0.22133178 -0.0051591666
000240 02 5b 90 3c 21 b5 5c bd 14 64 70 be ee b2 56 bd
       0.01762152 -0.053883675 -0.23475677 -0.052416734
000250 87 cf 53 be 6e b5 f3 bd e8 95 d0 bd 03 b6 fb bd
       -0.20684634 -0.11899839 -0.10184842 -0.12290575
000260 ae d4 36 bc 6a 64 b7 3d e5 7a 36 be 9d 2f 00 be
       -0.011159105 0.08954699 -0.17820318 -0.12518163
000270 f6 c0 f1 bd 7d 03 6e bb f4 43 46 be c6 47 82 3d
       -0.118043825 -0.0036317997 -0.1936186 0.06361346
000280 5d ca 47 3d 54 30 cc 3d c1 c2 af 3c 51 f2 d6 3d
       0.048776973 0.09970155 0.02145517 0.10495437
000290 6d 0e 71 be 8d a3 2f 3e 17 31 04 3e dc eb 90 3d
       -0.23540659 0.17152233 0.12909351 0.070762366
0002a0 24 e6 30 be e3 63 da 3c fa 6a c9 3d 8c 11 85 be
       -0.17275292 0.026658958 0.09834857 -0.2598995
0002b0 d1 2b c1 bd 08 01 f5 bd 57 8a 3d bd bc c2 2f be
       -0.094321854 -0.11963087 -0.04627451 -0.17164129
0002c0 ef 84 dd 3a 43 f7 17 bd c0 f5 13 be c7 f1 cb bd
       0.0016900579 -0.03710104 -0.14449215 -0.09958225
0002d0 42 6c 58 3e f8 b5 62 3e f0 ab 14 be 4e 69 9f 3c
       0.21135047 0.22139728 -0.14518714 0.019459393
0002e0 ad ac d7 bd a5 a1 23 3e 7a d2 3b be 36 44 41 bd
       -0.10530982 0.15979631 -0.18342009 -0.04718419
0002f0 b0 de 52 be 04 2a 1b 3e a0 de 0b 3e 85 f5 80 be
       -0.20592761 0.15152746 0.13659143 -0.25187317
000300 d3 a5 97 3d c1 01 a4 3e 01 55 e5 3d 0b cf e9 bc
       0.07404675 0.32032588 0.11197854 -0.028541109
000310 3f 91 82 bd 3e 43 c0 bd ab af 03 be 98 10 4f 3c
       -0.0637536 -0.093878254 -0.12859981 0.012638234
000320 18 7f 6f 3e a0 9e 50 be ef 3a 5c 3d ac 90 cf bd
       0.23388326 -0.2037301 0.05376714 -0.10135016
000330 96 49 fe 3d 69 36 84 be ec c4 cd bd 67 6e 8b bd
       0.12416379 -0.25822762 -0.100473255 -0.06808167
000340 1a 25 f9 3d fe 87 af 3d 95 c1 43 bc e2 99 55 bd
       0.1216528 0.0857086 -0.011948009 -0.052148707
000350 cf fa 41 3e 8c 49 22 3e 0b 0e ac bd 31 77 6c 3e
       0.18943332 0.15848368 -0.08401116 0.23092343
000360 35 18 74 be d8 0a 70 3e 42 70 34 bc 4e 25 03 3e
       -0.23837359 0.23441637 -0.0110130925 0.128072
000370 40 ef 2b 3e 05 51 71 bd 75 23 77 3d de 72 58 be
       0.16790485 -0.058915157 0.06033655 -0.21137568
000380 ae 78 49 3e 0f 22 43 be cb 1c b6 bd 66 9c 7f bd
       0.19674942 -0.19055961 -0.088922106 -0.062405013
000390 18 d9 60 ba f1 a0 33 be 9d 11 a1 be 46 9b 1e be
       -0.00085772714 -0.17541863 -0.3145875 -0.1548892
0003a0 46 1a cf 3d b8 13 12 be c7 e0 ca bd fd 96 b7 3d
       0.10112433 -0.14265335 -0.09906154 0.089643456
0003b0 b5 35 90 3d bc a9 7c bd 1d 09 cd 3d e5 62 f5 3b
       0.07041494 -0.06168531 0.10011504 0.007488596
0003c0 b9 fa 98 bd 6c 90 86 be 04 50 e1 3c 64 5b 3a bc
       -0.074696966 -0.2628206 0.027503975 -0.011374328
0003d0 fe 08 2d be 3b 25 87 bd a7 d3 c0 3d 7a e0 7a 3d
       -0.16897961 -0.06598898 0.094153695 0.061249234
0003e0 65 32 da 3c d7 e1 5a be 6c a1 2d 3e 99 f8 80 be
       0.026635358 -0.21375214 0.16956109 -0.25189665
0003f0 2f ba 29 bd e8 b0 40 be e4 03 46 be f7 85 30 3e
       -0.041437324 -0.18817484 -0.19337422 0.17238604
