models_slbp+gf/case4_final.pth (torch_old, 110331 bytes, 9 tensors)

conv1.conv.3.weight f4 [32, 32, 1, 1]
000000 a2 a2 9e 3d 85 70 80 bd f5 b4 bb 3c 32 e9 15 3e
       0.077458635 -0.062714614 0.022913435 0.14639738
000010 fb ef bf bd 06 5a 91 be 9d dd 03 be be 2b be bc
       -0.093719445 -0.28388995 -0.12877508 -0.023214217
000020 a0 5d 59 be 35 2f e1 bd 65 1b 36 be be e4 49 be
       -0.21227121 -0.10995332 -0.17783888 -0.19716164
000030 47 7f eb 3c d3 0a ac be 50 dc e9 3d 37 59 0d 3e
       0.028747214 -0.33602008 0.114189744 0.13803564
000040 87 02 d9 bd 01 6f 79 bd b5 6f e6 bd fe 7c b0 bc
       -0.10596185 -0.060896877 -0.11251775 -0.021543976
000050 ab 8c bf 3d 45 af 77 be 90 28 c8 bc 6b a0 86 be
       0.09353002 -0.24187954 -0.024433404 -0.26294264
000060 96 ee 6e 3d 0a fe da bd eb 94 6c be ce 67 21 be
       0.058333002 -0.10692985 -0.23103683 -0.15762255
000070 a6 b3 c0 bd 08 06 2e 3d 29 74 9a bd 86 ef 17 bb
       -0.09409265 0.04248622 -0.07541687 -0.0023183539
000080 0c aa 12 be 1d 07 96 bd 35 83 bc bd 87 eb 13 be
       -0.1432268 -0.073255755 -0.09204713 -0.14445315
000090 0c 1d bf bd 8b 32 d7 3d 13 3d 23 be f2 f5 ba bd
       -0.09331712 0.10507687 -0.15941267 -0.091289416
0000a0 ad c5 68 be 6c 7d 46 be 12 ed ea 3d 0d 62 65 bd
       -0.22731657 -0.19383782 0.11470999 -0.05600171
0000b0 73 2b 11 3e 35 f0 30 be e9 af 81 bd 1e 8e 30 be
       0.14176731 -0.17279132 -0.0633238 -0.17241713
0000c0 dc e4 48 3d b8 2f 0a be 9e c9 03 3e b5 ae 91 be
       0.049046382 -0.13494766 0.1286988 -0.28453603
0000d0 c2 21 e7 3a 26 77 89 3d 69 f9 4d 3d e2 2a 89 3d
       0.0017633962 0.06712179 0.050286684 0.06697632
0000e0 6e 03 ba bd 35 e2 15 3d 0f 62 25 be f4 af 31 be
       -0.090826854 0.03659268 -0.16150688 -0.17352277
0000f0 ce 3b 25 3d 8f 5d 4c be e8 57 9c be c5 55 82 3c
       0.040340237 -0.19957565 -0.30535817 0.015910039
000100 a3 61 fb 3d 71 b5 21 3d e9 7a 4a 3c bf f9 a0 bd
       0.12274482 0.039479677 0.012358406 -0.07860135
000110 34 ab 3e be fb 02 88 be ff 01 28 be 63 34 2b 3e
       -0.18619996 -0.26564774 -0.16407011 0.16719203
000120 5c ee a1 3d c9 85 09 3e 03 d0 59 3d c0 09 fe 3d
       0.079067916 0.13429941 0.05317689 0.124042034
000130 11 9e 08 3e 04 e2 27 bd fc fa 0b be 84 e8 96 bb
       0.13341548 -0.04098703 -0.13669962 -0.0046053547
000140 10 8c e8 3b 97 22 13 3e d5 e5 9c bd 8c bf 68 3e
       0.007096775 0.14368664 -0.076610245 0.2272932
000150 1a a9 2d bd b4 8e c7 3b 3c 6a c4 3d ea 31 74 3d
       -0.042397596 0.0060900096 0.09590575 0.059617914
000160 e8 7e ed 3d bd e9 d0 bd 8e 79 54 3e 2a a2 8d 3e
       0.11596471 -0.10200832 0.20749494 0.27662784
000170 e1 35 0e 3e 2e e0 9a 3d 15 5d 28 3e 0f 6e a7 bd
       0.1388774 0.0756229 0.16441758 -0.08175289
000180 17 1c 07 3e 05 83 4b be b7 02 fd bd 3c fa 33 be
       0.13194309 -0.19874199 -0.123540334 -0.17575926
000190 d3 eb 90 3c 88 ee 16 3e 04 74 09 bd 06 50 06 3e
       0.017690575 0.1473943 -0.033557907 0.13116464
0001a0 f5 7b 21 bd 0c c5 d4 bc 79 82 1e 3e f3 45 da bc
       -0.039424855 -0.025972866 0.15479459 -0.026644683
0001b0 26 1e d9 3d a3 9c ef 3d 27 5d 4c 3e 09 3b 31 be
       0.106014535 0.11699798 0.1995741 -0.17307676
0001c0 71 2b 04 3e 8d f9 80 bd 51 49 3f be 0b 6a 4f bd
       0.12907197 -0.06297598 -0.18680312 -0.05063824
0001d0 7f 4c 26 be 3e 53 6e 3d 7d 77 c3 3c 72 5e 96 3d
       -0.16240118 0.058184855 0.023860687 0.07342233
0001e0 77 7e bb bc c0 07 9f be 18 de 4a be 12 c3 ce 3d
       -0.022887452 -0.310606 -0.19811285 0.100958005
0001f0 ba b4 21 be 8d c7 17 3e 13 8c 85 bd e3 bf 23 be
       -0.15791598 0.14822216 -0.06520858 -0.15991168
000200 90 c5 1b 3e b1 e8 52 3d 0c 94 4c be 5c 85 bb bd
       0.15212083 0.051491443 -0.1997835 -0.09156296
000210 ef 1c 13 3e c9 34 fe 3d af 4f 96 bd 72 c1 a9 3d
       0.14366506 0.12412412 -0.07339417 0.0828885
000220 51 fa 2b bc c3 90 6f 3d 76 0c cf 3d 97 fc fe 3d
       -0.010496692 0.058487665 0.101097986 0.124505214
000230 4a cf 42 be b7 61 fc 3d 4a a5 d1 3d b2 4b 20 be
       -0.19024387 0.12323325 0.102366045 -0.15653875
000240 c0 e8 8d 3c e4 62 31 3e 05 63 ca bb 3d 21 3b bc
       0.017322898 0.1732288 -0.006176355 -0.011421499
000250 44 79 75 3d aa 8d 49 3e 4e 1e 4d be d6 a3 11 3e
       0.0599301 0.19682947 -0.20031092 0.14222655
000260 cc 8c 96 bc 88 41 82 be 36 63 9b bd c3 b0 f5 3d
       -0.018377684 -0.2544062 -0.07587282 0.11996605
000270 b9 6b 3a 3e ee da c0 bd 96 2e 44 3e 10 f2 d0 3d
       0.18205155 -0.094167575 0.19158396 0.1020242
000280 eb 5d 67 bc 70 28 09 3d 27 30 51 3e c4 24 4a bc
       -0.014121513 0.03348583 0.20428525 -0.012337867
000290 07 48 a8 bd 91 fb b0 bc 39 c9 1c bd d7 09 82 bd
       -0.08216863 -0.021604331 -0.03827784 -0.06349533
0002a0 07 34 05 be 02 27 4e be dd 37 e1 3c 3d fd b1 bc
       -0.13008128 -0.20132068 0.027492458 -0.021727199
0002b0 2f 79 22 3e 65 70 cf 3d 60 99 0e 3e d9 c9 95 bd
       0.1586654 0.101288594 0.13925695 -0.0731389
0002c0 42 6c 36 be a2 6c 0a be 25 10 81 bd 11 c7 ca bc
       -0.17814735 -0.13518003 -0.063019074 -0.024753125
0002d0 84 09 2e bd 63 f8 c7 3d e3 29 dd bc b5 16 ab 3d
       -0.042489544 0.09764173 -0.026997512 0.083539404
0002e0 6f 7c 65 3c 02 98 a3 bd a6 76 36 3e 74 77 82 be
       0.014006718 -0.079879776 0.17818698 -0.2548176
0002f0 15 d5 05 3d df 44 7f 3e 5a dd b3 3d 4e 81 df 3c
       0.032673914 0.24928616 0.08782454 0.027283337
000300 3d 06 60 3e f4 49 2d be 3d f0 ed 3d cb 25 b9 3d
       0.2187738 -0.16922742 0.116180874 0.090404116
000310 ae 23 68 bc 92 c6 b2 3d ef 31 94 3d 42 45 52 bd
       -0.014168663 0.087292805 0.072360866 -0.05133558
000320 c5 6a dc bd 9f 11 a9 bc b5 d1 89 be 3b 77 06 3d
       -0.10762552 -0.020638285 -0.26917806 0.03282855
000330 22 b9 3a 3c 0d 92 2a be 9e 09 2e be 1d 9c 52 3e
       0.011396678 -0.16657276 -0.16995856 0.20567365
000340 26 c4 27 bd d7 ba a3 3c 0c 2c 91 3d c8 5f 79 3c
       -0.040958546 0.019986553 0.070884794 0.01522059
000350 0f ec da 3d 24 1d 9d bc eb 33 34 3e 16 37 16 3d
       0.10689556 -0.019178934 0.1759793 0.036673628
000360 0b 6e 01 be c0 00 8c 3d c6 68 fc bd 3d d0 6c 3e
       -0.12639634 0.068360806 -0.123246714 0.23126312
000370 b9 a5 ce bd 77 f9 95 bd 3f ff 8d 3e 5c 5b 8d 3e
       -0.10090203 -0.07322972 0.277338 0.27608764
000380 17 d6 2b bd 4f 5b 21 3c 2f 06 f1 bd 32 b2 4a bd
       -0.04195222 0.00984843 -0.117687576 -0.049486347
000390 02 fc 3d be 1c ec b3 3d 7b 56 1f 3e 6b 73 6c bd
       -0.18553165 0.08785269 0.15560333 -0.05772726
0003a0 a6 a1 65 be aa b8 0f 3e 9d 7b 83 3e aa 9a 8e bc
       -0.22424945 0.14035287 0.25680247 -0.017407734
0003b0 d3 d3 14 3e 54 c5 5e be fd be 44 3e 46 b3 fe bc
       0.1453393 -0.21754962 0.19213481 -0.031091344
0003c0 71 e6 0f 3b 54 5e fd 3d a0 29 08 3e 00 3b 6c be
       0.0021957422 0.12371507 0.13297129 -0.23069382
0003d0 e1 0b cb bd 4f 93 0c be d2 f4 17 3e 51 f5 94 be
       -0.09914375 -0.13728069 0.14839485 -0.29093412
0003e0 81 9a 04 3e ba 5a 05 bd 6f 89 47 be 58 3c 36 3d
       0.12949564 -0.032557227 -0.1948602 0.044491142
0003f0 97 28 9c 3d f1 d3 39 3e 4a 97 8a 3b 73 e2 01 3e
       0.076249294 0.18147255 0.004229461 0.1268404

conv1.conv.6.weight f4 [32, 32, 1, 1]
000000 a5 c2 1c 3e 9d 3e d1 bd fa f2 5f be d5 bb c3 3d
       0.15308626 -0.10217021 -0.21870032 0.095573105
000010 66 a2 de 3b 83 06 58 3d b2 26 70 be f4 21 a1 3d
       0.0067942617 0.052740585 -0.23452261 0.07867804
000020 d1 6c 69 3e cd d1 97 3d dd 29 7b 3e fb 81 6b be
       0.22795416 0.07413063 0.24527688 -0.22998802
000030 59 22 de 3d b9 bb ac bc 96 fd d8 3d e5 7f 2a be
       0.10846395 -0.021085607 0.10595243 -0.1665035
000040 f7 a3 9b bd 42 a3 1d 3e e9 85 81 3c 5a b6 db 3c
       -0.07599633 0.15394309 0.015810924 0.02682035
000050 e0 82 f1 3d 18 b8 4d be 8a c4 8d 3c e8 5e e2 bd
       0.117925406 -0.20089757 0.017305631 -0.11053258
000060 e7 74 8f 3e d2 ef 20 3d 33 d8 83 bc ee 99 45 bc
       0.28018877 0.03929121 -0.016094303 -0.0120606255
000070 34 69 db bd c7 a3 d3 3d 5f 80 7b bd e4 4b c7 39
       -0.10713425 0.103339724 -0.06140172 0.0003801278
000080 f4 0e 48 3e 59 3e a5 3d dc eb a1 bd 4b d8 aa bd
       0.19536954 0.080685325 -0.07906315 -0.08342036
000090 f7 9c 6a be ed a9 44 3e d8 49 87 be 60 ba 80 3c
       -0.2291144 0.19205447 -0.26423526 0.01571387
0000a0 67 d1 c9 bc 22 4d 71 3d 42 48 10 3e e9 39 48 be
       -0.024635984 0.05891145 0.14090064 -0.19553341
0000b0 32 13 34 3d 40 c2 9a 3d f9 48 a6 be 2c 5e 89 be
       0.04396362 0.075565815 -0.3247755 -0.2682966
0000c0 52 94 4b be b9 0d 46 bd 1a 0e 73 3d 69 bc f8 bd
       -0.19880798 -0.04835293 0.05933962 -0.121453114
0000d0 48 be 0d be ea ce 42 bd d3 77 59 3e 92 60 ab bd
       -0.13842118 -0.04756061 0.21237116 -0.08368029
0000e0 23 86 3f 3e 01 3a 36 3c 7c 86 71 be 78 fa c0 bd
       0.18703513 0.011122228 -0.23586458 -0.09422773
0000f0 c7 ec 24 3e 07 7d 08 be d9 b9 1a be f8 a4 15 be
       0.16105948 -0.13328944 -0.15109958 -0.14613712
000100 40 d0 01 be 43 13 ba 3e 92 a0 0f be df 4f d9 3c
       -0.12677097 0.3634282 -0.14026096 0.026527343
000110 f9 57 fc bd 9a 0f 7c 3d 37 7f 97 bd 4a da ec 3d
       -0.12321467 0.061538316 -0.07397311 0.11565073
000120 34 11 1d bc e9 2f 7d 3e df 5f a8 3e 5f bb b7 3c
       -0.009586621 0.24725308 0.32885644 0.022428213
000130 39 d4 e0 bd f7 58 99 3c ea 58 8d be fd 96 a9 bc
       -0.10977978 0.01871918 -0.276069 -0.02070188
000140 01 18 17 bd 83 3f 36 3d aa 93 06 bd 5c 07 8d 3c
       -0.036888126 0.044494163 -0.032855667 0.017215423
000150 a3 e3 97 bc 47 e0 89 3c 4b ec 4f 3e 94 d9 69 bd
       -0.018541163 0.016830577 0.20304982 -0.057092264
000160 e4 7b 8b 3d af 5d 8b bd 38 df 9e bd f0 94 ab bd
       0.0681074 -0.06804978 -0.07757419 -0.08378017
000170 d1 10 81 3d 6e 22 da 3c a4 a4 4e bd 4e cb 16 be
       0.063020356 0.026627745 -0.050449982 -0.14725992
000180 a4 31 94 3d 55 73 ac bd b5 5f d3 3d 36 fa 13 3e
       0.07236031 -0.08420435 0.10320989 0.14450917
000190 6c a9 d1 3d 5d 8b 01 be 51 e9 46 3e b7 2e 5d bd
       0.10237393 -0.12650819 0.1942494 -0.05399963
0001a0 21 67 53 3e e6 11 e4 bd 60 40 ac 3d bc 4d 1b be
       0.2064481 -0.11136226 0.08410716 -0.15166372
0001b0 b4 4e 8a 3d b3 bb 08 be bd 2c d3 bd 48 5e 68 bd
       0.06753293 -0.13352852 -0.103112675 -0.05673054
0001c0 58 d9 2e bd 7b d8 9f bd c1 f9 50 3c f8 db 45 be
       -0.042687744 -0.07804962 0.0127548585 -0.19322193
0001d0 a6 91 8f 3d d5 fe 83 be 50 f0 07 3d 4b 95 34 be
       0.07010202 -0.2578036 0.033188164 -0.17635076
0001e0 64 60 47 3c d8 bf 3b 3e b0 61 f2 3d d5 ca 40 be
       0.012168977 0.18334901 0.11835039 -0.18827374
0001f0 4e ec e7 3b b0 67 84 be 9b 91 e9 bd 6a c5 55 bc
       0.0070777303 -0.25860357 -0.11404725 -0.013047555
000200 3e 9b 82 3c 41 33 34 3d c9 08 13 3e 51 63 42 be
       0.015943166 0.043994192 0.1435882 -0.18983199
000210 42 67 02 3d be 76 e0 3d 9a 15 b0 be 4a bc 15 be
       0.031836756 0.10960148 -0.3439148 -0.14622608
000220 51 31 17 be 86 3e 67 bb ba 5f 78 bd 41 63 85 bd
       -0.14764906 -0.003528507 -0.060638167 -0.06513072
000230 c9 fc 96 bd 26 7b f6 3d e7 66 2a 3e a3 05 84 bd
       -0.07372434 0.120352075 0.16640817 -0.064463876
000240 4c 07 d6 3d 62 da dd bd 85 a5 09 3e ee 00 5b 3b
       0.104506105 -0.10832669 0.13442047 0.0033417302
000250 3f ff 3f 3e 24 2b 30 be 34 3a 6f be 2b 10 ad 3d
       0.18749712 -0.17203957 -0.23362046 0.084503494
000260 2e b5 1d 3d 4b 47 e3 bd 60 b4 a1 bd 81 b0 5e bd
       0.038502865 -0.110975824 -0.07895732 -0.054367546
000270 a9 d9 69 bd f6 01 75 3e 53 80 a8 bd cd 62 36 be
       -0.057092343 0.2392653 -0.08227601 -0.17811127
000280 7d 3b 1c 3d 5d 2a 9e bd 3f 60 ca bd 0c e9 45 3e
       0.03814267 -0.07722924 -0.09881639 0.19327182
000290 71 82 33 3e bc 3a 8f 3d 3c 5f 8e 3b 31 57 e3 3d
       0.17530228 0.069936246 0.004344849 0.11100615
0002a0 2c bc 3c 3e db 4f 85 3d 86 71 71 3e 2e 4c 1b 3d
       0.18431157 0.06509372 0.23578462 0.037914447
0002b0 b4 3c 76 3d cf 9a c4 3d 32 df 02 be 12 d5 bd 3d
       0.060116485 0.0959984 -0.12780455 0.092691556
0002c0 a2 ab b3 3d 68 41 66 be a6 0b b5 3d 59 09 14 3e
       0.08772971 -0.22485888 0.088401124 0.14456691
0002d0 da ad 69 bc f8 b2 6b be ae 91 46 3d 18 c7 cd bc
       -0.014262641 -0.2301749 0.048478775 -0.02511935
0002e0 16 de 30 bd b7 07 04 bc 75 43 86 bd 2f e2 12 3e
       -0.043180548 -0.00805848 -0.06555835 0.14344095
0002f0 66 29 1a 3d 02 c9 ae bd 2b 57 df bc ee ab 85 be
       0.037637137 -0.08534433 -0.027263245 -0.26107734
000300 9c c0 c9 3b cb 23 b5 3c 42 92 88 bb a0 f7 9b bd
       0.006156994 0.022111794 -0.004167826 -0.0761559
000310 c8 5a 5a bb ef 26 68 3d 56 f9 40 be 2c cc 7c 3e
       -0.003331827 0.056677755 -0.18845114 0.2468726
000320 77 04 5f 3d 90 1e 09 3e 64 57 61 3e c1 ec 1f 3d
       0.054447617 0.13390565 0.22005993 0.039044145
000330 c7 e0 65 bd 33 05 dc bd c0 b9 d8 bd 13 2e b6 3d
       -0.056122568 -0.10743179 -0.10582304 0.08895507
000340 7f b9 07 bd 13 a5 3b 3e be 53 03 3e 75 c1 8c bd
       -0.033135887 0.1832469 0.12824914 -0.068728365
000350 d5 16 f6 bc 7a 52 83 bc 53 df 5c 3e 00 f3 02 3e
       -0.030040184 -0.016030539 0.21569566 0.1278801
000360 20 1e 28 3e 2e 29 84 bc fa 88 b3 3c 24 7e e7 bd
       0.16417742 -0.016132917 0.021915901 -0.11303356
000370 8b a0 c2 bd 74 9c aa bd ec be 66 3e 01 8b 3b 3e
       -0.095032774 -0.08330622 0.22533768 0.18314745
000380 b0 35 29 be 42 d3 02 3e 09 03 6d be a0 5b c9 bc
       -0.16524386 0.12775901 -0.23145689 -0.024579823
000390 9a 9e 4c be cb 72 29 be 8c 83 0c 3e 99 08 80 3d
       -0.19982377 -0.16547696 0.13722056 0.0625164
0003a0 82 2c 6c 3d 81 3e 18 be 82 4f 26 3e 50 fc 19 bc
       0.057659633 -0.14867593 0.16241267 -0.009398535
0003b0 09 7d 46 be 2d c5 93 3d 5e 97 e3 3d 6a 00 fd 3d
       -0.19383635 0.07215343 0.111128554 0.123535946
0003c0 4b 06 ac bd 53 2a 3d 3e e1 4c 55 3d 98 c9 b0 bd
       -0.08399638 0.18473177 0.05207527 -0.08632201
0003d0 20 2f 60 be 0b b5 3b 3e 2f 4c 5d 3e 89 24 0d 3e
       -0.21892977 0.18330781 0.21611093 0.13783468
0003e0 83 db 47 3e b3 f5 be bc ee d6 fc 3c 69 8a 0c be
       0.19517331 -0.023310518 0.030864205 -0.13724674
0003f0 86 27 39 be a3 d2 3d 3e 61 3d f4 bc f6 e4 fa 3d
       -0.18081483 0.18537383 -0.029814424 0.12250702

conv2.conv.3.weight f4 [32, 32, 1, 1]
000000 8a 76 be 3d 76 ac b8 3d 24 40 2a 3e 8c 88 2b 3d
       0.09299953 0.09017269 0.1662603 0.041878268
000010 9e 59 c3 3d 44 f6 97 3e ef 44 17 3e 5d bc 93 bd
       0.095385775 0.29680073 0.1477239 -0.07213662
000020 30 76 db 3c 26 bc ac bd ac 5f 8e bd 99 e5 5e 3e
       0.026789755 -0.08434324 -0.06951842 0.21767272
000030 92 17 dd bd 38 43 ed 3d 7e d1 ac 3d ee 30 8a bd
       -0.10795511 0.115850866 0.08438395 -0.06747614
000040 b0 67 7b 3d cf 5d b7 bd a7 b5 a1 bd 68 32 84 3e
       0.06137818 -0.089534394 -0.078959756 0.25819707
000050 97 e8 95 bd 8f 9d 5e 3e b2 cb ad bd ff b7 3e 3e
       -0.073197536 0.21739791 -0.084861174 0.18624876
000060 ba 38 2d be 09 6a 58 bd ec 06 07 3e 9c 74 3b be
       -0.1691617 -0.052835498 0.13186234 -0.18306202
000070 bb be 1e be 6d 9c c8 3d 03 13 b9 3e b1 2c 80 3d
       -0.15502445 0.09795461 0.36147317 0.06258524
000080 af b8 a7 be 4c 66 b1 3d d1 d1 f4 bd 0f 18 24 3e
       -0.3275809 0.0866209 -0.11954082 0.16024803
000090 30 46 52 3e bb e0 bd 3c 4c 33 b0 bd 21 63 79 3d
       0.20534587 0.023178449 -0.08603534 0.060885552
0000a0 2d 8b b8 3d d9 b6 74 bd 2f a5 de 3b 8a 72 33 bd
       0.09010921 -0.05974469 0.0067945938 -0.043810405
0000b0 ad e8 e5 3c 4b f2 a1 bc b7 e6 71 3e d8 09 4c be
       0.02806505 -0.019768855 0.23623167 -0.1992563
0000c0 72 b8 60 be 8e 64 86 be 16 37 96 3d 49 17 dd bd
       -0.2194536 -0.26248592 0.073347256 -0.10795457
0000d0 a9 47 4d 3d 9d 26 11 3e 8f 53 54 3d c4 e0 e3 3d
       0.05011717 0.14174886 0.0518375 0.11126855
0000e0 5d 4a cc 3c d6 41 a6 be 93 f4 58 3d d1 d4 fc bd
       0.024937803 -0.32472104 0.05296762 -0.12345279
0000f0 d5 01 a2 bd 9a 02 f3 bd 02 77 04 bd 1f a1 81 3e
       -0.07910506 -0.118657306 -0.032340057 0.25318238
000100 47 b3 84 3c 76 dd 72 be e5 5b 02 3d 70 c9 e7 3d
       0.016198767 -0.23717293 0.03182592 0.11317718
000110 6f 13 bf ba 01 97 89 bd 22 28 b9 bd 54 71 de bd
       -0.0014577935 -0.06718255 -0.09040858 -0.108614594
000120 13 fd 82 3d 98 15 b0 bd 83 6b 63 be ba 61 82 3c
       0.06395926 -0.08597869 -0.22208981 0.01591574
000130 49 26 ee 3c e4 e2 83 be 2b 00 d9 3d f2 fb 4e bd
       0.02907099 -0.2575904 0.10595735 -0.050533243
000140 1a ab 19 bd e7 11 3e 3e 21 fd 04 be 47 0b ec 3c
       -0.03751669 0.18561517 -0.12987186 0.028813971
000150 fc c7 4b bd d9 91 75 be bc f0 3d 3e 11 2e 9f 3d
       -0.049751267 -0.23981418 0.18548864 0.07772458
000160 f9 c1 97 3d 2d 54 98 bc 13 c6 05 3e 70 67 c6 bb
       0.07410044 -0.018594826 0.1306384 -0.006054811
000170 59 aa ef bd 6a 56 37 be 9a be ae 3c 4e 67 84 bc
       -0.11702413 -0.17904058 0.02133112 -0.01616254
000180 e4 25 19 3b 71 7b 20 3e f4 fc 84 bd 14 ae 87 3d
       0.0023368532 0.15672089 -0.064935595 0.06625
000190 57 42 5f 3d 70 62 a1 3d ac 72 af 3c 3b 30 a2 3e
       0.054506626 0.078801036 0.021416984 0.31677422
0001a0 d0 93 ce 3c d9 2b 90 3d bc fd 67 3e 18 e9 fb bd
       0.025216967 0.07039613 0.22655386 -0.123003185
0001b0 3f 4b 54 3e 5f 9b 38 3e 58 a2 f4 3d 9b 5b ca bc
       0.20731829 0.1802802 0.11945027 -0.024701884
0001c0 03 90 bd bd 3b cf b5 3d f7 29 b7 bd dc fa c4 bd
       -0.09255984 0.08877417 -0.08943551 -0.0961816
0001d0 fe 57 51 bd 02 2b c4 bd 89 47 82 be 26 da 21 be
       -0.051109307 -0.095785156 -0.25445202 -0.15805873
0001e0 d3 ba 60 3d 96 b5 52 3d e5 0a 9d bd ac 8b ee 3a
       0.05486567 0.051442705 -0.076680936 0.0018199584
0001f0 98 07 fc bd d9 cd 7f be 05 21 23 be 07 f6 f3 bd
       -0.12306136 -0.24980868 -0.15930565 -0.1191216
000200 b1 89 1b 3c 11 25 1f be 4e 99 67 3d 32 0e 40 3d
       0.009493277 -0.15541483 0.056542687 0.046888538
000210 22 1e c8 bc 37 bb 07 3e 9f fe b2 bd 1c 9e 0a bd
       -0.024428431 0.1325501 -0.08739971 -0.03384219
000220 9c 31 cb 3c 19 93 8c bd 4c 79 30 3b 8d 99 3f 3d
       0.024803929 -0.06863994 0.0026927767 0.046777297
000230 25 bc 28 3e ca 7f a1 3d 4e 95 13 3e 6b f5 a4 3d
       0.16478021 0.07885702 0.14412424 0.08054622
000240 2f d5 6c 3d 1d 84 bd be 5c a6 87 3e a4 13 88 3d
       0.057820495 -0.37014857 0.2649411 0.06644371
000250 ee db 44 3e 42 d2 84 be 2b 64 12 bd ed 55 b0 be
       0.19224522 -0.25941664 -0.03574006 -0.34440556
000260 be 27 68 be 3b b3 ce bd 43 4e db bd 90 a5 19 3d
       -0.2267141 -0.10092779 -0.107082866 0.03751141
000270 06 c7 81 bc 65 46 04 3d 07 8f 84 bd cc df 82 be
       -0.015841972 0.032293696 -0.06472593 -0.25561368
000280 0a 99 a5 bd c0 cf 45 bd 98 7b 83 3d 83 9b a6 bd
       -0.080858305 -0.04829383 0.06420058 -0.0813513
000290 b0 4e 42 be e3 03 3d be 91 8c 18 be d2 28 35 be
       -0.1897533 -0.18458514 -0.14897372 -0.17691353
0002a0 a5 9e 32 be cc 72 a2 bb ab 54 cd 3d ef 50 85 3e
       -0.1744333 -0.0049575325 0.10025915 0.2603831
0002b0 7f fc 2b be 70 0d a9 3c 2a 34 ae 3e b1 13 b3 bd
       -0.16795538 0.02063629 0.34024173 -0.0874399
0002c0 a4 f5 29 be 72 9a fd 3d 96 59 c3 be 42 44 2f be
       -0.1659761 0.12382974 -0.38154286 -0.17115882
0002d0 5e 8a d5 3d ba b6 8e 3e ab ed fc 3b e2 98 54 3d
       0.10426782 0.27873784 0.007718762 0.051903613
0002e0 43 f7 95 bd 67 3f 53 bd 1d 45 4d be 50 1b 82 be
       -0.07322552 -0.051574137 -0.20045896 -0.25411463
0002f0 0d 03 87 3d e8 fc 9e bd ba 71 14 3e 50 18 f7 bc
       0.06592379 -0.07763082 0.14496508 -0.03016296
000300 76 3f 58 be 36 10 30 be d0 18 ec 3c e7 e2 ba 3d
       -0.21117958 -0.17193684 0.028820425 0.091253094
000310 97 d8 d1 bd 53 a9 87 3c 4a f8 bd bd 79 19 04 3e
       -0.10246389 0.016560232 -0.09275873 0.12900342
000320 63 f5 53 3d 20 54 14 be 4e ef 0e be 06 8f 38 3e
       0.05174769 -0.14485216 -0.13958475 0.18023309
000330 49 6b 5a 3d 0f 68 af bd a8 7e a8 bd 3e cb 44 be
       0.05332497 -0.085647695 -0.08227283 -0.19218156
000340 33 1e f3 3d 81 2c a3 3d 1a 5c 92 bd d4 48 60 bd
       0.118709944 0.07967473 -0.07146473 -0.054756954
000350 47 d1 95 3d 55 08 36 bd 4a b4 28 bc ce 69 35 3e
       0.07315307 -0.04444154 -0.0102968905 0.17716143
000360 d9 78 11 3d 31 60 f5 bd 39 d6 c4 be b6 44 93 bd
       0.03551564 -0.11981238 -0.3844469 -0.0719084
000370 97 e1 01 3e 53 7e 9c 3d 4a fa 21 3e 71 d5 b4 bd
       0.12683712 0.07641282 0.15818134 -0.08829773
000380 76 8f 68 be df 55 6b be d7 21 c0 3d 0b 57 b0 bd
       -0.22710976 -0.22981976 0.093814544 -0.08610352
000390 a5 53 76 bd c1 01 1a be ef be 48 be f2 52 ee bc
       -0.060138363 -0.15039732 -0.19604085 -0.029092286
0003a0 bb 95 4a 3e 23 a5 e3 3c 26 f1 5e be 2f c9 78 3c
       0.1978368 0.027788704 -0.21771678 0.015184685
0003b0 4d 2d 47 3d 91 43 80 be c7 fb 62 bd 65 46 f7 3d
       0.048627187 -0.2505155 -0.055415895 0.120739736
0003c0 54 d3 33 3c 63 27 f4 3c 42 21 28 3e da 4e 05 bd
       0.0109756775 0.029803937 0.16418937 -0.0325459
0003d0 c5 8a 27 bd 9e 9d fe bd 80 c4 9a 3c 6a 1b 1a 3e
       -0.040903825 -0.12432407 0.018892527 0.1504952
0003e0 09 75 24 bd 1e 1d d7 3d 19 2f 6b 3b 48 bd 00 be
       -0.040150676 0.105036005 0.0035886227 -0.12572205
0003f0 9c a4 cf bd d3 98 54 be 48 64 0e be 0b dd 5e be
       -0.101388186 -0.20761423 -0.13905442 -0.21764009

conv2.conv.6.weight f4 [32, 32, 1, 1]
000000 d0 3f 75 3e b9 db 30 be 85 99 02 be d6 77 82 bd
       0.23950124 -0.17271318 -0.12753876 -0.06370513
000010 e5 81 50 bd e0 e8 93 bd 2e d0 0d 3e 53 de 37 3e
       -0.050905127 -0.07222152 0.13848945 0.17955904
000020 b3 89 86 3c 10 d6 5e bd e2 7c 8c bd 20 e2 ff 3d
       0.016423082 -0.054403365 -0.06859757 0.12494302
000030 50 01 90 bc c8 2f 0c 3d 0e 1e 44 be 3d 9a 03 3e
       -0.01757875 0.034225255 -0.1915209 0.12851806
000040 7e 3e 58 3d e1 1e 39 be d3 48 87 bd 32 b9 52 3c
       0.052793972 -0.18078186 -0.06605687 0.012861537
000050 5d 28 3b be ea b6 69 be 47 e5 27 be c7 11 86 3d
       -0.18277116 -0.22823682 -0.16396056 0.065463595
000060 3f ba 87 bd f1 79 82 be 66 e5 91 bc 41 47 19 be
       -0.066273205 -0.2548366 -0.017809581 -0.14968587
000070 f9 cf b9 be f9 aa 27 be 48 dd 73 bd da 1e fe 3d
       -0.36291483 -0.16373815 -0.059537202 0.12408228
000080 10 a8 a5 39 ca 46 85 bd ee 17 22 be 94 76 b8 bd
       0.0003159647 -0.065076426 -0.15829441 -0.09006992
000090 38 98 2f 3c 54 77 8d 3d 31 f1 00 be 45 ca 17 bd
       0.010717444 0.06907526 -0.12592007 -0.037058134
0000a0 5a 8a de 3c 15 ab 36 3d bc 37 7d bd 72 c4 81 be
       0.02716558 0.04459675 -0.06182073 -0.25345188
0000b0 bd 55 de 3c 12 40 50 be 5e 70 74 3e 1b c4 3e 3d
       0.027140493 -0.20336941 0.2387099 0.04657374
0000c0 98 81 98 3d 5d ad f7 bd 18 c4 f7 bd 94 3c a5 bd
       0.07446593 -0.12093613 -0.12097949 -0.08068195
0000d0 09 29 14 3e 8f 08 57 3e f2 f0 64 be a9 80 04 3e
       0.14468779 0.20999359 -0.22357538 0.12939705
0000e0 2e 23 9b 3d 83 0d 36 be ec cf 1f 3d 12 7f 16 3e
       0.07575069 -0.17778592 0.03901665 0.14696911
0000f0 91 d0 60 be 7c cf 42 3e 45 11 e8 bd b5 71 4a be
       -0.21954562 0.19024462 -0.11331419 -0.19769938
000100 1a a4 15 be f3 73 ec bc d1 d4 01 bd 76 19 3c be
       -0.14613381 -0.028863883 -0.0316971 -0.18369088
000110 da 26 fd 3c bc 83 b5 bd c3 dd 04 3e 70 66 25 bd
       0.030902315 -0.08863017 0.1297522 -0.040380895
000120 5c 07 d9 bd 94 9e 95 bd a7 0a 0f be 08 89 61 3d
       -0.10597107 -0.07305637 -0.13968907 0.055062324
000130 2d f7 23 be 2d 92 44 3c aa 5a 93 bc 68 41 96 be
       -0.16012259 0.011997742 -0.017987568 -0.29346776
000140 66 df 78 be c6 77 cd 3c 72 33 18 bc 97 3d 0d bd
       -0.2430397 0.025081526 -0.009289609 -0.034482565
000150 12 70 b9 be 34 9b 63 3e 56 53 9c bd 8a 36 2d bd
       -0.36218315 0.22227174 -0.076330826 -0.04228834
000160 e4 31 80 be f1 7c f4 bc ed a6 f4 3d 35 1e 49 3d
       -0.25038064 -0.029844733 0.11945901 0.049101073
000170 01 60 f5 3d e3 1d 1b bd 1c 17 f6 b9 2f 74 cd bd
       0.11981202 -0.0378703 -0.00046937994 -0.10031926
000180 06 5e fe 3d a8 c9 24 3c 48 42 6b 3e 0b 7b 67 be
       0.12420277 0.010057844 0.22974503 -0.22605531
000190 ed ad fa bd ea 7c 1b be 0a db b6 3d af 4c 07 3e
       -0.12240205 -0.1518437 0.08928497 0.13212846
0001a0 de 36 44 bd 8b 17 c1 3d 83 5b 79 be b2 84 91 3e
       -0.047903888 0.094283186 -0.24351315 0.2842155
0001b0 4a 76 0b bb f0 19 33 3e 2c 2c 0f 3e d6 0b b7 bd
       -0.0021280223 0.17490363 0.13981694 -0.089378044
0001c0 9d 30 78 be a8 dd 31 be c4 66 00 3d 0f b2 55 bd
       -0.24237294 -0.17369711 0.031348005 -0.052171763
0001d0 93 eb 1b 3d 29 ee ee bd da b9 39 be e5 c9 08 bd
       0.038066458 -0.11666519 -0.18137303 -0.033395667
0001e0 ab b5 33 be 41 8b 5d bd 7d 8c 22 3d 45 34 17 bd
       -0.1754977 -0.05408788 0.03968476 -0.036915082
0001f0 e6 b2 3a be f9 6a 27 3e cb 97 00 be f7 2f 55 bd
       -0.18232307 0.163494 -0.12557904 -0.052047696
000200 7d 9f cf 3e 83 9c b4 bc 61 7e 62 bb ee 19 22 be
       0.40551367 -0.022047287 -0.003456019 -0.15830204
000210 91 f7 93 3e 54 74 3c 3e e0 1e 2f 3e 21 a6 17 bd
       0.28899816 0.1840375 0.17101622 -0.037023667
000220 74 78 71 3d 68 a2 5e 3e 9f 0a 03 3e 3f bd 3e 3e
       0.058952764 0.2174164 0.1279702 0.18626879
000230 eb 0c 3d bd a6 a3 94 bd e1 7f 66 be b8 fc 8d 3c
       -0.046154898 -0.07257776 -0.2250972 0.01733242
000240 d6 e3 26 3d 5e 96 86 3d c1 07 05 bd bb 23 9b bc
       0.040744625 0.06571649 -0.032478098 -0.018937936
000250 b4 92 04 be a1 cc 12 3d 5c 7f 29 3e ff 67 25 3e
       -0.12946588 0.03583968 0.1655249 0.16152953
000260 11 91 03 be 21 d5 00 3e e9 7c 25 bd 34 d8 2f 3e
       -0.12848307 0.12581302 -0.040402327 0.17172319
000270 f8 78 99 3c 87 97 f0 bb c3 18 38 3e 32 69 15 3e
       0.01873444 -0.007342282 0.17978196 0.1459091
000280 f1 d1 ee 3d ee 7f 97 3d a5 b4 59 be f3 52 22 3e
       0.11661137 0.073974475 -0.21260317 0.15851955
000290 79 76 54 bc 66 20 82 bd 60 f7 11 3e 56 50 34 3d
       -0.012967699 -0.06353836 0.14254522 0.044021927
0002a0 c9 17 9c bd 34 60 8d 3c 18 49 82 3b 46 3e 02 3e
       -0.07621724 0.017257787 0.0039759986 0.12719068
0002b0 3d 70 3a bd 95 09 ef bd fa 37 ab bd 81 78 4e 3e
       -0.045517195 -0.116717495 -0.08360286 0.20163156
0002c0 7d 06 2a 3e 81 50 19 3d cb 36 43 3e fa db 7d 3d
       0.16604038 0.03743029 0.1906387 0.061977364
0002d0 d9 31 50 3c 3a 47 33 be f1 fa 66 bc f1 d0 4b be
       0.012707197 -0.1750764 -0.014097915 -0.19903924
0002e0 77 fa 12 bc 7e 26 3d 3e b3 03 92 be 08 ee 53 3e
       -0.008970848 0.18471715 -0.28518447 0.2069627
0002f0 e5 e1 9e 3d 8e 93 16 be 02 9b 85 3c 47 48 ee bd
       0.0775793 -0.14704725 0.016309265 -0.116348796
000300 98 2e cc 3e 5b bb aa 3d 11 69 f0 3d 84 5c 06 be
       0.39879298 0.083365165 0.1173879 -0.1312123
000310 60 b5 1a be e9 eb 21 bd c0 98 40 3e 79 a7 cd bb
       -0.15108252 -0.039531622 0.1880827 -0.006276068
000320 99 bd 98 3e 99 c0 22 3e a2 f6 22 3e 7b 5d 21 3e
       0.29832152 0.15893783 0.15914395 0.15758316
000330 62 77 f3 3d 81 9c 68 bd 32 2d 59 bd bb a6 8d bd
       0.11888005 -0.05678988 -0.053021617 -0.06916567
000340 a0 08 0a be 48 9e d3 bd b5 6f cb 3d 60 05 ca 3e
       -0.13479853 -0.10332924 0.09933416 0.39457226
000350 2e c4 1a 3e b9 cf 75 3d cd 38 f6 3d aa f9 0a 3e
       0.15113899 0.060012553 0.12022553 0.13571802
000360 1a dc cc 3d 01 2c 4b 3e e7 af 27 3e 0f 06 4e bd
       0.100029185 0.19841005 0.16375695 -0.050298747
000370 37 e0 a7 bd e9 8e 1f 3e 96 a5 35 3e 2f 47 f0 3d
       -0.081970625 0.1558186 0.17738947 0.11732327
000380 de b1 5d be 91 6a 2d 3d 4f b8 fa bd ac 7e 22 be
       -0.21649882 0.042337958 -0.12242185 -0.15868634
000390 79 94 e9 3d c0 ed ff bc b3 86 0c be 80 51 60 3e
       0.11405272 -0.031241298 -0.13723259 0.2190609
0003a0 2e 7b 4e 3e 4e 90 cb 3d 50 c6 43 3d 97 3a 90 be
       0.20164177 0.09939633 0.047796547 -0.281697
0003b0 61 0b 9a 3d 71 5b 6f be d5 39 39 3e d3 18 37 bd
       0.075217016 -0.23374726 0.18088467 -0.04470141
0003c0 cd 19 89 3e 1c 66 87 3d 3d 65 bd 3d 5b 37 c5 3e
       0.26777497 0.06611273 0.09247825 0.38518795
0003d0 d7 95 6c 3e 2f 16 54 3c 91 60 cf bc b2 c7 17 3e
       0.23104034 0.012944742 -0.025314601 0.14822271
0003e0 4e c3 f6 bd 42 19 85 3e 35 2a 76 bd 1e 2e 2d 3e
       -0.1204897 0.25995833 -0.060098846 0.16912124
0003f0 42 e6 66 3e 27 68 06 3e 59 78 32 bd b7 7f 6f 3d
       0.22548774 0.13125668 -0.043571804 0.058471408

conv3.conv.3.weight f4 [64, 64, 1, 1]
000000 9b 45 d1 bd 6b a4 73 3c 03 9f c2 3d 2c e1 f6 3d
       -0.10218354 0.014870743 0.09502985 0.12054667
000010 d0 19 d1 bd c7 42 09 bd 22 09 96 bd bb 58 f8 bc
       -0.102100015 -0.03351095 -0.07325961 -0.030315747
000020 90 2a 08 3e 24 52 44 be bf eb fc 3c 5a 92 e1 bd
       0.13297486 -0.19171959 0.030874131 -0.110142425
000030 c2 75 1f 3e 2a 67 fd bc fb 0f 1d be 48 3e 37 bc
       0.15572265 -0.030932982 -0.15338127 -0.011184283
000040 02 92 8a bd 70 d4 c6 bd 4c 97 db bb 66 ab f3 3c
       -0.0676613 -0.09708488 -0.0067013856 0.029744815
000050 fd 0b 38 3d b3 0f 86 3d f4 55 02 bc bb b0 b4 bd
       0.044933308 0.06545963 -0.007955063 -0.08822771
000060 f1 4a bd 3d 2b 83 de 3d 91 6f c0 bc ad 3a 79 3d
       0.092428096 0.10864862 -0.023490699 0.060846973
000070 25 22 01 be a2 29 55 3d 9a 70 99 3d a7 60 87 bd
       -0.12610681 0.052041657 0.0749218 -0.06610232
000080 55 63 e6 3c 1a ef 58 3b 6d a8 d5 bd 56 0f 5d be
       0.028123537 0.00331015 -0.10432515 -0.21587881
000090 78 1b 26 be d4 83 1a be c2 cf 70 3d 21 15 97 3d
       -0.16221416 -0.15089351 0.058791883 0.07377077
0000a0 ad 3c f7 bd 38 5f 58 bd 01 ab 86 bd 94 f0 30 3e
       -0.1207212 -0.052825183 -0.06575585 0.17279273
0000b0 e9 c2 d4 bd 6a 3a 35 3e 79 a0 7f 3d b1 6b 58 ba
       -0.10388739 0.17698064 0.062408898 -0.00082557934
0000c0 82 8f a9 bc 11 16 1b be 02 12 04 be f1 e1 2d be
       -0.020698313 -0.15145136 -0.12897494 -0.16980721
0000d0 7f 0e 72 bd d6 4d 17 3e 48 32 57 bd 02 eb 1e 3e
       -0.059095856 0.14775786 -0.052538186 0.15519336
0000e0 0f 1b a9 3d 28 d2 af 3d a7 e4 9e bd 50 46 dc 3c
       0.08257114 0.08585006 -0.07758456 0.026888996
0000f0 65 f9 b4 bd be 45 35 be 56 fc d0 3d df 83 dd 3c
       -0.08836631 -0.17702386 0.10204379 0.02704042
000100 5d 89 d6 3d 62 ba 8a 3d 90 53 03 3e a0 3a 4e bd
       0.10475419 0.06773831 0.12824845 -0.050348878
000110 61 6e 16 3e 66 0e 94 3a dd 7b a9 bd ad 92 b9 bd
       0.14690544 0.0011295795 -0.08275578 -0.09061179
000120 d6 75 61 bc ba 80 2e 3e 9b dd a3 bd 00 7e 4c 3c
       -0.013761004 0.17041293 -0.08001252 0.012481213
000130 bc a8 3f bc 7f e4 49 be bd 68 39 3d 92 a7 20 be
       -0.011697944 -0.1971607 0.0452659 -0.15688923
000140 c5 2d c7 3d 1e d0 3a 3e 53 e8 8e bd fd c1 aa 3d
       0.09725527 0.18243453 -0.06977906 0.083377816
000150 65 4f 5f bd 68 08 be 3d 3c a6 46 bc 54 49 ff 3d
       -0.054519076 0.09278947 -0.012124594 0.12465158
000160 d7 f3 68 bd d6 14 17 bd 08 cb 8a 3d 96 fe 18 3c
       -0.05687317 -0.036885105 0.067770064 0.009338042
000170 89 bd d0 bd f4 41 23 bd e3 f3 82 bb 0a 69 29 3d
       -0.10192401 -0.03985782 -0.0039963587 0.04135994
000180 18 dc 15 3e f6 7f 37 be 80 b3 37 be b9 c7 21 be
       0.1463474 -0.17919907 -0.17939568 -0.15798844
000190 1f 84 64 be 97 59 6c bd 17 a4 92 bd 8b 72 68 bd
       -0.22316025 -0.057702627 -0.07160204 -0.05674986
0001a0 16 5b 8a 3e 2a c9 5e 3d c6 ff 9f 3c c6 c4 9f bd
       0.27022618 0.054391064 0.019531142 -0.078012034
0001b0 36 40 77 3e 3f 2c a0 bd 9e d3 c9 bd f8 4a 1c bd
       0.24145588 -0.07820939 -0.09854816 -0.038157433
0001c0 69 fa f3 bc 94 44 bd bc 5c e2 90 3d 92 47 53 3d
       -0.02978249 -0.02310399 0.070744246 0.051581927
0001d0 f7 a8 67 3b f2 f0 1c be eb 3e d6 3d eb 20 90 bd
       0.0035348514 -0.15326288 0.104612194 -0.070375286
0001e0 12 38 e3 bd ab 2c 19 be 3a 36 7e bd 67 a3 c6 bd
       -0.11094679 -0.14958446 -0.062063433 -0.09699135
0001f0 97 bf 27 3d dc 76 b6 bd 30 94 07 3d b5 7e 8a bd
       0.0409542 -0.089093894 0.033100307 -0.06762449
000200 a8 35 13 3e bc 6e 5d 3d be 38 c0 3d 71 b7 20 3c
       0.14375937 0.054060683 0.09385823 0.009809361
000210 1d 39 ba 3d 2e 06 48 bb 61 0f e4 bd f2 c7 0d be
       0.09092925 -0.0030521262 -0.11135746 -0.13845804
000220 23 c1 d9 bd 3d 8d 58 3d 94 69 9f bd 37 b0 df 3d
       -0.10632541 0.05286907 -0.07783809 0.10922282
000230 9f 93 25 be 65 72 ec 3d e1 a1 c2 3c c7 ee 41 bd
       -0.16169594 0.115452565 0.02375883 -0.047346856
000240 63 ec ea 3d 89 6f 40 bd 2a 4e 56 3e 0b bb 35 3e
       0.114708684 -0.04698137 0.20928255 0.17747132
000250 16 f2 10 3d e0 0f 44 3d 02 b9 c6 3d 95 ce 2d 3e
       0.03538712 0.047866702 0.09703256 0.16973336
000260 2b 40 06 3d 9d fb 1f be c3 88 d6 3d dc 66 0f be
       0.03277604 -0.15623327 0.10475304 -0.14004081
000270 a2 c1 c5 bd 02 af 49 3d 3a a5 2d 3b 19 4c 86 3d
       -0.09656073 0.049239166 0.0026496188 0.06557483
000280 bd b5 c3 3c ce 3a 3e 3e f5 e4 b8 bd de e5 32 bd
       0.02389037 0.1857712 -0.09028045 -0.04367625
000290 e0 23 f1 3d 87 c0 60 3d d0 c3 d3 3c db dd 18 bd
       0.11774421 0.05487111 0.025850207 -0.037320953
0002a0 36 8d f2 bd 31 5b 8e 3e b5 ab 9b bc c7 5c 05 bd
       -0.1184334 0.2780395 -0.019002775 -0.032559182
0002b0 22 43 90 bc 26 52 78 3c 9b fd 66 be 8f 00 14 3e
       -0.017610136 0.015156304 -0.2255768 0.14453338
0002c0 c3 4e 05 3e fe dd 6d 3e ab 64 49 3e ad 89 e7 bd
       0.13018326 0.23229215 0.19667308 -0.113055564
0002d0 10 a5 61 3c 73 4a 05 bd 5b 60 30 3b da a3 60 bd
       0.013772264 -0.032541703 0.00269129 -0.05484376
0002e0 f2 5b f0 bc 27 28 90 bd 96 58 51 be f2 7a d9 bc
       -0.029340718 -0.070389085 -0.20443949 -0.026547883
0002f0 d3 64 a0 3e 47 44 48 3d 8f 68 22 be 0c 06 64 be
       0.31326923 0.04889324 -0.15860198 -0.22267932
000300 22 6a 03 3e 3b 0c 1f bd 54 12 af 3d bd 07 e6 bd
       0.12833455 -0.038830023 0.08548418 -0.11231945
000310 dd 1f 12 3e 3c 9a be bd ca fd 69 be 5a 27 9b bc
       0.14269967 -0.093067616 -0.22850719 -0.018939663
000320 b9 3c a9 3c 6c ec 72 3a 75 53 a5 bd 70 03 80 3d
       0.020658838 0.0009266797 -0.08072559 0.06250656
000330 2a 04 bb 3d e0 cb 10 be 35 6c 3f 3e d4 33 20 bd
       0.091316536 -0.14140272 0.18693621 -0.039111927
000340 72 bb b5 3d 58 d9 80 3e f5 d5 1b bd be 79 99 3d
       0.08873643 0.2516582 -0.038045842 0.074939236
000350 07 c5 ba bd 61 b2 8f bb 83 43 e6 3c 7d 40 04 3e
       -0.09119611 -0.004385278 0.028108364 0.12915225
000360 c5 b6 b1 3d ff e4 23 3e b7 61 92 3b 4b 5e d9 bc
       0.08677439 0.16005324 0.004467215 -0.02653422
000370 a7 e2 0e be af eb 92 bd 8d 62 20 3c 7b f0 b4 bc
       -0.13953649 -0.07173859 0.009789121 -0.022087326
000380 2d d9 b5 3d 94 39 05 be 45 be c9 3c 03 4b f6 bc
       0.088793136 -0.13010246 0.02462686 -0.030065065
000390 11 ef d9 bd 36 c8 bc bd 0d 08 bc bd 3a db 07 be
       -0.106413014 -0.09217875 -0.09181223 -0.13267222
0003a0 97 e4 e7 bd ed 5f e9 3d 6e fc 0b be 11 5b 55 3c
       -0.11322897 0.113952495 -0.13670513 0.0130222
0003b0 a5 f3 87 3d 38 90 7d 3d 97 04 e7 3c c1 35 89 bd
       0.066382684 0.061905116 0.02820043 -0.06699706
0003c0 ae 97 01 3d 8a 17 84 3c e8 89 90 bd a5 bd 7e 3d
       0.031638794 0.016124506 -0.070575535 0.062192578
0003d0 60 d2 85 3d 05 d5 9c bd e0 5c 4c 3e 42 f0 60 bd
       0.065342665 -0.07657818 0.19957304 -0.054916628
0003e0 7e 99 23 bc 4d 54 24 be 50 d9 51 be 64 03 85 bc
       -0.009985326 -0.16047783 -0.20493054 -0.016236968
0003f0 47 ee 72 3e ae f0 3f 3e 6b 16 72 bd fd 5d ef bd
       0.23723708 0.18744156 -0.05910341 -0.11687849

conv3.conv.6.weight f4 [64, 64, 1, 1]
000000 e8 29 21 be f0 1f 47 3e 29 a2 58 3d 61 94 5f 3c
       -0.15738642 0.19445777 0.052889023 0.013646216
000010 b4 1e 27 3d 51 78 33 be c0 eb c4 3d 35 a2 72 be
       0.040800765 -0.17526366 0.09615278 -0.2369469
000020 b8 21 81 bd 72 fd 1a be f4 b4 19 bd df 4f 73 3d
       -0.063052595 -0.15135744 -0.037526086 0.059402343
000030 fe a3 bd 3c 04 19 54 be da 98 8b 3c ee 52 37 3c
       0.023149487 -0.20712668 0.017040659 0.011189206
000040 b8 08 e8 bc 77 1b 39 be f2 2d 60 bd 8d 2d 81 be
       -0.02832447 -0.18076883 -0.054731317 -0.25230065
000050 e2 a2 86 3b d9 ef 62 3d 11 42 e4 bd ed a8 85 3d
       0.0041087726 0.055404518 -0.11145414 0.06526361
000060 46 ba de 3b 20 97 96 3d 02 99 55 3d 5b 38 d4 bd
       0.006797108 0.073530436 0.052147873 -0.103623115
000070 34 ef c4 3c 9a f5 e8 bd b3 fc 46 be 03 d9 fb bd
       0.024039842 -0.1137497 -0.19432335 -0.12297251
000080 c5 c3 86 bd 63 bf e8 3d b0 c1 cd 3b 68 73 08 3e
       -0.06580309 0.11364629 0.006279193 0.13325274
000090 14 cb 99 3b 65 f7 62 be a7 77 b1 bd 6c 1f 0f 3e
       0.0046933983 -0.22164686 -0.086654 0.1397683
0000a0 42 2d 24 3c 4e ee e8 bd 68 a7 21 be 9b aa 0f 3d
       0.010020556 -0.11373578 -0.15786517 0.03507481
0000b0 ea 67 1d 3e c6 c4 90 bc 0e f0 7c be c4 04 a7 bd
       0.15371671 -0.017671954 -0.24700949 -0.08155206
0000c0 d2 3b c8 b9 81 bf eb 3d b9 a2 fe 3d cc 84 bc 3d
       -0.00038191542 0.11511136 0.12433381 0.092050165
0000d0 d8 38 0d 3e 26 88 76 3d 2c 54 86 bd 7e 16 1b 3d
       0.13791215 0.060188435 -0.06559023 0.037863247
0000e0 47 69 dd ba 06 09 2f 3c 45 89 67 be 06 3a cd bd
       -0.0016892337 0.010683304 -0.22610958 -0.10020833
0000f0 f8 c8 63 bd 1d 5f 2d be 76 18 a0 be b3 bb 74 3d
       -0.05561158 -0.16930814 -0.31268662 0.059749316
000100 75 36 98 3c 08 b2 22 bc f7 28 a3 bc 00 53 5b bd
       0.018580655 -0.009930141 -0.019916994 -0.05354595
000110 8b e9 00 3e d1 c9 16 be bd c9 2b be 07 16 61 bd
       0.1258909 -0.14725424 -0.16776176 -0.054952648
000120 89 b0 15 3e 11 79 70 bd c1 c3 eb bc 3a 00 cc bc
       0.14618124 -0.058709208 -0.028779866 -0.024902452
000130 25 c2 86 bd 03 e5 80 3d 5e 36 53 be 7d 50 e8 bc
       -0.06579999 0.062936805 -0.20626208 -0.028358692
000140 38 76 38 3e 7d 59 58 3d 66 1c aa 3d d5 ae 01 3c
       0.18013847 0.052819718 0.08306198 0.007915218
000150 ad 39 41 3a 23 e4 11 be 9c d0 22 3e a7 3b 05 3c
       0.000737096 -0.14247184 0.1589989 0.008131898
000160 01 d1 93 3d 9a f8 a1 bd 54 79 ae bd 5f 40 3d bb
       0.07217599 -0.07908745 -0.08519235 -0.002887748
000170 15 40 63 be 18 a9 95 3c 13 60 20 3e 42 af 97 3d
       -0.22192414 0.018269107 0.1566165 0.07406475
000180 15 ec 00 be 30 1e 2f bd 4a 97 f2 3d 59 5f a9 bd
       -0.12590058 -0.0427534 0.11845262 -0.08270139
000190 36 44 65 bd 96 75 28 3e 6c 29 17 be 47 04 11 be
       -0.055973254 0.16451105 -0.14761895 -0.14161788
0001a0 8a 5d 8f bd de 5c 10 bd c5 9c 65 3e 4f da 07 be
       -0.07000263 -0.035244815 0.22423084 -0.13266872
0001b0 8b 24 83 bd 19 e8 cf 3d 4a 3c d7 3d 28 07 3f bc
       -0.064034544 0.10151691 0.10509546 -0.011659421
0001c0 92 79 6d be 66 ab 30 be f8 12 08 be f5 20 81 3d
       -0.23190907 -0.17252883 -0.13288486 0.06305114
0001d0 7d 5e f6 bc 8a 93 49 bd cc 42 70 3e 60 08 fa 3d
       -0.030074352 -0.04921297 0.23462981 0.12208629
0001e0 00 61 63 3d b6 5b ca 3d 94 c5 55 3e 61 f8 9a bd
       0.05551243 0.09880774 0.20876151 -0.07566906
0001f0 19 3b 02 3e bb ea 9c 3c 03 b0 bf 3b 91 b4 2c 3e
       0.12717856 0.019154897 0.0058498397 0.16865756
000200 5a 8e 9f bd 98 39 1c 3d 42 18 a3 bc a2 e5 b4 3d
       -0.07790823 0.038140863 -0.019909028 0.088328615
000210 f6 4c 65 bd 92 41 a1 3d c2 2f f5 3c 79 37 d2 bb
       -0.0559816 0.07873835 0.02993 -0.0064153043
000220 66 46 cf 3d d0 75 29 3d b5 01 3a 3e b1 38 0a be
       0.10120849 0.04137212 0.18164714 -0.13498189
000230 5f 6c 3b be 9c ac a4 3d e9 a2 3f be e7 69 6a 3d
       -0.18303059 0.08040735 -0.18714489 0.057229903
000240 be 26 c9 3e 48 cb 2a 3e f3 28 9e 3e de 60 40 3e
       0.3928737 0.16679108 0.30890617 0.18786952
000250 98 43 ae 3d 1e f2 50 3e 08 ea 31 be de f2 d7 bd
       0.08508986 0.2040486 -0.17374432 -0.1054437
000260 97 4d 01 3e 25 6f 07 be 3c 0a 98 bd 3e 73 89 3e
       0.12627254 -0.13225992 -0.07423827 0.26845735
000270 45 5c 60 bd e2 46 8c bd f1 28 38 3d 66 4a d6 ba
       -0.054775495 -0.06849457 0.04496092 -0.0016349077
000280 87 1a 1c bc 0c f1 d9 3d 9c 1d d3 bd 0d db 40 3c
       -0.009527809 0.10641679 -0.10308382 0.011770976
000290 53 e1 64 be 6d 4d 24 3d bc eb 4f 3d 40 7f 0f bd
       -0.2235158 0.0401129 0.050761923 -0.035033464
0002a0 fb 48 b7 3d 19 6b 89 bd f8 3f 89 bd 82 89 4e be
       0.08949467 -0.067098804 -0.06701654 -0.20169643
0002b0 24 b2 69 3d 48 e2 10 3e df fc fd bd 67 b5 b6 3d
       0.057054654 0.1414882 -0.12401747 0.089213185
0002c0 03 0e a4 bd 3a 98 62 3d c1 95 f7 3d 44 46 02 3b
       -0.08010485 0.055320956 0.1208911 0.0019878307
0002d0 fa bf 52 3c 97 2e 87 3d 32 42 ce bd e8 63 22 bd
       0.012863154 0.06600683 -0.100712195 -0.03964606
0002e0 90 01 1d bd 3d b1 1c be b2 d7 db 3d 9b 59 b5 3d
       -0.03833157 -0.15301986 0.107345 0.088549815
0002f0 c1 27 89 3e 39 bb e5 3d 2d 09 39 be c5 ab 2f 3d
       0.26788142 0.112173505 -0.18069907 0.04288842
000300 5c 66 31 3e f7 bc b3 3d 7b af 93 bc b4 4b b2 bd
       0.17324203 0.087762766 -0.018028012 -0.087058455
000310 e9 2c 02 be ff f3 bb 3d bf 09 54 bd bc d0 f7 3b
       -0.12712444 0.09177398 -0.051767107 0.007562725
000320 d2 75 05 3e 8a ea dc 3d ff dd 54 bd 1b c2 44 bd
       0.13033226 0.10786922 -0.051969524 -0.048036676
000330 61 e1 14 3d e4 df 62 3c 56 c8 06 3d 87 23 77 bd
       0.03634775 0.013847325 0.0329059 -0.060336616
000340 7a 59 d3 bc 5a 59 8e 3d 05 d0 af bd 70 d1 4b 3c
       -0.025799502 0.06950636 -0.085845985 0.0124400705
000350 86 8c 16 be 8c ce 00 3d 7d 23 64 3d e6 32 3d be
       -0.14702043 0.03144698 0.055697907 -0.18476447
000360 64 d9 a9 bc 2c 60 76 be 57 fb 83 3d dc a6 1a be
       -0.020733543 -0.24060124 0.06444424 -0.15102714
000370 8a ac 23 be c1 d9 fc bc 35 c1 d2 3d b2 54 35 be
       -0.15983787 -0.030865552 0.102907576 -0.1770809
000380 93 e3 00 be ac bb fa bd c2 0f e1 ba 63 05 ed bc
       -0.12586813 -0.12242827 -0.0017170834 -0.028933233
000390 54 9d 91 bc c5 07 98 3c dd fa f2 bd e9 30 cd bd
       -0.017775215 0.018558392 -0.118642546 -0.100190945
0003a0 30 9c c1 3d a1 e5 90 be db 06 83 bd a3 2f 44 be
       0.094536185 -0.28300193 -0.06397792 -0.19158797
0003b0 fd a8 4a be b3 07 11 3e fc b5 03 3d 97 66 4e 3d
       -0.19791026 0.14163093 0.032155976 0.050390806
0003c0 ea 68 58 bc ec 43 af 3d 65 d8 e1 bd d6 34 4d be
       -0.013208607 0.08557877 -0.11027602 -0.20039687
0003d0 e6 8e 56 3d 70 a6 0e be f9 81 34 3e 7f 45 5c 3c
       0.052382372 -0.13930678 0.17627706 0.013444304
0003e0 36 df 8d bc 6e d2 6b bd 51 6f 4c 3d 6f e3 25 3e
       -0.01731835 -0.05757373 0.049910847 0.1620004
0003f0 30 5c b8 bd 59 59 0b be 94 be 04 3d df d2 1c bc
       -0.09001958 -0.13608302 0.032408312 -0.00957176

conv4.0.weight f4 [64, 64, 1]
000000 ee 10 ce bd c1 b9 38 3c 88 7e 61 bd c7 07 6b 3b
       -0.10061823 0.011274756 -0.05505231 0.003586279
000010 76 ef 8b bd 11 48 40 3c fe e6 65 bd 53 86 61 bd
       -0.06832783 0.011735932 -0.056128494 -0.055059742
000020 43 58 3f be 98 14 3d 3c 52 bb ac bc cb 65 b1 3d
       -0.18686013 0.011540554 -0.021085415 0.086619936
000030 41 36 0c bd 32 de 38 bc b2 17 2a 3e 64 f9 6a bd
       -0.034231428 -0.011283444 0.16610602 -0.057366744
000040 94 0c 9a be 71 46 21 be 48 0c 0a 3c 99 16 96 3d
       -0.3008772 -0.15749528 0.00842578 0.07328529
000050 91 e8 26 3e b5 fe ad be bc 85 16 3d 71 bf d3 bd
       0.16299655 -0.3398339 0.036748633 -0.10339249
000060 45 be 7c be a3 00 9d 3c 0e 72 7e bd 5f 4a 30 be
       -0.24681957 0.019165343 -0.06212049 -0.1721587
000070 4f 20 11 3e f0 ba b6 bd 39 43 0b be 7e 5f 7c 3d
       0.14172481 -0.08922374 -0.13599862 0.061614506
000080 1e b8 06 3d 7a 2c 13 3e 5b fb 3c 3e ab 6a 0d 3d
       0.03289043 0.14372435 0.1845526 0.034525555
000090 b3 50 f6 bd c4 3f 75 3d fc 33 77 bd ad 17 d2 bd
       -0.12027111 0.059875265 -0.06035231 -0.10258422
0000a0 e9 e7 04 be 7d 50 1e be 84 21 78 3d a6 24 d9 bc
       -0.12979092 -0.15460391 0.060578838 -0.026506733
0000b0 7e fb 10 3e 8a 0e fd bc ac c7 d2 bd c0 66 5b be
       0.14158437 -0.030890722 -0.10291991 -0.21425915
0000c0 a5 82 c4 bd 23 1e 03 3e c1 cc 68 bc 1c 9d 54 3d
       -0.09595231 0.12804465 -0.014208973 0.051907644
0000d0 e2 67 21 3e fb aa 6d bd 20 1d 6d be 7a ba 47 3e
       0.15762284 -0.058024388 -0.23155642 0.19504729
0000e0 a7 07 41 be c2 e2 4c 3d 63 30 e8 3d b5 83 61 bd
       -0.18850575 0.05002094 0.11337354 -0.055057246
0000f0 42 f9 82 3d bd 0a 52 bc af 22 3f be 2a 9f 3a 3e
       0.063951984 -0.012819943 -0.18665574 0.18224779
000100 29 68 4d bc 19 67 8f 3c 0f e1 7f 3e 30 8c 27 3e
       -0.012537041 0.017505215 0.24988197 0.16362071
000110 01 64 b3 3d 64 51 77 3d 71 cf 19 bd 71 d2 16 bd
       0.087593086 0.060380355 -0.037551347 -0.036821786
000120 0f d4 d2 bd 0b 48 43 3d 57 a9 5e 3e ea 1a 6c bc
       -0.10294353 0.047676127 0.21744286 -0.014410714
000130 1b ea 31 bb e0 30 7b bc 81 41 3f 3d ce 62 1f 3e
       -0.0027147594 -0.015331477 0.04669333 0.15565035
000140 31 7c 66 be e3 0e 37 be 11 79 09 bd 44 d8 0b 3e
       -0.22508313 -0.17876773 -0.033562724 0.13656718
000150 23 ab 12 3e de 58 f3 bd 7c d1 16 3e 6f 92 a6 bd
       0.14323096 -0.118821844 0.1472835 -0.08133399
000160 3d ce 05 be 3b e6 a4 3d 58 f9 cb 3d df 24 07 be
       -0.13066955 0.080517255 0.09959668 -0.13197659
000170 f4 2b 1e 3e d5 f5 53 bd 81 fe fa bd 4b 55 bf 3c
       0.15446454 -0.051748116 -0.12255574 0.0233561
000180 5c b3 a0 bd 62 06 11 3e 4b 32 51 3e fa 61 a0 bd
       -0.0784671 0.14162591 0.20429341 -0.078311875
000190 80 ab 41 be 5e 64 ac 3d 2a 1f 7d 3c 92 57 06 be
       -0.18913078 0.08417581 0.015449325 -0.13119343
0001a0 af 1c 35 be 65 9e 7e be 1a 5c 33 3e b9 ec 78 be
       -0.17686723 -0.2486511 0.17515603 -0.24309053
0001b0 e0 08 41 3e 44 cb f1 3c 49 7a b9 bd ba 42 ab bd
       0.18851042 0.02951587 -0.09056527 -0.083623365
0001c0 4f ff a2 bc ea be f0 3d 8f fa c5 bd 73 d7 30 3e
       -0.019897131 0.11755164 -0.09666931 0.17269687
0001d0 cb 0a 3c 3e 74 50 e6 3d cc 0b 78 bd bd 04 06 3e
       0.18363492 0.11245814 -0.060558125 0.13087745
0001e0 9a 98 39 be 14 85 ef 38 9f db 88 3e 62 b4 ed bd
       -0.18124619 0.00011421196 0.26730058 -0.11606671
0001f0 f1 49 c1 3d 62 d5 46 3d fc 5c 23 be 27 fd 95 3d
       0.09437931 0.04854334 -0.1595344 0.073236756
000200 ed cc 26 3e 29 2f 8a be e4 a2 fc 3d 13 a2 07 be
       0.1628911 -0.26989105 0.123357564 -0.1324542
000210 22 55 83 3e 82 67 96 bd bd d2 85 bd 68 f1 c3 3d
       0.2565089 -0.07343961 -0.06534336 0.09567529
000220 72 71 16 3e bb 2e 29 be cc f6 b9 3d 56 a6 24 be
       0.14691713 -0.16521733 0.09080276 -0.16079077
000230 09 41 d6 bd b3 f7 b0 bd e0 4d 8a bc 1e 60 ee bc
       -0.10461623 -0.08640995 -0.016882837 -0.029098567
000240 fa a0 90 3d 75 16 1b 3e f4 83 83 3e 45 bd 72 bd
       0.07061954 0.15145285 0.2568661 -0.059262533
000250 db 1f 33 bd 0c 33 83 3d 2b 64 71 3d 45 6d 4b bd
       -0.04373155 0.06406221 0.05893342 -0.049664754
000260 7a 2a 54 3e 11 df f3 bd 33 3e 84 be dd b3 04 bd
       0.20719329 -0.11907781 -0.25828704 -0.032398093
000270 e5 a4 54 3d 28 e0 82 bd 4a ec 60 3d e1 48 9f bd
       0.05191507 -0.06390411 0.054912843 -0.077775724
000280 7a 63 ad bc e3 87 4a be 5e d3 02 3b a2 f2 fe bd
       -0.021165598 -0.19778399 0.001996241 -0.12448622
000290 4a bc 35 3e 37 30 ef bc db f8 54 be 3f 35 c3 3d
       0.17747608 -0.029197795 -0.20798056 0.0953164
0002a0 fd c9 df 3c a2 0b 4c 3e ff c8 1b be c8 55 b1 bd
       0.027317995 0.19926313 -0.15213393 -0.086589396
0002b0 f5 c7 46 be 3b 1a f6 3d dd 74 ae 3d aa 49 90 3d
       -0.19412215 0.12016722 0.08518384 0.070453
0002c0 b5 b3 e4 bc be 2c 32 3e 51 85 5a bd 52 ad 17 3e
       -0.027917722 0.1739988 -0.053349797 0.1481221
0002d0 6f 6e 82 be 41 e8 65 3d 33 1c 96 bc d8 47 fe bd
       -0.2547488 0.056129698 -0.018323993 -0.12416047
0002e0 cd ca d2 bc f8 a2 37 be a4 90 43 be e3 df 19 3e
       -0.025731469 -0.17933261 -0.19098145 0.15026812
0002f0 f7 bf e3 bd 16 e3 c1 bb cb a5 4c 3d da c9 95 bd
       -0.11120599 -0.0059169633 0.0499628 -0.07313891
000300 1d 28 3f 3d 9b 6c 0f 3e 87 67 2f 3d a9 89 ac 3d
       0.046669114 0.14006273 0.04282334 0.08424694
000310 bf 8b 26 be 5e 2c 07 be 8e 8e a3 bd 6a ff f2 bd
       -0.16264246 -0.13200518 -0.079861745 -0.118651226
000320 f2 94 01 be 6c 38 cc 3d 32 9d b8 3d f5 d6 20 bd
       -0.12654474 0.09971699 0.090143576 -0.0392675
000330 d7 11 70 3e 98 15 52 be ea 4c 5e 3d 2f df f4 3d
       0.23444305 -0.2051605 0.05427257 0.119566314
000340 14 4b 4c 3d 40 30 48 be a0 da 0d be c2 7d 56 3e
       0.049876288 -0.19549656 -0.1385293 0.2094641
000350 98 db bb 3c fe ac 04 be fd f7 1c 3e f1 14 3b be
       0.022931859 -0.12956616 0.15328975 -0.18269707
000360 e3 27 7d bc b2 b5 1d 3b d5 ab 22 bc 41 ab 89 3c
       -0.015451404 0.0024064598 -0.009928663 0.016805293
000370 90 4c fb 3d 0a 5b db bd 98 72 1e bd 3d 68 3f 3c
       0.122704625 -0.10710724 -0.038683504 0.011682567
000380 1e 3a 1a bd 30 9b 22 bd 47 45 4d 3c bc 2b 8a be
       -0.03765308 -0.03969878 0.012528724 -0.26986492
000390 b5 3a a6 3d 01 15 16 3e 05 69 a4 bc c8 25 09 be
       0.08116666 0.1465645 -0.020069608 -0.13393319
0003a0 bd f0 3b bd e1 1a 89 be 5d b7 6a 3a 9f f1 4b be
       -0.045883883 -0.2677832 0.0008953715 -0.1991639
0003b0 63 92 9d 3e a9 0d ae 3c b4 bf 4e be 85 36 ba bd
       0.30775747 0.021246748 -0.20190316 -0.0909243
0003c0 4b ab 6a 3e 03 4f 94 3d 1c a5 6f be 92 75 cc 3c
       0.22916906 0.07241633 -0.23402828 0.024958406
0003d0 3c 40 53 3d 1e de c2 3d 1f 03 d4 3d 41 b6 38 3e
       0.05157493 0.09515022 0.10352158 0.18038274
0003e0 62 52 ac 3d de 7a 1d 3e b1 11 9a 3d 09 d2 05 be
       0.08414151 0.15378901 0.075229056 -0.13068403
0003f0 43 52 e9 3a ce 58 f0 3d ab 09 97 be 74 3c d3 3b
       0.0017801005 0.11735688 -0.29499564 0.0064464156
