models_slbp+gf/case6_final.pth (torch_old, 110331 bytes, 9 tensors)

conv1.conv.3.weight f4 [32, 32, 1, 1]
0	0xbd5aa09d	-0.05337583
1	0x3ddf2050	0.10894835
2	0x3de05693	0.10954013
3	0x3d8ff1a0	0.07028508
4	0xbe3a6ba1	-0.1820512
5	0x3e489f81	0.19592096
6	0x3c82fb16	0.015988868
7	0xbe268ebb	-0.16265385
8	0x3e69fc62	0.22850183
9	0xbe6c6aa7	-0.2308756
10	0xbc844a4e	-0.016148712
11	0x3e2e5ce0	0.17027617
12	0xbd4cd875	-0.050011117
13	0x3deeccb2	0.11660136
14	0x3e608d94	0.21929008
15	0x3d4131bf	0.047166582
16	0x3e1baa59	0.15201701
17	0x3d9645fb	0.073375665
18	0x3e63932d	0.22224112
19	0x3dcc59d6	0.09978072
20	0xbdafc1f8	-0.085819185
21	0x3df03ca7	0.117303185
22	0x3bbd4415	0.0057759383
23	0xbd8e7e59	-0.06957693
24	0xbc4383b4	-0.011933256
25	0x3da36369	0.07977945
26	0xbd75ae11	-0.059980456
27	0xbda07f4c	-0.0783678
28	0xbd176888	-0.036964923
29	0xbc1761c7	-0.0092396205
30	0x3eaf0adc	0.34187973
31	0x3dfc0032	0.12304725
32	0xbdb0b7d2	-0.08628811
33	0xbc30c89d	-0.010790017
34	0xbde7d81a	-0.11320515
35	0x3e3448f0	0.17605948
36	0xbd92f55e	-0.07175706
37	0xbe926f1c	-0.28600395
38	0xbd433b4b	-0.047663968
39	0xbe4e64b8	-0.20155609
40	0xbe81b023	-0.25329694
41	0x3d8a7da4	0.06762245
42	0x3ba84a13	0.0051357835
43	0xbd197733	-0.037467193
44	0x3d609a3d	0.054834593
45	0xbd94a11d	-0.072572924
46	0xbe0689fb	-0.13138573
47	0xbe6bac91	-0.23015048
48	0xbd115a5e	-0.03548657
49	0xbea7b364	-0.32754052
50	0xbe79c9cc	-0.24393386
51	0xbdd3c553	-0.10340371
52	0xbd5f3045	-0.054489393
53	0xbe91c452	-0.28470093
54	0x3db7013c	0.08935782
55	0xbd598c50	-0.053112328
56	0xbdc99690	-0.09843171
57	0x3c9a6e3e	0.018851396
58	0xbd93bd66	-0.07213859
59	0x3cb2b96b	0.02181693
60	0x3e63f5f8	0.22261798
61	0x3d985155	0.07437388
62	0x3d9eb18a	0.07748707
63	0xbe0103c1	-0.12599088
64	0xbeb62ce0	-0.35581112
65	0xbe7d6610	-0.24745965
66	0x3de74bf5	0.112937845
67	0x3e0299e2	0.12754014
68	0x3d295928	0.04134479
69	0xbc6af19c	-0.014339831
70	0xbdc51bec	-0.09624466
71	0xbc582591	-0.01319255
72	0x3cb253dc	0.021768503
73	0xbdc3ff6b	-0.095702015
74	0xbdf6c652	-0.12049545
75	0xbd1028b9	-0.035195086
76	0x3d448b6a	0.047984518
77	0x3dc18156	0.09448497
78	0x3df61910	0.12016499
79	0xbe0fc529	-0.14040054
80	0xbe3e8b88	-0.18607914
81	0xbcc04265	-0.02346916
82	0xbdb44ab9	-0.08803315
83	0xbe867c40	-0.2626667
84	0xbeb37003	-0.35046396
85	0xbd008d18	-0.031384557
86	0xbede4111	-0.43409017
87	0x3c4c89dd	0.012484041
88	0x3d256f91	0.0403896
89	0xbe87b6b3	-0.26506576
90	0xbe2ac391	-0.16676165
91	0xbc6f171a	-0.01459291
92	0xbdf17918	-0.11790675
93	0xbdda39aa	-0.1065553
94	0xbcfec030	-0.031097502
95	0xbe210a2b	-0.15726535
96	0xbe2cc021	-0.16870166
97	0x3e24dbd0	0.16099477
98	0xbe34b5e9	-0.17647518
99	0x3e008734	0.12551576
100	0x3dceb485	0.10093025
101	0x3e0752a8	0.13215125
102	0xbe5203e1	-0.20509292
103	0x3cafed2a	0.021475393
104	0x3d917f38	0.07104343
105	0xbe159f47	-0.1461154
106	0x3db4fa66	0.08836822
107	0xba977786	-0.0011556007
108	0x3d0932bc	0.03349565
109	0x3d6950e4	0.05696191
110	0x3d549e0d	0.05190854
111	0xbe0daa14	-0.13834411
112	0xbe61a975	-0.22037299
113	0x3e0ca12c	0.13733357
114	0x3eae9c6d	0.34103718
115	0xbda8e961	-0.082476385
116	0xbe63e96f	-0.22257017
117	0x3c0109eb	0.0078759
118	0xbec2e62a	-0.38066226
119	0x3d4a235e	0.049350135
120	0x3da9a7f6	0.08283989
121	0xbe035f3e	-0.12829301
122	0xbe60532c	-0.21906728
123	0x3d208c0c	0.03919606
124	0xbdd9d5a3	-0.10636451
125	0xbeb02698	-0.34404445
126	0x3d18779f	0.037223455
127	0xbcaef778	-0.021358237
128	0x3e4875bc	0.19576162
129	0xbc838ec0	-0.01605928
130	0xbe02dda7	-0.12779866
131	0x3deac241	0.11462832
132	0x3dbac997	0.091204815
133	0xbe50b8b1	-0.20382954
134	0xbe319a95	-0.17344125
135	0x3d2dec46	0.042461656
136	0xbd7d7519	-0.06187925
137	0x3e2ef9e5	0.17087515
138	0x3b8d2c46	0.0043082563
139	0x3d9aa4f2	0.07550992
140	0x3de89fd4	0.1135861
141	0xbcfe63c4	-0.031053431
142	0xbe561344	-0.20905787
143	0xbe283ae3	-0.16428714
144	0xbe7b3451	-0.24531676
145	0x3dbc8038	0.09204143
146	0xbd5da13c	-0.054108843
147	0x3e21585b	0.15756361
148	0xbd475cdf	-0.048672553
149	0x3d53513d	0.051591147
150	0x3e8245d9	0.25443915
151	0x3e2350d4	0.15948802
152	0xbe0cde7d	-0.13756748
153	0x3d0cf873	0.034416627
154	0x3e18a474	0.14906484
155	0x3e49fb8d	0.19724865
156	0x3e44c573	0.19215946
157	0x3dea4447	0.11438804
158	0xbc6e07d7	-0.014528236
159	0xbe4dc5b0	-0.20094943
160	0xbd2b82ae	-0.041872673
161	0x3d24adf1	0.040204946
162	0xbe80df67	-0.25170442
163	0xbd55004e	-0.052002244
164	0xbd14bddc	-0.036313877
165	0x3ba26668	0.0049560554
166	0xbe5e07e4	-0.21682698
167	0x3e032d51	0.12810256
168	0xbe1b5972	-0.1517084
169	0xba712c66	-0.00092000363
170	0x3ca37eeb	0.01995798
171	0x3e5eb731	0.2174957
172	0xbd83e296	-0.06439702
173	0x3c789ae9	0.015173652
174	0x3c430073	0.011901963
175	0x3d741fc3	0.059600603
176	0xbd91309b	-0.07089349
177	0xbd8339e7	-0.06407528
178	0xbdfc85f9	-0.12330241
179	0x3d7bdaa6	0.061487816
180	0x3cae35d5	0.021265903
181	0x3bac1eae	0.0052526807
182	0x3e9378a5	0.28802982
183	0xbdbe8527	-0.093027405
184	0xbe241383	-0.16023068
185	0x3e17baf9	0.14817418
186	0x3e4fdb04	0.20298392
187	0x3e33ebd6	0.17570433
188	0xbd9b4536	-0.0758156
189	0x3d1130fa	0.0354471
190	0xbe77de91	-0.24205996
191	0xbdb8ba82	-0.090199485
192	0x3e11a71c	0.14223903
193	0x3d0b5443	0.034015905
194	0xbe4b3bcc	-0.1984703
195	0xbd9a460e	-0.07532893
196	0x3e31fd6a	0.17381826
197	0xbd8a0996	-0.067401096
198	0xbe64408c	-0.22290248
199	0x3e3995e4	0.18123585
200	0xbdae62cf	-0.0851494
201	0x3e7059f6	0.23471817
202	0x3c983a7d	0.018582577
203	0xbe2d90ce	-0.1694977
204	0x3e0eae21	0.13933612
205	0x3e1a4009	0.1506349
206	0x3e881afd	0.2658309
207	0x3e04e52b	0.12978046
208	0xbdf4ef94	-0.119597584
209	0x3d6d089b	0.057869535
210	0x3e172b39	0.14762582
211	0x3e7c4094	0.2463401
212	0x3e0c27c7	0.13687049
213	0xbd4a54c5	-0.04939725
214	0x3e6174bf	0.22017191
215	0x3d486940	0.0489285
216	0x3aa7285c	0.0012753117
217	0x3beab1b1	0.0071622957
218	0x3dfb7c6b	0.1227959
219	0xbe3d3031	-0.18475415
220	0x3e31f6c5	0.17379291
221	0xbc9aae9a	-0.018882085
222	0xbe1589aa	-0.14603296
223	0x3d99a6b9	0.07502503
224	0xb91c6ba9	-0.00014917426
225	0x3e00578f	0.12533401
226	0xbe4e5a52	-0.20151642
227	0x3d111024	0.035415784
228	0xbd89df55	-0.0673205
229	0xbe343e67	-0.1760193
230	0xbe2497a9	-0.16073479
231	0xbe1a76c8	-0.15084374
232	0xbe74093c	-0.23831648
233	0x3e58d9fc	0.21176904
234	0xbae93ca4	-0.0017794562
235	0xbd367934	-0.044549182
236	0xbd4f691f	-0.05063736
237	0xbd1beca5	-0.03806748
238	0xbc2e5b69	-0.010641911
239	0xbce14f96	-0.02750377
240	0xbdcbe343	-0.09955456
241	0xbde0d5bb	-0.10978266
242	0xbdcffe0d	-0.10155878
243	0x3e072dae	0.13201019
244	0xbc91962d	-0.017771805
245	0xbe94f83c	-0.29095638
246	0x3e96f7ed	0.29486027
247	0x3e928abf	0.2862148
248	0xbe4814dc	-0.19539207
249	0x3d2b1f79	0.04177806
250	0xbcd36f63	-0.02580995
251	0xbe53d5ec	-0.20687073
252	0x3da65dc7	0.08123355
253	0xbd164d16	-0.03669461
254	0xbe447669	-0.19185795
255	0xbd27a2f3	-0.040926885

conv1.conv.6.weight f4 [32, 32, 1, 1]
0	0xbd8f712e	-0.07004009
1	0x3d77367f	0.060354706
2	0xbe7fb84a	-0.24972644
3	0xbeb8a76e	-0.3606524
4	0x3cbf1d8f	0.023329524
5	0x3eaf8004	0.34277356
6	0x3e567ece	0.2094681
7	0xbe062fb5	-0.13104136
8	0x3b50ea45	0.0031877917
9	0xbcc5d1c7	-0.024147881
10	0xbd1c7237	-0.03819486
11	0x3ce1f904	0.02758456
12	0x3e4626dd	0.19350763
13	0xbdb15b9b	-0.086600505
14	0xbd2fa7f0	-0.042884767
15	0x3cc06e8c	0.023490213
16	0x3e8f80db	0.28027996
17	0xbe25dd1d	-0.1619763
18	0x3d2c3254	0.042040184
19	0x3d875078	0.06607145
20	0xbcf02be1	-0.029317798
21	0xbe0efb68	-0.13963091
22	0xbdcb79af	-0.09935319
23	0xbe0da153	-0.13831072
24	0x3ed537ed	0.4164423
25	0xbd9978e9	-0.07493765
26	0xbc6cbfa1	-0.014449985
27	0xbdca215e	-0.098696455
28	0x3b169c6a	0.0022981414
29	0x3d623547	0.05522659
30	0x3e0b898a	0.13626686
31	0x3e7bfa99	0.24607314
32	0x3da6f548	0.081522524
33	0xbd65ce17	-0.056104746
34	0x3e017161	0.12640907
35	0x3e25480b	0.16140763
36	0x3d69ce71	0.057081643
37	0x3d6aaff0	0.057296693
38	0x3d7e4be2	0.062084086
39	0xbe1f9060	-0.15582418
40	0xbdf29619	-0.11845035
41	0x3d805db0	0.062678695
42	0xbca20307	-0.019776834
43	0x3dce57a7	0.10075312
44	0x3e3bb7e6	0.1833187
45	0x3e0201d7	0.12696014
46	0x3db8b72c	0.09019312
47	0x3e8a643b	0.27029595
48	0xbea1d882	-0.31610495
49	0xbea973b6	-0.33096093
50	0x3d5c4a54	0.053781822
51	0x3a55711d	0.00081421604
52	0xbd9a7620	-0.07542062
53	0x3e60cb05	0.21952446
54	0xbd57ba23	-0.05266775
55	0x3c0a13fe	0.008427618
56	0x3db7165a	0.0893981
57	0xbe233692	-0.15938786
58	0x3e7d2f7b	0.24725144
59	0xbd902a99	-0.07039375
60	0xbe3721a1	-0.17883922
61	0xbdc356d7	-0.09538048
62	0x3e4e51ce	0.20148394
63	0xbc9827c8	-0.018573657
64	0x3dd428d1	0.103593476
65	0xbe0a2390	-0.13490129
66	0x3ed4a08c	0.41528738
67	0x3d00e3b9	0.031467173
68	0xbe64a529	-0.22328629
69	0xbcc8cbdc	-0.02451127
70	0xbe13d6b0	-0.14437366
71	0xbdca292f	-0.098711364
72	0x3e1dcf57	0.15411125
73	0xbd07669a	-0.033056833
74	0xbdcbc302	-0.09949304
75	0xbee79353	-0.45229587
76	0x3e825bec	0.25460756
77	0x3daf28c3	0.085526966
78	0x3e772fa5	0.24139269
79	0x3ceadb23	0.028668946
80	0x3d916f58	0.07101315
81	0xbd8eca5c	-0.06972191
82	0x3c9e0011	0.019287141
83	0xbd1e28bc	-0.038613066
84	0x3e106c83	0.14103894
85	0x3d46c666	0.04852905
86	0x3ddf124f	0.10892164
87	0xbcc29a64	-0.02375526
88	0x3e094162	0.13403848
89	0x3de18588	0.11011797
90	0xbe182f82	-0.14861873
91	0xbe54b6fa	-0.20772925
92	0xbe2068f9	-0.15665044
93	0x3e710cd7	0.23540054
94	0xbd0aecb4	-0.033917144
95	0xbe1012c1	-0.14069654
96	0x3e001ee8	0.1251179
97	0xbe64eb83	-0.22355466
98	0xbe0862aa	-0.13318887
99	0xbd4985e0	-0.04919994
100	0x3e6fccc1	0.23417951
101	0x3dd3a898	0.10334891
102	0x3e52e53a	0.20595255
103	0x3b32ba3c	0.002727165
104	0x3b4fd9d9	0.003171554
105	0x3db4be38	0.08825344
106	0xbb31cbdf	-0.0027129573
107	0x3eae9033	0.3409439
108	0xbe1d7f08	-0.1538049
109	0xbd1bdd27	-0.038052704
110	0xbdbdc3b4	-0.09265843
111	0x3e8dc7ed	0.27691594
112	0x3d39e3a9	0.04538313
113	0xbda7f3b5	-0.0820078
114	0x3d5d6a59	0.0540565
115	0x3e06485a	0.13113537
116	0x3cf54a2e	0.029942598
117	0x3d4a7ea4	0.04943718
118	0xbe227898	-0.15866315
119	0x3b80f7f3	0.003935808
120	0x3e2f607e	0.17126653
121	0x3ccfc7ad	0.025363768
122	0xbe134854	-0.1438306
123	0x3e37f956	0.17966208
124	0x3e3887f7	0.18020616
125	0xbcd5c05f	-0.026092706
126	0xbd1190d7	-0.03553852
127	0x3ddf3566	0.10898857
128	0xbd1dece2	-0.038555987
129	0x3c9d068a	0.019168157
130	0xbeae8a03	-0.3408967
131	0x3d50d68c	0.050985858
132	0x3d9f5c79	0.0778131
133	0x3e45c019	0.1931156
134	0x3e1fc139	0.15601052
135	0x3e34f2cc	0.17670745
136	0xbdcfb02d	-0.10141025
137	0xbe0947de	-0.13406321
138	0x3e170eab	0.14751689
139	0x3da1feff	0.07909965
140	0x3dcc5b8b	0.09978398
141	0x3ea01116	0.31263036
142	0xbdbeedea	-0.09322722
143	0x3e3bf683	0.18355756
144	0x3c04a285	0.008095388
145	0xbde80363	-0.11328771
146	0xbe581282	-0.2110081
147	0x3dc3acda	0.09554453
148	0x3dcbd0df	0.099519484
149	0xbeac12bc	-0.33608043
150	0xbd24b72c	-0.04021375
151	0xbe5d590a	-0.21615997
152	0xbe5809f9	-0.21097554
153	0xbdf0f327	-0.11765128
154	0xbea5a439	-0.32351854
155	0xbeb3e694	-0.35136855
156	0xbcfa1a6d	-0.030530179
157	0xbd7f2b54	-0.06229718
158	0x3d74518a	0.059648074
159	0x3cf23393	0.029565608
160	0xbdf9b0ed	-0.12191949
161	0x3e4e32cf	0.2013657
162	0x3e34e1fb	0.1766433
163	0xbced2f80	-0.028953314
164	0x3de1c38c	0.11023626
165	0xbe0de086	-0.1385518
166	0x3dff8cda	0.12478037
167	0x3e018531	0.12648465
168	0xbdf6fece	-0.12060319
169	0xbcad1ef2	-0.02113292
170	0xbe3c6b62	-0.18400338
171	0xbda1ccf4	-0.0790042
172	0xbdf72051	-0.12066711
173	0x3d2df7cd	0.04247265
174	0x3d801580	0.06254101
175	0xbdd4614e	-0.10370122
176	0x3daca7fd	0.08430479
177	0x3e3c97d2	0.1841729
178	0xbe0d2d89	-0.13786902
179	0xbc8912b5	-0.016732553
180	0x3e578e7b	0.21050446
181	0x3e23ed7a	0.16008559
182	0xbe2c3af1	-0.1681936
183	0xbe26b325	-0.16279276
184	0x3ded33d5	0.11582152
185	0xbd54b43d	-0.0519297
186	0x3d9e14e8	0.07718831
187	0x3daf2e14	0.085537106
188	0x3e94a941	0.2903538
189	0x3dea38ae	0.11436592
190	0xbd997730	-0.07493436
191	0xbd6d6134	-0.05795403
192	0xbe9e02f0	-0.30861616
193	0x3dc74c9a	0.097314075
194	0xbd618812	-0.055061407
195	0xbd8bfa42	-0.06834842
196	0x3dc76d37	0.09737628
197	0x3d93d960	0.07219195
198	0x3df7eff1	0.12106312
199	0xbd89bb09	-0.06725127
200	0xbe502ca4	-0.20329529
201	0xbe09ae5b	-0.13445418
202	0xbe4fcc14	-0.20292693
203	0x3d05a480	0.032627583
204	0xbe85c9f8	-0.26130652
205	0xbe948595	-0.29008165
206	0xbe7f4a94	-0.24930793
207	0xbeb53c5a	-0.35397607
208	0xbe94d576	-0.29069108
209	0x3e21760a	0.15767685
210	0xbe7b469c	-0.24538654
211	0x3d53ffc6	0.051757596
212	0xbdb126ae	-0.08649956
213	0x3e1654de	0.14680812
214	0xbec6d29a	-0.3883255
215	0x3cd62547	0.026140822
216	0xbe1a9011	-0.1509402
217	0xbccb11c1	-0.02478874
218	0xbde73d96	-0.112910435
219	0x3e48b853	0.19601564
220	0x3da8ee3e	0.08248566
221	0x3dae11f1	0.08499516
222	0xbe5ec789	-0.21755804
223	0x3c8b888b	0.017032882
224	0xbd808835	-0.062759794
225	0x3d140441	0.03613687
226	0x3bc8fdfa	0.006133792
227	0x3e3a4d54	0.18193561
228	0xbd9ae1d6	-0.07562606
229	0x3dd6d490	0.10489762
230	0xbe5b8050	-0.21435666
231	0xbe9ce5f0	-0.30644178
232	0x3dd3d7e4	0.10343912
233	0xbe9a801d	-0.30175868
234	0xbd60d7c9	-0.05489329
235	0xbeb0ff16	-0.34569615
236	0xbd91554f	-0.070963494
237	0xbe8cc163	-0.27491292
238	0x3d2e52f1	0.042559568
239	0xbde8ce05	-0.1136742
240	0xbca05a43	-0.01957429
241	0xbe2b2b29	-0.16715683
242	0x3e10c70e	0.14138433
243	0xbe47ab8f	-0.19499038
244	0x3c5bdcc3	0.013419333
245	0x3db79cc4	0.089654475
246	0xbdc73a55	-0.09727923
247	0xbd87e453	-0.06635346
248	0x3d6bd333	0.057574462
249	0xbd4e0afe	-0.05030345
250	0xbd8ded57	-0.069300346
251	0x3e5e2a21	0.21695758
252	0xbcd40ec8	-0.025885954
253	0x3e649995	0.22324212
254	0xbdc02c2f	-0.09383427
255	0x3dc8485b	0.09779426

conv2.conv.3.weight f4 [32, 32, 1, 1]
0	0x3d80b5c2	0.062846676
1	0x3e82fbbb	0.2558268
2	0x3ea0953d	0.3136386
3	0x3e09fdd6	0.13475737
4	0xbd6c13c3	-0.057636034
5	0xbcdf711f	-0.02727562
6	0xbdb4088e	-0.08790694
7	0xbe0b9cf1	-0.13634087
8	0x3e82a2d7	0.25514862
9	0xbdbe1c0b	-0.092826925
10	0xbdd69075	-0.10476772
11	0x3e3ceb9b	0.18449251
12	0xbe38ef49	-0.1806003
13	0x3a2d2f5f	0.0006606485
14	0x3e1526bb	0.14565556
15	0xbd9ad009	-0.07559211
16	0xbdf2bea4	-0.11852768
17	0xbbaae418	-0.005215179
18	0x3d62596f	0.05526107
19	0xbe532b3a	-0.20621958
20	0x3e331ad7	0.17490707
21	0x3e6d781f	0.23190354
22	0xbe1843a2	-0.1486955
23	0xbed478f8	-0.41498542
24	0x3d602cd1	0.05473024
25	0xbd8291b3	-0.06375446
26	0x3e07cb1d	0.13261075
27	0x3cb1cec8	0.021705046
28	0x3e250c86	0.16118059
29	0xbda769eb	-0.08174499
30	0x3dd3b18b	0.10336598
31	0xbe7db44d	-0.2477581
32	0x3e256253	0.16150789
33	0x3d87738d	0.066138364
34	0x3c680b6e	0.014162881
35	0x3e147bd0	0.14500356
36	0x3e404b56	0.18778738
37	0x3e4d60a0	0.20056391
38	0xbd38a357	-0.045077648
39	0x3d638574	0.055547193
40	0xbc0d2b59	-0.008616292
41	0x3d8afb7b	0.06786247
42	0x3ea38cef	0.3194346
43	0x3dd51fb1	0.10406435
44	0x3dfe28df	0.12410139
45	0xbe2c86a0	-0.1684823
46	0x3de4cbde	0.11171697
47	0xbd5a9c53	-0.05337174
48	0xbd87e515	-0.06635491
49	0xbc59efe0	-0.01330182
50	0x3df24426	0.118294045
51	0xbe32c97e	-0.17459676
52	0x3e605fae	0.21911499
53	0xbdc49065	-0.095978536
54	0xbe3d0f3b	-0.18462841
55	0xbdf9eba4	-0.12203148
56	0x3dbc20ef	0.09185969
57	0x3e28fdd7	0.16503082
58	0xbd779c34	-0.0604517
59	0xbdd1a16f	-0.10235869
60	0xbddf9dab	-0.10918745
61	0x3e3d2091	0.18469454
62	0xbd44d362	-0.048053153
63	0xbe05e8da	-0.13077107
64	0x3d61c58e	0.055120043
65	0x3d8da19d	0.06915591
66	0xbe72b361	-0.2370124
67	0xbd0c9f39	-0.034331534
68	0x3dbbb460	0.09165263
69	0x3e6c1f7a	0.23058882
70	0xbbbf4a78	-0.005837735
71	0x3ddadc70	0.10686576
72	0x3e0974dd	0.13423486
73	0xbe61f90a	-0.22067657
74	0x3c27d725	0.010244166
75	0xbd723dd6	-0.059141003
76	0xbea8da98	-0.32979274
77	0xbd60ef37	-0.054915633
78	0xbd818b05	-0.06325344
79	0xbc5d0cb9	-0.013491803
80	0x3d7b906c	0.06141703
81	0xbd81b8cd	-0.06334076
82	0x3e15cfc2	0.14630035
83	0x3d27b488	0.040943652
84	0x3e823997	0.25434563
85	0xbce531d6	-0.027977865
86	0xbe2c5521	-0.16829349
87	0xbe495be6	-0.19663963
88	0x3d971647	0.07377296
89	0x3e0249e9	0.12723507
90	0xbd8368f2	-0.06416501
91	0x3c1999f1	0.009375081
92	0xbe5af4ee	-0.21382496
93	0xbe13490c	-0.14383334
94	0x3d5f2364	0.05447711
95	0xbe04a622	-0.12954
96	0xbc7580d7	-0.014984331
97	0x3e16c0d0	0.1472199
98	0xbe14934d	-0.14509316
99	0xbd124add	-0.035715926
100	0xbc9c97b5	-0.019115308
101	0x3de3e2ee	0.11127268
102	0xbd5b591c	-0.05355178
103	0x3d3be111	0.045868937
104	0xbd4a5e8a	-0.049406566
105	0x3ce81923	0.028332299
106	0x3d9da053	0.07696595
107	0xbdc100cd	-0.09423981
108	0x3e2f823a	0.17139521
109	0x3e3d9ab2	0.18516043
110	0x3db67276	0.089085504
111	0xbe4d945b	-0.20076124
112	0xbe5d8ce0	-0.21635771
113	0xbd8f853a	-0.07007833
114	0x3e7953d2	0.24348381
115	0xbe9ade45	-0.30247703
116	0x3e95f605	0.2928926
117	0x3d3bf353	0.04588635
118	0xbe3776af	-0.17916368
119	0xbe8866f0	-0.26641035
120	0x3e27cbab	0.16386287
121	0x3d0b9873	0.034080934
122	0x3e946fca	0.28991538
123	0xbe42b6dd	-0.1901507
124	0xbe91f730	-0.28508902
125	0xbdfa8cfb	-0.12233921
126	0xbe3613ca	-0.17780986
127	0xbe145240	-0.14484501
128	0xbe45a24c	-0.19300193
129	0xbd8b6b92	-0.06807627
130	0xbb9c2595	-0.0047652223
131	0x3d40dda8	0.047086388
132	0xbd269a7a	-0.040674664
133	0x3e491e46	0.19640455
134	0x3e18b597	0.14913021
135	0x3e95a903	0.29230508
136	0x3c8fd915	0.017559567
137	0x3e3363f1	0.17518593
138	0x3c99ed3d	0.018789882
139	0xbdc7dfc3	-0.09759476
140	0xbdcc95c8	-0.09989506
141	0x3c666d50	0.014064148
142	0x3d1f0324	0.038821355
143	0x3e92f19f	0.28699967
144	0x3de8e0ba	0.11370988
145	0x3e86756c	0.2626146
146	0x3e1d29a3	0.15347914
147	0x3dc7cfaf	0.097564094
148	0x3e9c6d95	0.30552354
149	0x3e102ae5	0.14078863
150	0xbe743827	-0.23849545
151	0x3d60ece3	0.054913413
152	0xbdf7a850	-0.1209265
153	0x3e9ac059	0.30224875
154	0xbe1f94e6	-0.15584144
155	0x3cd727c0	0.026264071
156	0x3d836e36	0.064175054
157	0x3c88f71f	0.016719399
158	0x3e590c4b	0.21196096
159	0x3e3b7a13	0.18308286
160	0x3e1cb13a	0.15301982
161	0x3e8596a2	0.26091486
162	0xbe4c5f18	-0.1995815
163	0x3e177926	0.14792308
164	0x3d509634	0.050924495
165	0x3e1d6ac9	0.15372767
166	0xbe9925e5	-0.29911724
167	0x3e1a53fe	0.15071103
168	0xbe1da4eb	-0.15394942
169	0x3db3726a	0.08762057
170	0x3e4bf16a	0.19916311
171	0x3e949c84	0.29025662
172	0x3b0e7343	0.0021736182
173	0xbe2fb60e	-0.17159292
174	0x3da66447	0.08124595
175	0x3c2c63e1	0.01052186
176	0x3d599a36	0.053125583
177	0xbdd1d747	-0.10246139
178	0xbd9f610b	-0.07782181
179	0x3da05dce	0.07830392
180	0xbe910b9b	-0.28329167
181	0x3c5794cf	0.013158037
182	0xbc122247	-0.008919305
183	0x3d83fac1	0.06444312
184	0x3dddb366	0.10825233
185	0x3e06946e	0.13142559
186	0x3da72abb	0.08162447
187	0x3e191074	0.14947683
188	0x3d89c2f2	0.06726636
189	0x3e31310b	0.17303865
190	0x3d78d5b7	0.06075069
191	0x3eb70d02	0.35752112
192	0x3df1cc52	0.11806549
193	0xbe853cd7	-0.2602298
194	0xbe893ff5	-0.26806608
195	0xbd5976a1	-0.05309165
196	0x3e1c44a4	0.1526056
197	0x3e5ee53b	0.21767132
198	0xbde85e94	-0.11346164
199	0x3d87d519	0.06632442
200	0xbdadfbbd	-0.08495281
201	0xbdd6da9e	-0.10490917
202	0x3e243237	0.1603478
203	0x3d21bb97	0.03948554
204	0xbe3419e8	-0.17588007
205	0xbc791421	-0.015202553
206	0xbde6395d	-0.1124141
207	0x3d758205	0.05993845
208	0xbd04cd30	-0.032422245
209	0xbe1127d5	-0.14175351
210	0x3e826e01	0.2547455
211	0x3cb068a1	0.021534266
212	0xbdc84e47	-0.09780555
213	0xbe2e607f	-0.17028998
214	0x3be6b20d	0.0070402683
215	0x3de37ab1	0.11107386
216	0x3e0b9c5d	0.13633867
217	0xbe1ffce2	-0.15623811
218	0x3e8dea3b	0.27717766
219	0x3d4012d9	0.046892975
220	0x3dc2709a	0.09494133
221	0x3da07678	0.07835096
222	0xbe01937b	-0.12653916
223	0x3e40a294	0.18812019
224	0x3d00a5a0	0.031407952
225	0x3e84986d	0.25897542
226	0xbb83d947	-0.004023704
227	0xbe099bcc	-0.13438338
228	0xbd80abd6	-0.06282775
229	0xbe67e89f	-0.22647332
230	0xbe551c61	-0.20811607
231	0x3ed7872b	0.42095312
232	0xbdd7b1f0	-0.10531986
233	0x3df8a8e8	0.12141591
234	0xbdff0ebc	-0.12453982
235	0xbdf5de5b	-0.120053016
236	0xbe95197a	-0.29121
237	0xbde0477e	-0.10951136
238	0xbe0d13ce	-0.13777086
239	0xbe236b80	-0.15958977
240	0xbc69c97e	-0.014269231
241	0x3d93093a	0.07179494
242	0xbdec5c8d	-0.1154109
243	0xbda01309	-0.07816131
244	0x3ee5b5e0	0.44865322
245	0xbd47810b	-0.04870705
246	0xbe7a173a	-0.24422923
247	0x3e3999bc	0.18125051
248	0xbeccc34c	-0.3999275
249	0xbd2ffea5	-0.042967457
250	0xba917e37	-0.0011100237
251	0x3da0ff93	0.07861247
252	0x3d5181b9	0.051149104
253	0xbd966c43	-0.07344868
254	0x3d66e1a7	0.056367543
255	0x3e13b090	0.14422822

conv2.conv.6.weight f4 [32, 32, 1, 1]
0	0x3dd6f949	0.10496766
1	0xbd659dc5	-0.056058664
2	0x3d7ca3c9	0.061679635
3	0x3eb6b35c	0.35683715
4	0x3e0e27db	0.13882391
5	0xbd0e3056	-0.034714065
6	0xbd5e3e05	-0.054258365
7	0x3d43c242	0.04779268
8	0xbd4001c1	-0.046876673
9	0x3eaeab3e	0.34115022
10	0xbeaef2b0	-0.3416953
11	0xbda1ac89	-0.078942366
12	0x3e7905c2	0.24318603
13	0xbe112b48	-0.14176667
14	0x3d8edeb7	0.06976073
15	0xbdc0cb88	-0.094138205
16	0xbddb91de	-0.10721181
17	0x3daaeead	0.08346305
18	0x3e0fc558	0.14040124
19	0xbd8f94b3	-0.07010784
20	0xbec5e190	-0.38648653
21	0x3d8879c7	0.06663852
22	0x3dbe0ad3	0.09279408
23	0xbe258bf2	-0.16166666
24	0xbb4c240c	-0.0031149415
25	0xbe1c10b9	-0.15240754
26	0x3cca6883	0.024708038
27	0xbd780bb1	-0.060558025
28	0xbe0f241f	-0.13978623
29	0x3d914b9a	0.07094498
30	0x3e2b763d	0.16744323
31	0x3e707269	0.23481144
32	0x3d97a183	0.07403853
33	0x3de0cdf3	0.10976782
34	0x3e022390	0.12708879
35	0x3d2e27c6	0.0425184
36	0xbe9f73ef	-0.31143138
37	0xbdc15bee	-0.09441362
38	0x3e80c9e0	0.25154018
39	0xbecb3594	-0.39689314
40	0xbd1d47f4	-0.038398698
41	0xbeb3a657	-0.35087845
42	0x3c8f2e43	0.017478114
43	0x3ebe1510	0.37125444
44	0xbdf76ad7	-0.12080925
45	0x3ba4bec6	0.005027625
46	0x3ea17f53	0.31542453
47	0xbbf12a8d	-0.007359809
48	0xbe2fcc45	-0.17167766
49	0xbe4da9c3	-0.2008429
50	0x3c8f5c5f	0.0175001
51	0xbdbc32a9	-0.0918935
52	0x3d42b162	0.047532447
53	0x3e33e4e7	0.17567788
54	0xbd59543a	-0.05305884
55	0xbdafac0b	-0.085777365
56	0x3d274620	0.04083836
57	0x3e41c1a3	0.18921523
58	0xbe1cafdf	-0.15301464
59	0xbe93ecdd	-0.2889165
60	0xbcc14c1f	-0.023595868
61	0x3e89d333	0.26918945
62	0xbea824ae	-0.32840484
63	0x3c4dea4e	0.01256807
64	0xbe899286	-0.268696
65	0xbd7b45f9	-0.061346028
66	0xbd9dc243	-0.07703068
67	0xbe56cd56	-0.20976767
68	0xbddf3dd4	-0.10900465
69	0xbba00f62	-0.0048846463
70	0xbd506d8e	-0.05088573
71	0xbe67e772	-0.22646883
72	0x3dd3b3c1	0.1033702
73	0xbec6402b	-0.3872083
74	0x3ce76129	0.028244572
75	0x3d524413	0.051334452
76	0xbe1c15fb	-0.1524276
77	0xbe643336	-0.2228516
78	0x3e0c75fe	0.13716885
79	0xbe730abc	-0.23734564
80	0xbde11a1c	-0.10991308
81	0xbe3adbe6	-0.18247947
82	0xbdc00131	-0.09375227
83	0xbd8b0fd7	-0.067901306
84	0xbe72808f	-0.23681854
85	0x3c1d793c	0.009611424
86	0xbee8a4c5	-0.4543821
87	0xbdeb04ef	-0.114755504
88	0x3ca629d4	0.020283617
89	0xbd4a8ad9	-0.04944882
90	0xbdc7ac9a	-0.09749718
91	0xbdf4534a	-0.11929949
92	0xbeb2a148	-0.34888673
93	0xbdce85cf	-0.10084116
94	0xbe4ef85b	-0.20211928
95	0x3b87db57	0.0041460204
96	0x3e6d3538	0.23164833
97	0x3e1ac43f	0.15113924
98	0x3e81cf66	0.25353545
99	0xbdd17567	-0.10227471
100	0xbb0817e8	-0.0020766202
101	0x3ddb92f7	0.10721391
102	0x3e52e0f8	0.20593631
103	0x3d666a04	0.056253448
104	0xbdf75617	-0.12076967
105	0x3e06c4ae	0.13160965
106	0xbe28fd08	-0.16502774
107	0x3db0270c	0.086011976
108	0x3e19b013	0.15008573
109	0x3dd0a69a	0.10188027
110	0xbd90569b	-0.07047769
111	0x3ebda107	0.37036917
112	0x3db0542a	0.08609803
113	0xbe21a738	-0.15786445
114	0x3d95554d	0.072916605
115	0xbe630581	-0.22170068
116	0x3dc80750	0.0976702
117	0x3dddbbeb	0.10826858
118	0xbe05bde4	-0.13060719
119	0xbe0c01af	-0.13672517
120	0x3e0e8302	0.13917163
121	0x3e3ba522	0.18324712
122	0xbe109d2b	-0.14122455
123	0xbd24835b	-0.040164333
124	0x3e06ee74	0.131769
125	0x3e118371	0.14210297
126	0x3d16a650	0.0367797
127	0x3dd0fd4a	0.10204561
128	0xbdbfd748	-0.093672335
129	0xbe3f00df	-0.18652676
130	0xbe2ddc43	-0.16978554
131	0xbdf97b19	-0.12181682
132	0xbe062e22	-0.13103536
133	0xbde1d66e	-0.11027227
134	0xbe1c7700	-0.1527977
135	0x3dea8b78	0.11452383
136	0x3dba0b77	0.09084218
137	0x3e024f7e	0.12725636
138	0x3d83aa00	0.06428909
139	0xbcf6caab	-0.030125936
140	0xbc4a30c0	-0.0123407245
141	0x3e091afd	0.13389201
142	0xbbe23891	-0.006903716
143	0x3e96b5e4	0.29435647
144	0x3daf0b3d	0.085470654
145	0x3c9cb72b	0.01913031
146	0x3dd9ba6d	0.10631261
147	0x3e4ce8aa	0.2001063
148	0x3973c4dd	0.00023247623
149	0x3be72923	0.0070544644
150	0x3c4e0bb4	0.012576032
151	0x3e51ce94	0.2048896
152	0xbe181da5	-0.14855058
153	0xbdd13d60	-0.102167845
154	0x3e29526d	0.16535349
155	0x3cf84a63	0.030308908
156	0x3e1c2527	0.15248547
157	0x3e0fb6d8	0.14034593
158	0x3dca569f	0.09879803
159	0xbeca8026	-0.39550894
160	0x3d9084bb	0.07056566
161	0xbc99d176	-0.018776637
162	0x3bec7d87	0.0072171125
163	0x3cf39d74	0.029738165
164	0xbcba4f9f	-0.022743044
165	0x3b4b3384	0.0031006048
166	0xbd1cadbf	-0.038251635
167	0xbf18d8ef	-0.59706014
168	0x3e0d13e7	0.13777123
169	0xbd22692d	-0.039651085
170	0x3dbdba5a	0.09264059
171	0xbe002e27	-0.12517606
172	0x3de2c29f	0.11072277
173	0x3e80a13e	0.25123018
174	0xbe118bf8	-0.1421355
175	0x3df4ab6e	0.1194676
176	0xbe386303	-0.1800652
177	0x3c3a1106	0.011356598
178	0x3b91e959	0.004452866
179	0xbd8249cb	-0.06361731
180	0x3bd0cbe4	0.006371962
181	0xbaa569a9	-0.001261999
182	0x3e8651f7	0.2623441
183	0xbde7bd63	-0.113154195
184	0xbd941c5a	-0.0723197
185	0xbd8e088a	-0.069352224
186	0x3e032630	0.12807536
187	0x3e0074db	0.12544577
188	0x3e68c8bc	0.22732824
189	0xbc9d4c3d	-0.019201392
190	0x3dd0c2f8	0.10193437
191	0xbdd139e9	-0.102161236
192	0xbdef6aa6	-0.116902635
193	0xbda82cd7	-0.082116775
194	0xbe0fedd2	-0.14055565
195	0x3babf142	0.005247266
196	0xbc83b9d2	-0.016079817
197	0xbdcf7252	-0.10129227
198	0x3c90c630	0.017672628
199	0xbde76219	-0.112980075
200	0x3c24d884	0.010061387
201	0xbb758379	-0.0037462397
202	0x3e252b5b	0.1612982
203	0x3c93c62f	0.018038837
204	0xbda7ecb6	-0.08199446
205	0x3e31afc1	0.17352201
206	0x3d4736bf	0.048636194
207	0x3e9d1307	0.3067858
208	0x3e9de04d	0.3083519
209	0xbd9b4611	-0.075817235
210	0x3e91a0e5	0.28443065
211	0x3d81bfbd	0.06335399
212	0x3d381106	0.04493811
213	0xbdad38f8	-0.084581316
214	0xbd57578b	-0.05257372
215	0x3e370253	0.1787198
216	0xbdfb0e46	-0.12258582
217	0xbd7b266b	-0.061315935
218	0x3e2160a1	0.15759517
219	0xbcdb7430	-0.026788801
220	0xbba636c3	-0.005072446
221	0x3ecf39b9	0.40473726
222	0xbe186741	-0.14883138
223	0xbc9a0038	-0.018798932
224	0x3c1ba655	0.009500106
225	0x3cbf6c0f	0.023366956
226	0xbe1c8cfc	-0.15288156
227	0xbb47b9b4	-0.0030475678
228	0x3d641660	0.0556854
229	0xbdec02de	-0.115239844
230	0xbc622b3d	-0.013804254
231	0xbdae140d	-0.08499918
232	0x3e9032f0	0.28163862
233	0x3d16e9c5	0.036844034
234	0x3e0f9fc7	0.14025794
235	0xbd7dd581	-0.06197119
236	0xbd731aa5	-0.059351582
237	0x3dc2d95a	0.09514113
238	0x3e16f77a	0.14742842
239	0x3d87e10c	0.06634721
240	0xbd59d351	-0.053180043
241	0xbbc71b21	-0.006076232
242	0xbd3bd10b	-0.045853656
243	0x3e674624	0.2258535
244	0x3e5f8c32	0.21830824
245	0xbda861ad	-0.08221755
246	0x3e1a4314	0.15064651
247	0x3df4e2d4	0.119573265
248	0x3d243e71	0.04009861
249	0xbe470077	-0.19433771
250	0xbd3800bf	-0.044922587
251	0xbd1cd1b8	-0.03828594
252	0x3dceeb68	0.10103494
253	0x3d028953	0.031869244
254	0x3d836209	0.06415183
255	0xbd8e0c23	-0.06935909

conv3.conv.3.weight f4 [64, 64, 1, 1]
0	0x3c045524	0.00807694
1	0x3e191cbc	0.14952368
2	0xbe0cfced	-0.13768359
3	0xbc6d83f9	-0.014496797
4	0x3e7b7142	0.24554923
5	0xbe33d42a	-0.17561403
6	0x3db4ccfd	0.08828161
7	0x3ddfdb3d	0.10930488
8	0x3bd5cb75	0.006524498
9	0xbea1126f	-0.31459376
10	0xbce53159	-0.027977632
11	0xbe243afc	-0.16038126
12	0xbd2957cb	-0.04134349
13	0x3e52c075	0.20581229
14	0x3bfbd635	0.0076854476
15	0xbdb6b3be	-0.08921002
16	0xbe6cd0c1	-0.23126508
17	0xbe37a134	-0.17932588
18	0xbda0db7b	-0.078543626
19	0x3e8626a7	0.26201364
20	0x3e03bac4	0.12864214
21	0xbe6a0401	-0.2285309
22	0x3e945b45	0.28975883
23	0xbe06581e	-0.13119552
24	0x3d5da078	0.054108113
25	0x3e3a2418	0.18177831
26	0xbe7777ca	-0.2416679
27	0xbda78579	-0.08179755
28	0xbce4f378	-0.027948126
29	0x3d3b58da	0.045739032
30	0xbd2021d3	-0.039094757
31	0x3c8478b2	0.016170833
32	0xbcbbbef2	-0.022918198
33	0x3d783f5a	0.06060729
34	0x3d39ea1a	0.045389272
35	0x3e53fcf1	0.20701958
36	0xbdc39e78	-0.0955171
37	0x3d8f7207	0.07004171
38	0x3ecdae5b	0.40172085
39	0x3cdc051c	0.026857905
40	0xbde4cacb	-0.11171492
41	0xbd70fc43	-0.058834326
42	0xbdcc414b	-0.09973391
43	0xbd58d86d	-0.052940775
44	0x3db4645b	0.08808204
45	0xbce46c03	-0.027883535
46	0xbd9add10	-0.075616956
47	0xbe08c777	-0.1335734
48	0xbe00a688	-0.12563527
49	0x3dc363b3	0.095405005
50	0x3dadb6d5	0.08482138
51	0xbe662da4	-0.22478348
52	0x3c70b787	0.014692194
53	0xbda0b345	-0.07846693
54	0x3dbc86b8	0.09205383
55	0x3c5a3094	0.013317246
56	0x3d27cc17	0.04096612
57	0x3dc39d2f	0.09551465
58	0x3dcef31e	0.10104965
59	0x3d91357a	0.07090278
60	0x3e2a34bc	0.16621679
61	0x3dcafac0	0.09911108
62	0x3cce2eb7	0.02516876
63	0x3e2b4667	0.16726075
64	0xbcb59a18	-0.022168204
65	0x3df4839a	0.119391635
66	0xbd9331a9	-0.07187206
67	0xbc640deb	-0.013919334
68	0xbce3e802	-0.02782059
69	0x3de02498	0.1094448
70	0x3e8fcec8	0.2808745
71	0x3e2820ac	0.16418713
72	0xbc617ca5	-0.013762628
73	0xbb0f5b36	-0.0021874434
74	0xbe107a7d	-0.14109226
75	0x3cbb1057	0.02283494
76	0xbddf9b30	-0.109182715
77	0xbca15cf4	-0.019697644
78	0x3d81eb82	0.06343748
79	0x3e32f0ff	0.17474745
80	0xbb404f52	-0.0029344154
81	0x3dd84b01	0.10561181
82	0x3e49063c	0.19631284
83	0x3cb0dd7e	0.02158999
84	0x3d566f7b	0.05235241
85	0xbc05ddd0	-0.00817056
86	0x3d7bfd02	0.061520584
87	0xbd9b89b8	-0.07594627
88	0x3e0410ab	0.12896983
89	0xbca0a6ff	-0.01961088
90	0x3d2704da	0.04077611
91	0x3d7c4d5d	0.061597217
92	0xbd1c3477	-0.038135972
93	0x3e242664	0.1603027
94	0xbd4b848a	-0.049686946
95	0x3dc3d4c5	0.09562067
96	0x3e0fdfeb	0.14050262
97	0xbca03b7d	-0.019559616
98	0xbe07b867	-0.13253938
99	0x3d2cff2d	0.042235542
100	0xbe1a4a09	-0.15067305
101	0x3d8a433d	0.06751106
102	0xbd9c3c6e	-0.076287135
103	0x3dd072de	0.10178159
104	0xbe21b49d	-0.15791555
105	0x3d4ff80c	0.050773665
106	0x3ab66a35	0.001391715
107	0x3d978ffa	0.07400508
108	0xbd3e0a20	-0.046396375
109	0x3d1ca950	0.038247406
110	0x3dc326dd	0.09528897
111	0x3c3cd66b	0.011525731
112	0xbdd38899	-0.10328788
113	0x3d9d1d47	0.076716
114	0xbd5fbe56	-0.054624878
115	0xbd8e23c7	-0.06940418
116	0x3db174f3	0.086648844
117	0x3ea3f3e4	0.3202201
118	0x3d529f49	0.051421437
119	0xbd7951af	-0.060868915
120	0xbdd67edf	-0.104734175
121	0xbe021371	-0.12702729
122	0xbe493704	-0.19649893
123	0x3d6817ea	0.05666343
124	0x3e221337	0.15827642
125	0xbbcff780	-0.006346643
126	0x3c49ac7e	0.012309192
127	0x3e7637e1	0.24044754
128	0xbe81b46d	-0.25332966
129	0x3e82b09e	0.25525373
130	0xbce76999	-0.028248595
131	0xbdc86c9a	-0.09786339
132	0xbca4ba1f	-0.02010828
133	0x3cd58f2b	0.026069244
134	0x3e5343c1	0.20631315
135	0xbdb3b637	-0.08774989
136	0x3e25f300	0.16205978
137	0xbe6bf8cb	-0.23044126
138	0xbdd0a738	-0.101881444
139	0x3d9859a1	0.0743897
140	0x3e2f4a4a	0.17118183
141	0x3c96af34	0.01839409
142	0x3dc8d251	0.0980574
143	0x3e5db571	0.21651246
144	0xbaa96e5b	-0.0012926565
145	0xbb11ec7a	-0.0022266195
146	0x3e8794d6	0.2648074
147	0x3d175ba5	0.036952633
148	0xbd61282e	-0.05496996
149	0x3ccdb331	0.02510986
150	0x3d509943	0.05092741
151	0xbe3a9f2a	-0.18224779
152	0xbd393d5c	-0.045224532
153	0x3c6e241f	0.014534979
154	0x3e4ed351	0.20197798
155	0xbd110843	-0.03540827
156	0x3dc19d3a	0.09453817
157	0xbe15cb7e	-0.14628407
158	0xbd6a617b	-0.05722187
159	0xbcc7e8f1	-0.024403067
160	0x3d9e599d	0.07731936
161	0xbe632891	-0.22183444
162	0xbc85c95e	-0.01633137
163	0x3e5441c1	0.20728208
164	0x39c8b48e	0.00038281496
165	0x3e35c73e	0.17751786
166	0xbc9240a6	-0.017853092
167	0xbb243200	-0.0025054216
168	0x3b339cab	0.0027406614
169	0xbb04b85b	-0.0020251486
170	0xbd627a83	-0.055292618
171	0x3dc2813e	0.09497307
172	0x3dc958c6	0.09831385
173	0x3e19a5be	0.15004632
174	0x3cd8fbe3	0.026487296
175	0xbb0fd7f2	-0.0021948782
176	0x3e167be0	0.14695692
177	0x3dc71111	0.09720052
178	0xbd765671	-0.06014103
179	0x3ad4d314	0.0016237223
180	0x3da60d62	0.08108021
181	0x3d4d234b	0.050082486
182	0x3e73435b	0.23756163
183	0xbe18b6a0	-0.14913416
184	0xbd2a4e62	-0.041578658
185	0xbdc336cc	-0.09531936
186	0xbe142124	-0.14465767
187	0xbbc33b33	-0.005957985
188	0x3df16071	0.11785973
189	0x3e2a473f	0.1662874
190	0x3d64b073	0.055832338
191	0xbe15b6c0	-0.14620495
192	0x3e2234fa	0.15840521
193	0xbdc81e70	-0.097714305
194	0xbde09336	-0.10965578
195	0x3d9c3000	0.07626343
196	0x3d91c830	0.07118261
197	0x3c31a693	0.010842937
198	0x3dbb0339	0.09131474
199	0xbcbcb3b9	-0.023034917
200	0xbe4a8362	-0.19776681
201	0xbe4b074a	-0.19827
202	0xbe4a5310	-0.19758248
203	0xbd9440d1	-0.07238925
204	0xbe83f745	-0.2577459
205	0x3e09e439	0.13465966
206	0x3da20dc1	0.079127796
207	0x3e80d618	0.2516334
208	0xbd03b068	-0.032150656
209	0x3e88b6a6	0.2670185
210	0xbd96d7a0	-0.07365346
211	0x3d9b194f	0.075731866
212	0xbe66367f	-0.22481726
213	0x3dd762b3	0.10516872
214	0xbdeedef0	-0.11663616
215	0xbdf65dbf	-0.120295994
216	0x3e0103c1	0.12599088
217	0xbcf1d287	-0.029519333
218	0x3d5d0856	0.053963028
219	0xbe61c0b4	-0.22046167
220	0xbe233f85	-0.159422
221	0x3d7efda7	0.06225362
222	0xbe90304f	-0.28161857
223	0xbdf0c613	-0.1175653
224	0xbe10c8f4	-0.14139158
225	0x3d0306ec	0.031989023
226	0xbe6327d3	-0.2218316
227	0xbe1b8090	-0.15185761
228	0xbe0df0b5	-0.13861354
229	0xbd851848	-0.06498772
230	0xbe00cd81	-0.12578394
231	0x3d0516f6	0.0324926
232	0xbe8dceac	-0.2769674
233	0x3d31fe2b	0.043455284
234	0xbddcdf4c	-0.10784778
235	0x3d8b2f9b	0.067961894
236	0xbdecd35b	-0.1156375
237	0x3dd8d1bd	0.105868794
238	0x3d720219	0.05908403
239	0xbdd773da	-0.10520144
240	0x3d3f3120	0.04667771
241	0xbcd0934a	-0.025460858
242	0xbdbe4e18	-0.09292239
243	0x3bb4debd	0.0055197165
244	0xbe5c3ea1	-0.21508266
245	0xbaa4eec7	-0.0012583368
246	0x3e3a2c7a	0.18181029
247	0x3e0df752	0.13863876
248	0xbdf5fe6e	-0.12011419
249	0x3dc60bd8	0.09670228
250	0xbd86541f	-0.065590136
251	0x3cdb34fe	0.026758667
252	0xbd6f0014	-0.058349684
253	0x3d0beb58	0.03415999
254	0xbde48595	-0.11158291
255	0xbd814c91	-0.06313432

conv3.conv.6.weight f4 [64, 64, 1, 1]
0	0xbcb8db59	-0.02256553
1	0x3e3bdbbf	0.18345545
2	0x3d85c7e3	0.06532266
3	0x3e844e88	0.25841165
4	0x3c2a867e	0.010408042
5	0x3d8fb633	0.070171736
6	0xbe040941	-0.12894155
7	0x3dff473f	0.12464761
8	0x3d7042be	0.0586574
9	0x3db15553	0.086588524
10	0x3c4dfa76	0.012571922
11	0x3d1f8b8e	0.03895145
12	0x3d00375a	0.031302787
13	0xbe08f35e	-0.13374087
14	0xbc92136d	-0.017831529
15	0x3d7f42d2	0.062319584
16	0x3e533c29	0.20628418
17	0xbe1147ad	-0.14187498
18	0x3c3b08fa	0.011415714
19	0x3d9d049a	0.07666893
20	0xbcf5f688	-0.030024782
21	0x3e8d2ebf	0.27574727
22	0x3ba1513b	0.0049230135
23	0xbd0ccdda	-0.034376003
24	0xbd240a03	-0.04004861
25	0xbe51c497	-0.2048515
26	0x3c49acf7	0.012309304
27	0xbe448302	-0.191906
28	0x3e0c784f	0.13717769
29	0xbd88cd83	-0.06679823
30	0x3dffc70d	0.12489138
31	0xbe1fbaef	-0.15598653
32	0xbe8db028	-0.2767346
33	0x3d235f2e	0.039885692
34	0x3e0d7de8	0.1381756
35	0x3e07f52f	0.13277124
36	0xbe422283	-0.18958478
37	0xbc894f6e	-0.016761508
38	0x3d2f916a	0.042863287
39	0x3d4cdfec	0.050018236
40	0x3cbb6001	0.022872927
41	0x3d906800	0.070510864
42	0xbb30e916	-0.0026994399
43	0xb84f48f0	-4.9420574e-05
44	0x3e30d868	0.17270052
45	0x3db25e8e	0.08709441
46	0x3e723d2e	0.2365615
47	0xbdd7264f	-0.10505354
48	0x3d3baebc	0.045820937
49	0xbba23efb	-0.0049513555
50	0x3b799f93	0.0038089498
51	0xbd1a38c6	-0.0376518
52	0x3cfe049d	0.03100806
53	0xbd9c1226	-0.07620649
54	0x3dfabcce	0.12243043
55	0x3e358294	0.17725593
56	0x3e46ee3f	0.19426821
57	0xbd0d1222	-0.03444112
58	0xbccc81c7	-0.024964226
59	0xbd8e3726	-0.069441125
60	0x3c2bc8d1	0.01048489
61	0xbdbb9e68	-0.09161073
62	0x3e77d1d1	0.24201132
63	0x3c098662	0.008393856
64	0xbd8395d7	-0.06425064
65	0x3dc28fa1	0.09500051
66	0x3d0008b6	0.031258307
67	0x3d694d4f	0.056958493
68	0xbd158fb9	-0.036514018
69	0x3d962648	0.0733152
70	0xbccb3b0b	-0.024808427
71	0x3e0fb245	0.14032848
72	0x3e7d5e2e	0.24742958
73	0xbca39dc6	-0.019972693
74	0x3d1b6e89	0.03794721
75	0xbde4bee1	-0.1116922
76	0xbd995fe3	-0.07488992
77	0x3df55ae2	0.11980225
78	0xbe078633	-0.13234787
79	0xbd83ccf4	-0.06435576
80	0x3e0db492	0.13838413
81	0x3ce35a19	0.027752923
82	0x3e611eb7	0.21984373
83	0x3ddc3ddc	0.10753986
84	0xbd542ea9	-0.05180231
85	0x3e08d957	0.13364159
86	0x3e04d586	0.12972078
87	0xbd8dd3c4	-0.06925157
88	0x3df528bc	0.1197066
89	0xbc6ef6f5	-0.014585246
90	0x3d6828df	0.056679603
91	0xbd79efeb	-0.06101982
92	0x3e4e0b64	0.20121533
93	0x3d557913	0.05211742
94	0xbddfdb85	-0.10930542
95	0xbcf22d95	-0.02956275
96	0xbe0723d9	-0.13197269
97	0xbd11fb50	-0.03564006
98	0x3d3e7057	0.046493854
99	0x3dc23869	0.09483416
100	0xbc40e6f3	-0.011773813
101	0x3e261f47	0.16222869
102	0xbd3f5e5a	-0.04672084
103	0xbd953232	-0.072849646
104	0xbd2c4ef0	-0.04206747
105	0x3e32ca3b	0.17459957
106	0xbe87372f	-0.2640929
107	0xbdd074f2	-0.101785555
108	0x3bddde59	0.0067708907
109	0x3e2687bb	0.16262715
110	0x3e4d0c34	0.20024186
111	0x3dc45d7b	0.095881425
112	0x3c26ffb0	0.010192797
113	0xbd4b05e7	-0.049566176
114	0x3e1c6b95	0.15275414
115	0xbd93af9c	-0.07211229
116	0xbd003850	-0.031303704
117	0xbe44b0c3	-0.19208054
118	0x3d6e0232	0.058107562
119	0x3e45b1b9	0.19306077
120	0x3ddb34e6	0.10703449
121	0x3d96be72	0.07360543
122	0x3e1a33a4	0.15058762
123	0xbdd90751	-0.105970986
124	0xbe85498a	-0.26032668
125	0xbdd18044	-0.10229543
126	0x3de1ae6e	0.11019598
127	0xbe1dbf5d	-0.1540503
128	0x3e29d015	0.16583283
129	0x3d9b0b1e	0.0757048
130	0xbcc6b080	-0.024254084
131	0x3e271dfe	0.16320035
132	0x3c42a8ba	0.011881048
133	0xbc628436	-0.013825467
134	0x3e904bc3	0.28182802
135	0xbd49e48f	-0.049290236
136	0xbe821390	-0.2540555
137	0xbe3cd252	-0.18439606
138	0x3e4c4732	0.19949034
139	0xbd7e4acb	-0.062083047
140	0x3eb5059b	0.3535584
141	0xbdc819b2	-0.09770526
142	0x3e0e185f	0.13876484
143	0x3c97fbb9	0.018552648
144	0xbe149a83	-0.14512067
145	0x3e16031c	0.14649624
146	0x3e560d1e	0.20903441
147	0x3d66cd29	0.056348
148	0xbd8f22e4	-0.06989077
149	0x3e140d0f	0.14458106
150	0x3e9e0c17	0.308686
151	0xbdbfd9d1	-0.09367717
152	0x3e39c74e	0.18142435
153	0xbe106b09	-0.1410333
154	0x3e26bf9a	0.16284028
155	0x3e646df8	0.22307575
156	0xbdfe125c	-0.124058455
157	0x3d968682	0.07349874
158	0xbe8fa7b3	-0.28057632
159	0x3e832de1	0.2562094
160	0xbde1bcc5	-0.11022333
161	0xbc5d4095	-0.013504167
162	0x3d0598d9	0.03261647
163	0x3e2e8a15	0.17044862
164	0x3db034ca	0.08603819
165	0x3e1ab80e	0.15109274
166	0x3df3944e	0.11893521
167	0xbdb9b3a9	-0.090674706
168	0xbe22e876	-0.1590899
169	0x3c84abdd	0.016195232
170	0x3e44d49a	0.19221726
171	0xbe265128	-0.16241896
172	0xbdd16250	-0.1022383
173	0x3d4504e7	0.04810038
174	0x3c70d3c5	0.014698927
175	0xbd048aed	-0.032359052
176	0xbdcfc9dd	-0.10145924
177	0x3bcf725d	0.006330772
178	0x3ca01217	0.019539876
179	0x3e6992a0	0.22809839
180	0xbe3828d1	-0.1798432
181	0x3cc61124	0.024178095
182	0xbe4603dc	-0.1933741
183	0x3dc6c8bd	0.097062565
184	0x3dc3e66c	0.09565434
185	0xbd2e80c3	-0.042603265
186	0x38d34011	0.00010073197
187	0x3c6c6a45	0.0144296335
188	0x3d2a7692	0.041616984
189	0xbeb4165c	-0.3517331
190	0x3e013262	0.12616876
191	0x3e11bb52	0.14231613
192	0xbdaa32d8	-0.08310479
193	0xbdcf8017	-0.10131853
194	0xbe47bcd1	-0.19505621
195	0xbe79350b	-0.2433664
196	0x3de91834	0.113815695
197	0xbdfcacd5	-0.123376526
198	0x3cd88fdd	0.026435787
199	0x3d0517fd	0.03249358
200	0xbdf2c5f5	-0.118541636
201	0xbda82606	-0.082103774
202	0x3de3fb32	0.11131896
203	0x3d433bd1	0.047664467
204	0xbcf189f1	-0.02948472
205	0x3da2381e	0.0792086
206	0x3dc3d034	0.09561196
207	0x3d8b7269	0.068089314
208	0xbdcd62cd	-0.100286104
209	0xbdabed2a	-0.08394845
210	0xbe20966d	-0.15682383
211	0xbd75a441	-0.059971098
212	0xbd44dbd2	-0.0480612
213	0xbe29d2f8	-0.16584384
214	0xbda8ca1e	-0.08241676
215	0x3e9292dd	0.28627673
216	0x3e0e9498	0.13923872
217	0xbd34ac99	-0.044109914
218	0xbcdb2fc8	-0.026756182
219	0x3e1d39e9	0.15354122
220	0xbe7fa6a1	-0.24965908
221	0xbda1cd20	-0.079004526
222	0xbe28df4d	-0.16491432
223	0x3d5675b8	0.05235836
224	0x3d58012d	0.052735496
225	0xbc297fef	-0.010345443
226	0x3cdd1401	0.026987078
227	0xbe537018	-0.20648229
228	0x3e001d4d	0.12511177
229	0x3da06c40	0.07833147
230	0x3e049358	0.12946832
231	0x3deb1e4e	0.114803895
232	0xbb45ca41	-0.0030180367
233	0xbce483c1	-0.027894856
234	0x3dccb557	0.09995525
235	0xbd959baf	-0.07305085
236	0x3da975ca	0.082744196
237	0xbe230c00	-0.15922546
238	0xbe138d10	-0.1440928
239	0xbd144a74	-0.036203817
240	0x3c76b748	0.015058346
241	0xbe247ce0	-0.16063261
242	0xbe44a40a	-0.19203201
243	0xbcc63d3b	-0.024199119
244	0xbb45f9e0	-0.0030208752
245	0x3e01924b	0.12653463
246	0x3ce62266	0.028092574
247	0xbe34f2e3	-0.17670779
248	0xbd57e45b	-0.05270801
249	0xbe81cef6	-0.2535321
250	0xbbc3e3f6	-0.005978103
251	0x3ca5bdc6	0.020232093
252	0x3c94c38f	0.018159656
253	0xbe0f40b3	-0.13989525
254	0xbd829948	-0.06376892
255	0xbddaf2cd	-0.10690842

conv4.0.weight f4 [64, 64, 1]
0	0x3d9d0538	0.07667011
1	0x3dd18160	0.102297544
2	0x3bc3b420	0.0059724003
3	0xbe0511a2	-0.12995008
4	0xbd2870a3	-0.041123044
5	0x3e8e4678	0.27788138
6	0xbcec7ddb	-0.028868606
7	0x3d87baec	0.066274494
8	0x3e11d23a	0.14240351
9	0x3dec5876	0.1154031
10	0x3dba6cbd	0.091027714
11	0x3e83f154	0.25770056
12	0x3cc2a7bb	0.02376162
13	0x3df89eb1	0.12139643
14	0x3dc189cb	0.0945011
15	0x3e78c63e	0.24294373
16	0x3df60fe8	0.120147526
17	0x3e2fb7ea	0.17160001
18	0xbe4b358e	-0.19844648
19	0x3c894fa9	0.016761618
20	0x3d28ef6d	0.04124396
21	0x3d97f407	0.074195914
22	0x3e5f48a6	0.21805057
23	0x3ce3069a	0.027713109
24	0xbd2f60e7	-0.042817023
25	0x3dcc48d2	0.09974827
26	0x3e88eae9	0.26741722
27	0x3e7a3070	0.2443254
28	0xbdad3671	-0.084576495
29	0x3c96ee39	0.01842414
30	0x3d08eb29	0.03342739
31	0x3dda9a0b	0.106739126
32	0x3d4c1c20	0.04983151
33	0x3cc2458d	0.023714805
34	0x3df49687	0.11942773
35	0xbd84b283	-0.06479361
36	0xbe06d944	-0.13168818
37	0xbe231a87	-0.15928088
38	0xbd673d21	-0.05645478
39	0x3dda70d1	0.10666049
40	0x3d516f38	0.051131457
41	0xbcb21f82	-0.02174354
42	0xbe51181e	-0.20419356
43	0x3dbf6bd5	0.09346739
44	0x3cc71681	0.024302723
45	0xbd90ae3f	-0.07064485
46	0x3e6c0af2	0.2305105
47	0x3dbdd69e	0.092694506
48	0x3af2243a	0.0018473931
49	0x3e3973ee	0.1811063
50	0xbe52c298	-0.20582044
51	0x3e02b781	0.12765314
52	0x3da79ac6	0.081838176
53	0x3d8fbf7a	0.07018943
54	0x3e1f875d	0.1557898
55	0xbdd1a12e	-0.10235821
56	0xbcec1fe7	-0.028823806
57	0x3ce34249	0.027741568
58	0xbdb5bcde	-0.08873914
59	0x3d7c1c9a	0.061550714
60	0x3dbfe1a4	0.093692094
61	0xbcbeb1bd	-0.023278112
62	0xbe24ba67	-0.16086732
63	0xbd72df77	-0.059295144
64	0xbe369717	-0.17831074
65	0xbdf949c8	-0.12172276
66	0x3e2e8fc2	0.17047027
67	0xbd867020	-0.06564355
68	0xbd3662d2	-0.044527836
69	0xbdff19ac	-0.124560684
70	0x3e1d7d92	0.15379933
71	0x3d939a1e	0.0720713
72	0x3d2c30d8	0.04203877
73	0xbe578d84	-0.21050078
74	0x3d9f8bee	0.07790361
75	0xbec69c24	-0.38791
76	0xbd2e4268	-0.0425438
77	0xbea1e358	-0.31618762
78	0xbebefffb	-0.37304673
79	0x3c9435f6	0.018092137
80	0xbc45b527	-0.012067116
81	0xbe7a81c5	-0.24463566
82	0x3d287a6b	0.041132372
83	0xbe24b000	-0.16082764
84	0xbc146685	-0.009057646
85	0xbd6fb106	-0.058518432
86	0xbdbead52	-0.09310402
87	0x3e1fe487	0.1561452
88	0xbd773666	-0.060354613
89	0xbdab9b79	-0.083792634
90	0xbdb3a22a	-0.08771165
91	0xbc93ad54	-0.018026985
92	0x3d9eef3b	0.07760473
93	0xbcf1d063	-0.029518312
94	0xbd068cb6	-0.032849036
95	0xbe655cc9	-0.22398676
96	0xbdf342e5	-0.118779935
97	0xb5fe4f8c	-1.8947626e-06
98	0x3d84db2a	0.06487115
99	0x3d8d3ee9	0.06896765
100	0xbe0da72d	-0.13833304
101	0xbbe009bf	-0.0068370993
102	0xbdce6799	-0.100783534
103	0x3e1a339b	0.15058748
104	0xbe5bc7a6	-0.21462879
105	0xbd56ea07	-0.05246928
106	0x3e432f71	0.19061066
107	0xbd2f2b6c	-0.04276602
108	0x3d5a5ff7	0.053314175
109	0x3e0a72d7	0.1352037
110	0xbe4ab3ff	-0.19795226
111	0x3e1b5e15	0.15172608
112	0x3e406ff4	0.18792707
113	0x3cc4255c	0.023943596
114	0xbdab069e	-0.083508715
115	0xbe2f1416	-0.17097506
116	0xbc9cfdd5	-0.019164005
117	0x3ccd2461	0.02504176
118	0xbd929198	-0.07156676
119	0x3e8a0827	0.26959345
120	0xbd34a213	-0.04409988
121	0xbe1ddb9a	-0.15415803
122	0x3ddc2cec	0.10750756
123	0xbdd18fbc	-0.10232493
124	0xbd5db94c	-0.05413179
125	0xbd2bef92	-0.04197652
126	0x3e345e6a	0.17614141
127	0x3e189460	0.1490035
128	0xbd874cbb	-0.06606432
129	0xbe084f18	-0.13311422
130	0x3e1349de	0.14383647
131	0xbc1a4c97	-0.0094176745
132	0xbce79d32	-0.028273199
133	0xbdd5ae78	-0.10433668
134	0xbc81ca35	-0.01584349
135	0x3e452452	0.19252136
136	0xbd9724f1	-0.07380093
137	0xbe23bdad	-0.15990324
138	0x3cec7b07	0.028867258
139	0xbd909fee	-0.07061754
140	0x3e332c2a	0.17497316
141	0x3db0e2a0	0.08636975
142	0xbdd1b925	-0.10240392
143	0x3bbfd743	0.0058545186
144	0xbe203633	-0.15645675
145	0xbd319742	-0.04335714
146	0x3e424cfb	0.18974678
147	0x3de599ab	0.112109505
148	0x3d17b55c	0.037038192
149	0xbe817742	-0.252863
150	0xbd11b8e5	-0.03557672
151	0x3e2c8537	0.16847692
152	0xbd897b0d	-0.06712923
153	0x3e22fe22	0.15917256
154	0xbe4b282c	-0.19839543
155	0xbdcd8fbe	-0.10037182
156	0xbcce0767	-0.025150014
157	0xbd3bc201	-0.045839313
158	0xbe13e67f	-0.14443396
159	0xbdb7a3bc	-0.08966777
160	0xbe5a88ab	-0.21341197
161	0xbe38158d	-0.17976971
162	0xbe75656a	-0.23964468
163	0xbb812bb1	-0.003941976
164	0x3de06eed	0.109586574
165	0x3df0bcb3	0.117547415
166	0x3c69d1a0	0.01427117
167	0xbed97d06	-0.42478198
168	0xba90badf	-0.001104202
169	0xbd228c57	-0.03968462
170	0xbe336e93	-0.1752265
171	0xbe85b4aa	-0.26114398
172	0x3d3df905	0.04638006
173	0x3c97efa2	0.018546883
174	0xbb0db968	-0.0021625403
175	0x3e26b353	0.16279344
176	0x3e023891	0.12716891
177	0xbc84eef3	-0.016227221
178	0x3ddb028b	0.106938444
179	0xbdba73ac	-0.09104094
180	0xbe3408f4	-0.1758154
181	0xbce43484	-0.027857073
182	0xbde9731e	-0.1139891
183	0x3d1b2ec7	0.037886407
184	0xbdb7ff8c	-0.089842886
185	0xbcf898c3	-0.03034628
186	0xbe24a437	-0.16078268
187	0xbd42f656	-0.047598206
188	0xbe23e0c4	-0.1600371
189	0xbe183e3d	-0.14867492
190	0x3db4409c	0.08801386
191	0x3e029c10	0.12754846
192	0xbcf6aa34	-0.030110456
193	0x3bf2f177	0.0074140388
194	0x3d5c7782	0.05382491
195	0x3e270e46	0.16314039
196	0x3e17c0ad	0.14819594
197	0xbe8c0ab2	-0.2735191
198	0xbde50e20	-0.11184335
199	0x3e666b9d	0.22501989
200	0x3de2d656	0.110760376
201	0xbdaf8672	-0.08570565
202	0xbe4a941c	-0.19783062
203	0x3be5afce	0.007009483
204	0xbe229a4c	-0.15879172
205	0xbe4c8c24	-0.19975334
206	0xbe16fc14	-0.14744598
207	0x3e30209a	0.17199937
208	0x3c51bafe	0.01280093
209	0xbdfb91e6	-0.12283687
210	0x3d965ce7	0.073419385
211	0x3e32a4f3	0.17445736
212	0xbe80f686	-0.25188082
213	0xbe2c74f3	-0.16841488
214	0xbdc4bc89	-0.09606273
215	0x3eb3a63b	0.3508776
216	0xbdfad029	-0.12246735
217	0x3dfcf01d	0.123504855
218	0xbdc7cc8b	-0.0975581
219	0x3d9f317c	0.0777311
220	0xbd56fc91	-0.05248696
221	0xbe1b9878	-0.15194881
222	0xbcbf3549	-0.023340838
223	0x3cabcf7e	0.020972963
224	0xbe2b8acb	-0.16752164
225	0x3da8f0c0	0.082490444
226	0xbdaa4b14	-0.08315101
227	0x3e837c9e	0.25681013
228	0xbe14861a	-0.1450428
229	0x3e04061c	0.12892956
230	0xbe3850b7	-0.1799954
231	0xbea36b38	-0.3191774
232	0xbda535cd	-0.08066902
233	0xbe2ce1a0	-0.16882944
234	0x3e7ea855	0.24868901
235	0xbe0a8216	-0.13526186
236	0x3df8f658	0.12156361
237	0xbda4e932	-0.08052291
238	0xbe7be394	-0.24598533
239	0xbdb486a7	-0.088147454
240	0x3e7c8f1f	0.24663971
241	0xbdbcc370	-0.09216964
242	0x3acf5064	0.0015816805
243	0xbe0f458f	-0.13991378
244	0xbd8b7b57	-0.068106346
245	0x3c7b11e3	0.015324089
246	0xbe048024	-0.12939507
247	0x3e0c926b	0.13727729
248	0xbe0ca542	-0.13734916
249	0xbe91f58c	-0.2850765
250	0xbdc82b23	-0.09773853
251	0xbca160f9	-0.01969956
252	0x3d5c9ff9	0.0538635
253	0xbc7ae19e	-0.01531258
254	0x3de4c24d	0.111698724
255	0x3ca65929	0.020306187
