models_slbp+gf/case3_final.pth (torch_old, 110331 bytes, 9 tensors)

conv1.conv.3.weight f4 [32, 32, 1, 1]
000000 b6 6a 0f 3e 61 5f 5c be e3 f2 2b be 0a 70 24 be
       0.1400555 -0.21520759 -0.16791873 -0.16058365
000010 63 94 96 bd 17 3b e6 bd 75 6a 62 3d 25 e6 03 3e
       -0.07352521 -0.11241739 0.055277307 0.12880762
000020 15 08 2d be e0 e0 34 3c 37 66 5f 3b 46 bb 30 be
       -0.16897614 0.0110399425 0.0034088024 -0.17258939
000030 4e 13 86 bd 41 72 97 3c f1 10 6a be d6 4c 5c 3e
       -0.06546651 0.018487098 -0.22858025 0.21513686
000040 6e 11 66 3d 7d 4d f6 bb 27 ed c0 bd 73 46 33 3e
       0.056168966 -0.0075165615 -0.09420233 0.17507343
000050 4f 73 c4 3d d8 27 1f 3e 38 f6 82 3c 5c c5 bd bd
       0.09592306 0.15542543 0.015986547 -0.09266159
000060 bb d4 99 3d 66 d7 1b bd 85 76 0a 3e de 1a 32 be
       0.07511278 -0.038047217 0.13521774 -0.17393062
000070 b1 96 fc bc f0 d5 8f 3d 15 48 e8 bd 79 cf cc 3c
       -0.030833574 0.07023227 -0.113418736 0.025001274
000080 05 7f 53 be 6b b0 99 be cc a5 2b 3e ed 84 be 3d
       -0.20653923 -0.3001741 0.16762465 0.09302697
000090 ae 6e c1 3b 3f 26 31 3d b4 19 ad bc bf 53 8f be
       0.0059030866 0.043249365 -0.02113042 -0.2799358
0000a0 4e ce d0 bd 9f 85 3b be df 5d 28 3e 52 ef 21 3e
       -0.101955995 -0.18312691 0.16442059 0.1581395
0000b0 5c 28 22 bb f9 91 1a be 21 9b 1a be 2d 41 52 3e
       -0.0024743294 -0.15094747 -0.1509824 0.20532675
0000c0 8f 1b 1c 3b 78 f2 89 be d5 97 33 be 65 65 aa bd
       0.0023820137 -0.269428 -0.17538388 -0.08320121
0000d0 5c d5 ff bb 0b b8 10 3e 83 87 1c be 9b a3 a4 ba
       -0.007807417 0.14132707 -0.15286069 -0.0012560965
0000e0 e1 32 d6 3d 1f a2 39 bd 53 15 75 bd 72 1e cb 3d
       0.10458923 -0.045320626 -0.05983479 0.09917916
0000f0 03 e0 eb bd 50 76 3b 3e d1 c8 65 3e e3 f7 c0 bd
       -0.11517336 0.18306851 0.22439887 -0.09422281
000100 cc f3 cc 3d b0 bf 34 3e 8c e3 c1 3d d0 9c b6 3c
       0.10007438 0.17651248 0.09467229 0.02229157
000110 2c 56 02 bd a8 98 a7 3d 9b 29 97 3e 45 f5 49 3d
       -0.03182046 0.08183414 0.2952393 0.049306173
000120 94 45 f6 bc 29 6b 30 3e 5a d8 93 bc f1 3c f0 3d
       -0.030062474 0.17228378 -0.0180475 0.11730374
000130 33 d7 2b be a5 69 ed 3d 42 b8 41 3d 31 05 11 3e
       -0.1678131 0.11592416 0.047294863 0.14162137
000140 e7 ce 4d bd 74 d0 d0 bd 77 b3 01 3e 6d bf 1c 3d
       -0.050246146 -0.10196009 0.12666117 0.038268495
000150 29 68 3e be dd d2 8a bd 16 86 34 3e dd 1d e9 3d
       -0.18594421 -0.067785 0.17629275 0.11382649
000160 e1 75 0f 3c 25 57 93 3d 71 4d 4a be fc 0b aa bd
       0.008756132 0.07194356 -0.19756104 -0.08303067
000170 3e 56 33 be f5 7a 58 b9 8e 6f c5 3d 57 7b 9f bd
       -0.17513368 -0.0002064517 0.09640418 -0.07787197
000180 ae c4 35 3e 7d 2a 75 bd 3b 14 24 be c4 da 83 bd
       0.17750809 -0.059854973 -0.16023342 -0.064382106
000190 64 e7 bf be 7c 91 56 be 5f ea 2b 3d 08 2e 0e 3e
       -0.37481225 -0.20953935 0.04197156 0.13884747
0001a0 3d c9 13 be fe 5a 1a be f5 a1 0e 3e 58 d2 00 3e
       -0.14432235 -0.15073773 0.13928969 0.1258024
0001b0 59 e2 10 3e e2 ba 48 39 48 4a d3 bd b0 de 3a 3d
       0.14148845 0.00019143106 -0.103169024 0.045622528
0001c0 5c 70 b7 bd 3d 3c 12 bd 53 65 fb 3d 2a 43 17 ba
       -0.08956978 -0.03570198 0.122751854 -0.0005770201
0001d0 fb 54 07 3e 16 40 b4 3d 02 7e 9f bd e4 6a 2a 3e
       0.13216011 0.08801286 -0.07787706 0.16642338
0001e0 92 2d 44 3e 10 f5 04 be ee b4 a8 3d 06 4c 9c bd
       0.19158009 -0.12984109 0.082376346 -0.07631688
0001f0 cc 4f b1 3d 2b 02 f8 bd 27 9f bc 3d ac 9b fa 3d
       0.08657798 -0.121097885 0.092100434 0.12236723
000200 73 62 e4 3d 5c 70 4b 3d 33 03 27 3e 98 64 ae 3b
       0.1115159 0.0496677 0.16309814 0.0053220503
000210 77 92 1d 3e 26 89 41 3c 40 b9 96 3d ac b7 df bd
       0.15387903 0.011812484 0.073595524 -0.109237045
000220 a3 d6 12 3e 02 fc f1 bb 83 15 4c be 9a ad f6 bd
       0.1433969 -0.007384778 -0.19930081 -0.120448306
000230 25 bf 92 3e 34 75 20 bb 58 34 46 be 84 cb 08 3e
       0.28661457 -0.002448392 -0.19355905 0.13358885
000240 f8 38 95 bd 4f f1 84 bd b2 e6 79 3e b6 03 9f 3d
       -0.072862566 -0.064913385 0.2440441 0.0776438
000250 73 24 f3 3d ec f5 d9 3d 7f 98 bc bd 67 60 5a 3d
       0.118721865 0.10642609 -0.09208774 0.053314593
000260 36 72 32 be 9b 13 0d bd 40 d1 bd 3e 08 9b d4 bd
       -0.1742638 -0.034442525 0.37073708 -0.10381132
000270 75 b0 a5 3d 80 69 b0 bd 8f 94 e0 bd ca 33 c3 3d
       0.08090297 -0.086138725 -0.10965835 0.09531362
000280 31 a2 8b be c2 5d a6 bc 4d fa 12 3e bd cd c1 3d
       -0.2727218 -0.02030838 0.14353295 0.094630696
000290 56 f6 e4 bd 52 56 72 bc 3d c5 4f 3e 77 82 34 be
       -0.11179797 -0.014791088 0.20290084 -0.17627893
0002a0 8e 77 e8 bd 60 c8 dd 3d b3 27 5c bd d7 0f 22 bd
       -0.11350928 0.10829234 -0.053748798 -0.039565887
0002b0 16 ec 06 bc 44 3b f2 3d f2 be 18 be 2e df 52 3e
       -0.008234998 0.1182771 -0.1491659 0.20592949
0002c0 b8 b4 e5 3c 69 be 03 be c4 82 99 bd 06 5e b5 bd
       0.028040275 -0.12865604 -0.07495645 -0.08855824
0002d0 d9 fe f8 bd 15 5c 97 3d ef 82 06 bd 8b c8 08 bd
       -0.12157983 0.0739061 -0.03283971 -0.033394378
0002e0 97 f0 81 3e d7 77 21 3d 96 97 30 bd 58 50 05 be
       0.25378868 0.03942093 -0.043113314 -0.1301893
0002f0 d7 6a 33 3d ad 74 2e 3d c4 15 da bd 82 4f 57 bc
       0.043803062 0.04259174 -0.10648683 -0.013141515
000300 07 ca 39 be b1 bc 52 3e 1f da b4 3d 0c a6 b6 bd
       -0.18143474 0.20579793 0.08830666 -0.0891839
000310 4d ac 2c be 5f df 6e 3e a3 fc 4a 3d 04 5a 4c 3e
       -0.16862603 0.23327397 0.04955734 0.19956213
000320 15 23 7c 3c dd 5f 10 3d 0b 71 9f 3d b8 50 c1 3d
       0.015389224 0.035247672 0.07785233 0.09439224
000330 b2 e3 8e 3e d1 d3 f2 bc d5 d2 19 3e 8c 6c ad 3d
       0.27908093 -0.029642018 0.15021832 0.08467969
000340 34 4b 03 be 46 f5 1b 3d be d4 6c bd 9c ff 3d 3d
       -0.12821656 0.038075708 -0.057820074 0.046386346
000350 82 ba 0b 3e 91 0d 47 be 53 aa 6a be ec 16 63 be
       0.13645366 -0.19438769 -0.22916536 -0.22176713
000360 cf cf 58 be 02 da 6e 3c dc 81 67 3e ed bc 59 bd
       -0.21173023 0.014578344 0.22608131 -0.05315869
000370 c8 dd b6 bd 6c df 31 bd 7c c4 22 be 8e 84 87 3c
       -0.0892902 -0.043425962 -0.15895265 0.0165427
000380 6f 5d e7 bd 4d 05 4a 3e a0 dc 2d be d1 82 c0 3e
       -0.11297118 0.19728585 -0.16978693 0.37599805
000390 9e 9b 44 3d 37 4b 6e 3e 36 86 60 3d 88 d6 fc 3d
       0.04799997 0.2327088 0.054815494 0.12345606
0003a0 3b ee f5 3d de b8 d8 3d de c9 af bd 7a 49 e5 3c
       0.120083295 0.105821356 -0.08583425 0.027989138
0003b0 65 aa a1 3d c2 10 94 bd 79 57 cc 3d 3a 98 ea 3d
       0.07893828 -0.07229759 0.099776216 0.11454816
0003c0 d3 e2 4b 3d 05 48 03 bd ca 96 88 bd 59 6b 42 3d
       0.049776863 -0.032051105 -0.06669386 0.047465656
0003d0 39 41 18 3d 16 31 61 3c c4 7c 7a 3e 45 89 82 3d
       0.037171576 0.013744613 0.24461657 0.06373838
0003e0 b4 45 e5 3c be dd 17 bd be e7 35 3d 54 85 ea 3c
       0.027987339 -0.037076704 0.04441046 0.028628029
0003f0 ee 1b ad bd 77 f6 ab bd 3a 86 dc 3d 79 5e 02 be
       -0.08452593 -0.08396619 0.10767789 -0.12731351

conv1.conv.6.weight f4 [32, 32, 1, 1]
000000 0d c0 59 3e e8 c6 2e 3e 40 cf fa 39 b3 6c 26 3e
       0.21264668 0.17068064 0.0004783813 0.16252403
000010 cc 15 f9 3d 4c 40 40 bb 36 1a 63 be 80 2f 4e be
       0.121623605 -0.00293352 -0.22177967 -0.20135307
000020 da 69 50 be c5 3c 0d bc 7f 76 2d 3d 9f 3a ec bd
       -0.20352879 -0.008620446 0.042349335 -0.115346186
000030 bd 0d 0f be c0 93 57 3e 62 cd 73 3e 75 71 24 3e
       -0.13970084 0.21052456 0.23808816 0.16058905
000040 e4 00 d0 3d 1f 11 96 3d 71 ad e5 3d d1 06 2c be
       0.1015642 0.07327484 0.11214722 -0.16799475
000050 41 46 50 3e 0c 6c 90 be 00 e9 45 be 37 f1 d1 bd
       0.203393 -0.28207433 -0.19327164 -0.10251086
000060 99 a1 30 3c b8 ff bb bc a1 a9 f4 3d d4 0c 00 3e
       0.010780715 -0.022949085 0.11946417 0.12504894
000070 65 f1 a7 3d 77 86 e2 3c c7 f9 16 3e 25 b2 cd 3d
       0.08200339 0.027652008 0.1474372 0.10043744
000080 9e 75 26 3e e6 d7 5c bd 7a 65 b6 3e 74 dc 51 be
       0.16255805 -0.053916834 0.35624295 -0.20494252
000090 45 fa 67 3d 25 34 5d 3e 4a af 5c 3d 7c a1 2c 3e
       0.05663516 0.21601923 0.053878106 0.16858476
0000a0 bd 93 a8 bd 18 1c 27 be 94 5c a7 bd 2f b0 7f 3d
       -0.08231304 -0.1631931 -0.08171955 0.06242388
0000b0 81 d2 d4 bd 45 26 9f 3d c4 f8 d7 3c 00 42 29 3d
       -0.10391713 0.07770971 0.026363738 0.041322708
0000c0 36 4a 85 bd 87 6d 34 be c5 f8 9b 3e 84 6c 5b bd
       -0.06508295 -0.17619906 0.30463234 -0.053570285
0000d0 f5 be 13 3e 0d c9 7e bc a3 85 f3 ba 11 a8 68 bd
       0.14428313 -0.015550864 -0.0018579256 -0.056800906
0000e0 e4 c1 44 3a e9 88 5e bd 07 f6 b0 3e 5b a6 8d be
       0.00075056986 -0.054329786 0.34562704 -0.27665982
0000f0 39 9c c9 3d d5 5b 06 bd 99 95 69 be 1a f9 6c 3e
       0.0984425 -0.03280242 -0.22810973 0.231419
000100 6c b7 cf 3c 63 57 1b 3e 2d 1d 95 bd fc 86 41 3e
       0.025356017 0.15170054 -0.072809555 0.18899149
000110 dd fc f8 3d c4 06 89 bd e9 b2 c8 3d bb 7b b4 be
       0.12157605 -0.066907436 0.097997494 -0.3525065
000120 ff 6f db 3d de 20 65 3c 60 55 58 3c 93 be 84 bd
       0.10714721 0.013984887 0.013203949 -0.06481662
000130 1f 8b 81 3e 1f f9 6d 3e af 4c f3 bc b4 e2 83 3c
       0.25301453 0.23239563 -0.029699652 0.016099311
000140 79 36 b9 bb 3f 0b e2 3d 9c 86 08 3d ba 1e 31 ba
       -0.0056522456 0.11037301 0.0333315 -0.0006756593
000150 2f dd 82 3e 70 5e 8e bb 47 ec 3e 3e 80 a6 47 be
       0.25559375 -0.004344754 0.1864482 -0.19497108
000160 1e 25 28 3e 15 26 a6 bd 91 11 37 bd 69 a5 2d 3e
       0.16420409 -0.08112732 -0.044694487 0.1695763
000170 6b ec 23 be 03 98 e0 3c 34 e6 30 3d 29 e4 3d 3d
       -0.16008155 0.027416235 0.04318829 0.04636017
000180 ad 70 e0 3c eb a1 c4 3e e5 1e 23 3d 78 0c 73 bd
       0.027397478 0.38404784 0.039824385 -0.059338063
000190 dc fb a1 3d dc 30 7b 3e 07 80 6e bd 9d 8e 4f 3d
       0.079093665 0.24530357 -0.058227565 0.050673116
0001a0 65 0c 38 be 22 5f 9d 3d ae 7a 21 3d d0 85 c1 3d
       -0.17973478 0.07684161 0.039423637 0.09449351
0001b0 0c 62 15 bd 91 80 99 bd f7 e9 8b 3d 8c 61 fc bd
       -0.036470458 -0.07495225 0.06831735 -0.12323293
0001c0 0f 7a 66 3e 77 d6 40 bd 41 de bc bd a9 ba 8b 3d
       0.22507499 -0.04707953 -0.09222079 0.06822712
0001d0 4e 45 68 be 62 d1 73 3d 18 f5 3c bc 7a 47 a9 3e
       -0.22682688 0.059525855 -0.011533044 0.33062345
0001e0 c9 a9 80 3d 09 a1 49 be d0 f3 14 be 90 56 bf be
       0.06282384 -0.19690336 -0.14546132 -0.3737073
0001f0 34 9c 67 3e 86 c3 e9 bd d2 dd 71 be df 42 db bd
       0.2261818 -0.11414246 -0.23619774 -0.10706114
000200 62 2e 3d bc c6 fc 56 be e2 24 88 3c 14 e9 3d bd
       -0.011546703 -0.20994863 0.01661915 -0.04636486
000210 48 92 ba 3e 80 e8 b4 bc 2b 87 af bc 52 87 12 3e
       0.3643973 -0.02208352 -0.021426758 0.14309433
000220 63 cb a3 3d cb 05 69 3e d4 ad ba 3d d2 d7 0c bd
       0.07997777 0.22756116 0.09115186 -0.03438551
000230 5d c7 8c bd a1 76 18 be e9 f7 0b be b4 37 62 3d
       -0.06873963 -0.14889003 -0.13668789 0.055228904
000240 07 2c 93 3b 0c c3 80 bd 41 ee 18 3d ec fd 5a bd
       0.0044913325 -0.06287202 0.03733659 -0.053464815
000250 3f fa 91 3e 76 41 2d 3e 1b 0b 10 3d b8 66 bb bd
       0.28511235 0.16919503 0.03516684 -0.091504514
000260 9e 4f da 3b 40 68 6a bd 2e 65 09 be 42 a7 16 bd
       0.006662323 -0.057228327 -0.13417503 -0.036780603
000270 ee bf 98 3d a1 b5 e7 3b 13 9b d3 3d 4a d3 87 be
       0.07458483 0.0070712124 0.103323124 -0.26528388
000280 71 59 15 3d 8f 7a 23 3e 50 0a ec bd f8 6a cd bb
       0.03646225 0.15964721 -0.115254045 -0.006268855
000290 c1 10 6b 3e 23 54 f1 bd 9b f2 ae 3d 57 0b e4 bd
       0.2295561 -0.11783626 0.08542367 -0.111349754
0002a0 91 6e 02 3e ce a6 1e 3e f6 a7 2d 3d 78 8b 7b bd
       0.1273749 0.15493318 0.04239651 -0.061412305
0002b0 54 a0 ed 3d 98 26 bd 3d 10 60 45 bd 86 74 db bd
       0.11602846 0.09235877 -0.048187315 -0.107155845
0002c0 0e dc a5 3d 18 bb 01 3d 7b d6 bd bd 43 72 6d 3e
       0.08098613 0.031672567 -0.092694245 0.23188119
0002d0 e8 2f d9 bb c7 d3 22 3e f6 0d 32 3e 5c 63 62 be
       -0.0066280253 0.15901099 0.17388138 -0.22108215
0002e0 54 66 c9 3d c7 5d de bd 0b 90 43 be 8a c8 9b 3e
       0.09833971 -0.1085773 -0.19097917 0.30426437
0002f0 f4 27 78 3e 99 9c b9 bd f5 b4 c9 3d e8 ce 82 3d
       0.24233991 -0.09063072 0.09848968 0.063871205
000300 98 eb ec 3c 92 68 c7 3c 2f 2c 68 bd f2 5e 42 3e
       0.028920934 0.024341855 -0.05668276 0.18981531
000310 2f 81 84 3d 9f e3 30 be ff 13 87 3d ae 3c a4 be
       0.06469952 -0.1727433 0.06595611 -0.32077545
000320 81 97 24 be 1d f0 e9 bd 98 81 d6 bd 56 3c 19 3d
       -0.16073419 -0.11422751 -0.10473937 0.037411056
000330 74 d4 db bd a2 d0 9a 3d c2 d2 b9 bd 0b 38 33 3e
       -0.107338816 0.07559325 -0.09073402 0.17501847
000340 8d 03 0c 3e b5 9f 27 3e 3f 31 93 bc 4b 61 59 be
       0.1367323 0.16369517 -0.017967818 -0.2122852
000350 80 fd c2 3c b8 94 ff 3c a9 91 40 be 9b 26 6a bd
       0.023802519 0.031198844 -0.18805565 -0.057165723
000360 55 cc 84 bd 64 e0 f6 3d 79 f1 39 3d 38 a6 2b bd
       -0.06484286 0.12054518 0.045396302 -0.041906565
000370 88 73 62 be 15 26 75 bd 80 85 91 3e 8e 83 15 3e
       -0.22114384 -0.05985077 0.28422165 0.14600965
000380 c0 4e 49 bc 72 d2 0e be 9d 65 82 3e e0 0f 80 bd
       -0.012286842 -0.13947466 0.2546815 -0.06253028
000390 9d f4 f8 3c 8c 27 19 3e 1e b8 46 bb c5 f1 f6 3d
       0.030390078 0.14956492 -0.0030322145 0.12057833
0003a0 4d db 89 3e 8d 37 1d be 3b 52 66 be 09 a6 59 bd
       0.26925126 -0.15353222 -0.22492306 -0.05313686
0003b0 69 23 03 bd c2 d7 b7 3d 04 d7 0f 3e c0 8d b8 bd
       -0.03201619 0.089766994 0.14046866 -0.09011412
0003c0 37 fb 4c bd 80 15 bf 3c 8f 2d 24 3e f1 7d 6a bd
       -0.050044265 0.023325682 0.16033004 -0.057249013
0003d0 21 50 9c bd 37 89 f6 bc c0 ce 15 3e b4 0b 17 be
       -0.07632471 -0.030094726 0.1462965 -0.14750558
0003e0 80 0d 90 bd 59 61 76 3d 1a 6b e4 3d 0b 93 30 be
       -0.07033825 0.06015143 0.111532405 -0.17243592
0003f0 ef 62 0f 3d 33 4f 59 be a3 b0 ea bd c5 2c cb 3d
       0.03500646 -0.21221618 -0.11459472 0.099206485

conv2.conv.3.weight f4 [32, 32, 1, 1]
000000 6b 32 f2 bd e3 0b 4b 3e f6 dc c7 3d 66 a0 f6 3d
       -0.11826023 0.19828753 0.09758942 0.12042312
000010 e9 4d 05 bd 21 33 65 be b1 51 c3 3c 62 37 40 be
       -0.032545004 -0.22382785 0.023842664 -0.18771127
000020 0e c4 76 be 00 6d be 3d 80 ee 53 bd f8 03 19 be
       -0.24098226 0.09298134 -0.051741123 -0.1494292
000030 4f 4b 13 3d 4c 34 b6 3d cd f4 42 be 6b e8 5a be
       0.03596049 0.088966936 -0.19038697 -0.21377723
000040 42 c1 e0 3c 14 e9 f5 3d 15 06 c2 bd 35 bf 26 be
       0.027435903 0.12007347 -0.09473816 -0.16283877
000050 79 9a 21 bd ab b2 12 be 6c 57 a4 3d 1e 42 a2 3c
       -0.039453957 -0.14325969 0.08024487 0.019806918
000060 a3 65 71 3d 58 6a 8d 3d d3 44 63 be 9e bb bb 3d
       0.05893482 0.06905049 -0.22194223 0.091666445
000070 0a 8c a6 bb be 90 c3 bc 4f 53 a0 bd b3 33 13 3e
       -0.005082612 -0.02387273 -0.0782839 0.1437519
000080 c9 b7 d3 3d db 03 d6 3d 24 f9 08 bd d5 8c 0b 3e
       0.103377886 0.10449954 -0.033440724 0.13627942
000090 3f ba b1 be be f3 e7 3d 1f 18 c9 bb 95 21 21 be
       -0.34712407 0.11325787 -0.0061369087 -0.15735467
0000a0 5b 33 84 be 24 c7 65 be 95 f5 b4 3d ed 0e 06 be
       -0.2582043 -0.22439247 0.088359036 -0.13091631
0000b0 7e 05 43 3e 37 b5 74 3c 58 57 cc bc 59 c6 a7 be
       0.19045064 0.014935783 -0.024943992 -0.32768515
0000c0 d9 b2 7e bd 16 c3 23 3e 43 7f c0 bd d4 6b 97 bd
       -0.06218228 0.15992388 -0.09399273 -0.073936135
0000d0 28 eb ce 3d 7b 71 01 3d 21 22 fc bd 57 80 22 3e
       0.10103446 0.031602364 -0.12311197 0.1586927
0000e0 8c ca 17 3d de 30 60 3d cb b1 50 be d4 ee a4 bc
       0.037058398 0.054734103 -0.20380323 -0.020133413
0000f0 9d 16 8f bd c2 ae 3a 3e af c1 ff 3d 5f 45 02 be
       -0.06986735 0.18230727 0.12488114 -0.12721775
000100 ee af ef 3d 3e a1 9f 3e f5 6c 4b bc a7 00 46 3d
       0.11703478 0.31177706 -0.012416114 0.048340466
000110 80 2a 52 bd f7 fd 54 3d 06 1a 86 3c 07 ae 87 3e
       -0.051310062 0.052000012 0.01636983 0.2649996
000120 7d 35 39 be 86 e8 ac 3b aa a3 25 be 86 20 3c 3e
       -0.1808681 0.0052767424 -0.16175714 0.18371782
000130 bd ca 96 3d d2 3f 37 be dd 9e 24 be 09 f9 49 3e
       0.07362888 -0.1789544 -0.16076227 0.19723906
000140 39 13 af bd 74 ac 82 bd da 83 b5 bb 85 96 b8 bd
       -0.08548588 -0.06380549 -0.0055393996 -0.09013084
000150 73 b7 1b 3e c2 e0 c1 bc db 29 d6 bc 35 90 2b be
       0.15206699 -0.023666743 -0.026143005 -0.1675423
000160 28 15 76 3c c7 a5 77 be bd d1 07 be 93 d7 0a be
       0.0150196925 -0.24184333 -0.13263603 -0.13558798
000170 63 78 40 bc f3 d9 15 be 30 3d 4b be e9 8f 64 bd
       -0.011747452 -0.14633922 -0.1984756 -0.055801306
000180 94 1e e8 bd db 04 9d bd a1 65 36 3e 0f 16 91 3e
       -0.11333957 -0.07666942 0.17812206 0.28337142
000190 56 b8 15 3e ab ac 34 bd cb 57 89 3d 57 ff 68 3d
       0.146211 -0.04410998 0.06706198 0.056884136
0001a0 01 62 ad 3e b7 6f ed bd df 93 4e 3e fc 41 93 3c
       0.33863834 -0.115935735 0.20173596 0.0179758
0001b0 33 55 20 be f8 8f 15 be 47 41 fe bd e3 c7 3d 3e
       -0.15657501 -0.14605701 -0.124147944 0.18533282
0001c0 0f 4b 30 3e 28 ba 94 3d be 7a 15 be 4e c5 25 3e
       0.17216133 0.07262069 -0.14597604 0.16188547
0001d0 f3 24 0d 3d 81 2f b5 3c 20 66 01 be 05 b4 24 3d
       0.034459066 0.022117378 -0.12636614 0.040210743
0001e0 e2 0a b4 bd 52 4e f3 3d c6 a9 c0 bd 35 ad 04 bd
       -0.08791138 0.11880173 -0.09407382 -0.032391746
0001f0 9a b2 7c be 65 74 95 be d2 be 2c 3b 84 ad 0b 3b
       -0.24677506 -0.29190364 0.0026358855 0.002131314
000200 4e 24 6d 3e 48 9b a1 3d 47 7a 35 3e dd c2 ba bd
       0.2315838 0.07890946 0.17722426 -0.091191985
000210 ab d3 16 bd 40 a2 df 3d 73 4f ad 3c f3 26 20 3e
       -0.036822956 0.109196186 0.021156048 0.15639858
000220 54 23 f6 3d e3 8d 8f 3d a3 ab 6b be ae ae 12 3d
       0.12018457 0.070094846 -0.23014693 0.03581112
000230 49 79 32 3e 52 2e 10 3d bf 61 53 be ab 14 20 3e
       0.17429079 0.035200424 -0.20642756 0.15632884
000240 db 3b 47 3e 34 64 87 be 82 9f 15 3e 15 10 5f be
       0.19456427 -0.26443636 0.14611629 -0.21783479
000250 50 4c 61 be 9a 8c b9 3d 9b 9d d1 bd a0 71 0a be
       -0.22001767 0.09060021 -0.10235139 -0.13519907
000260 ed 47 dc 3c 75 ee 74 be ef 07 7e 3d fc 82 a5 3c
       0.026889766 -0.23919089 0.062019285 0.02020406
000270 2b e3 4d be 2d 86 66 3d 82 b8 4b bc f5 2e 82 bd
       -0.20106189 0.056280304 -0.012434127 -0.063566126
000280 21 9c 01 3e f6 c1 29 be 44 85 13 be d0 66 63 bd
       0.12657215 -0.16577896 -0.14406306 -0.05551797
000290 ad 18 99 3c 68 dc f2 bd 4d fd 5a bd bd 21 82 be
       0.018688524 -0.118584454 -0.053464223 -0.25416365
0002a0 e0 4a 14 be 70 e6 b4 bd e2 0c a3 bd 20 34 b3 3c
       -0.14481688 -0.08833015 -0.079614416 0.021875441
0002b0 9b 49 f3 bd bf 34 2c 3e 0b 26 1e bd d4 df 39 be
       -0.118792735 0.16816996 -0.0386105 -0.1815179
0002c0 f9 3f 29 bd 34 6a 80 3e 80 7a 3c bc 91 dd ca bd
       -0.041320775 0.25081027 -0.011503816 -0.09905542
0002d0 45 f1 14 3e d4 a4 8b 3c b7 4c ae bd 52 9a d0 bd
       0.14545162 0.01704637 -0.08510726 -0.10185684
0002e0 ee e1 67 3e 0a 1c 13 be 2c 56 ad bd 59 0f f4 bd
       0.22644779 -0.14366165 -0.084637016 -0.1191699
0002f0 14 84 96 3e e9 35 65 3c 62 99 3c bd 07 46 2f 3e
       0.29397643 0.013989904 -0.046044715 0.17116557
000300 87 41 bf 3d a3 08 21 be 75 79 02 bd da ec 2d bc
       0.0933867 -0.15725951 -0.03185411 -0.010615552
000310 45 73 cb 3e 02 2f b7 bd 45 d6 89 bd 1a da 80 3d
       0.3973638 -0.08944513 -0.06730322 0.062915996
000320 3f 4b 6f 3e 3f 37 ac bd 6b 86 23 3d b1 3c c3 3d
       0.23368548 -0.08408975 0.039923113 0.0953306
000330 36 9e 8a 3d f9 7c 43 be 92 8a 5e 3d 59 6c 95 3d
       0.067684576 -0.19090642 0.05433137 0.07296056
000340 2b 74 47 3d c8 73 07 be 3e 24 f7 3b ed 56 20 3e
       0.04869477 -0.13227761 0.007542162 0.1565816
000350 c1 ee f5 3c c7 5b d7 bd d0 1c 0d be b0 d9 34 bd
       0.030021073 -0.10515552 -0.13780522 -0.044152915
000360 10 ac 3a be 06 51 03 3e 85 9d 8a 3e 14 7b e8 bd
       -0.18229699 0.12823877 0.27073303 -0.113516
000370 81 c2 5a bd 1a 4f 44 3e 61 75 01 be cd f9 2a 3d
       -0.05340815 0.191708 -0.12642433 0.041742135
000380 75 dd 0a 3e b3 50 e7 bd 87 0f 2e 3e 18 5a 66 3e
       0.13561042 -0.11294689 0.1699811 0.22495306
000390 cc a9 1d 3e 0c c2 cd bc 56 8c 23 bc 77 49 0d 3e
       0.15396804 -0.025116943 -0.009982189 0.13797556
0003a0 9c bd 11 bd e6 41 28 3e 2f 18 ae 3d dc 16 18 3e
       -0.035581216 0.16431388 0.085007064 0.1485247
0003b0 75 97 09 bb 91 06 36 3e 1a 83 d1 3d 89 35 b8 3d
       -0.0020994816 0.17775942 0.10230084 0.08994586
0003c0 8a 2f 9f 3d 5e 86 56 be ba c4 27 3e f1 7d 0b be
       0.07772739 -0.20949695 0.16383639 -0.13622262
0003d0 b6 a8 9f 3c f1 bb 6f 3e c8 80 89 3d 80 35 f7 bc
       0.019489627 0.23411538 0.06714016 -0.030176878
0003e0 7a 68 db 3e db c9 8f 3d 87 99 03 3e 50 3d a8 3e
       0.42853147 0.07020923 0.12851535 0.32859278
0003f0 c7 72 c9 3c a1 54 ed 3c 5d c6 15 3e e2 3d 37 be
       0.024590863 0.028971018 0.14626451 -0.178947

conv2.conv.6.weight f4 [32, 32, 1, 1]
000000 8e b5 fe bd c4 5e 85 bd e6 7b 4a 3a 93 04 45 be
       -0.124369726 -0.06512216 0.0007724151 -0.19240026
000010 15 ee 02 be f6 ef e4 3e bc 2f 07 be b6 15 44 3d
       -0.12786134 0.44714326 -0.13201803 0.047872268
000020 0f e2 9d 3d 6b 96 4a 3e 46 3d 5a be 9c 69 1e bd
       0.07709133 0.19783942 -0.21312436 -0.038674936
000030 e2 09 14 3d 60 3c 74 bd 9e 85 d1 3b e8 07 01 be
       0.036142237 -0.05962789 0.0063941022 -0.12600672
000040 ad 40 14 bc 7d 41 32 be 07 b9 0e be 70 0a 9f be
       -0.009048623 -0.17407794 -0.1393777 -0.3106265
000050 f0 54 0e be 51 3d 33 3e fb fc 64 3e 94 28 1c bd
       -0.13899589 0.17503859 0.2236213 -0.038124636
000060 d5 82 47 be a3 a7 12 3e 36 0b d6 3a 47 b3 4b be
       -0.19483502 0.14321761 0.0016330245 -0.19892608
000070 9a 9e f6 3d 52 39 1a be 75 2e d1 3d b7 4c 27 3e
       0.120419696 -0.15060928 0.10213939 0.16337858
000080 e2 df 39 be f4 0e df bb 59 b9 2b be 6d c7 40 3c
       -0.18151811 -0.0068072025 -0.16769923 0.011766297
000090 30 05 25 3d 59 fc b2 bd 1f 0f 52 3e 95 e0 ac 3c
       0.04028815 -0.08739538 0.2051358 0.021103183
0000a0 48 d8 d1 bd a5 c3 04 3d d2 ea 77 be ef 33 b5 3d
       -0.102463305 0.032413144 -0.2421067 0.08847796
0000b0 34 1d 61 3d 59 44 bb 3c ff d3 31 bd f7 50 01 bd
       0.05495949 0.02285974 -0.043415066 -0.031571355
0000c0 e9 78 a8 bc 87 18 5e be 14 bb fa 38 d2 5d d2 3d
       -0.020565467 -0.21689044 0.00011955775 0.10271801
0000d0 e2 43 85 be e7 bd b5 3d 87 0d 3b be d7 51 83 bd
       -0.26028353 0.088741116 -0.18266879 -0.06412094
0000e0 cf 6d 24 bc 0e 7d 1d be 1d 84 44 be b8 30 04 be
       -0.010035946 -0.15379736 -0.19191022 -0.1290921
0000f0 3c b7 3e be 56 2c b2 be 01 af 85 bd 89 2f 36 be
       -0.18624586 -0.3479945 -0.0652752 -0.1779157
000100 6e 57 1e be 82 79 66 bd 44 21 b2 bd 59 fb 28 be
       -0.1546304 -0.056268223 -0.08697751 -0.16502132
000110 fa d8 fc bb 30 a7 72 bd 6d cc 2c bd 43 a6 79 bd
       -0.0077162953 -0.059241474 -0.042187143 -0.060949575
000120 bc c1 52 3d 1a 51 30 3e 7f f8 aa 3e cb a4 43 3d
       0.05145429 0.17218438 0.33392712 0.04776458
000130 8d e5 45 bd 37 77 fd bb 8a c7 51 bd c3 55 2d 3e
       -0.04831462 -0.007735159 -0.051215686 0.16927247
000140 8c 3c 23 bc d9 96 f4 bd 0a 12 fe 3d f0 a8 5f bb
       -0.009963166 -0.119428344 0.124057844 -0.0034127794
000150 3b 16 0d 3e ad 15 30 3e 49 48 92 be 01 94 8a bd
       0.13778012 0.17195769 -0.28570774 -0.06766511
000160 8e 82 60 be 59 8f 40 3e 6f 84 6a 3e 17 b6 a7 bd
       -0.21924803 0.18804683 0.22902082 -0.08189028
000170 22 d0 77 bd 03 e5 f6 3d 87 cd ee 3c cd 19 1a be
       -0.060501225 0.12055399 0.029150737 -0.15048905
000180 30 55 50 3e 6a bb 47 be 88 19 a0 3e 7a 31 99 3d
       0.20344996 -0.19505087 0.3126948 0.0748014
000190 63 13 55 bd bc 0e bb bc 03 10 ca bd da 13 47 bd
       -0.05202044 -0.022834174 -0.09866335 -0.048602916
0001a0 e1 21 39 be 0c 1c a3 bd 39 ec 5e 3e 77 d1 1c 3c
       -0.1807933 -0.07964334 0.217698 0.009571425
0001b0 77 c4 8c bd 87 69 44 be 24 14 a6 3d 59 07 b7 bd
       -0.0687341 -0.1918088 0.0810931 -0.08936948
0001c0 7a d8 55 be a3 10 cd b9 90 ab 5d be 88 35 9a 3e
       -0.2088336 -0.00039113042 -0.21647477 0.30118966
0001d0 30 00 a1 3d 3b 57 ba be f4 9f 2b bd 12 35 cb 3c
       0.07861364 -0.36394677 -0.04190059 0.02480558
0001e0 71 6b 3c be fd 7c 24 3e 46 c7 cf 3d b7 d5 44 3d
       -0.1840036 0.16063304 0.1014543 0.048055377
0001f0 4a 40 fa bd f2 56 8b 3e 48 d1 10 3e 48 27 af 3d
       -0.122192934 0.27214772 0.14142334 0.08552414
000200 ef 90 7d bd 7b 5b e7 3c d2 4a e0 3d 02 b2 6a 3e
       -0.061905798 0.028241863 0.10951771 0.22919467
000210 4c 37 01 3e eb 5f 3a be 69 5a 70 bd c9 5a 5b 3e
       0.1261875 -0.18200652 -0.05867997 0.2142135
000220 7c 6a d3 38 38 71 63 3e 8c 6f 8d be 80 28 7c 3d
       0.00010081098 0.22211158 -0.27624166 0.06156206
000230 c2 3c 3c 3e c3 e1 4b 3e 34 ac 80 bc de 95 7f 3e
       0.18382552 0.1991034 -0.015707113 0.24959514
000240 a5 ba e5 3d 32 c7 1d be d5 7a 92 3e f7 88 77 bd
       0.1121724 -0.15408018 0.28609338 -0.060433354
000250 55 70 ee 3c 09 1b 07 3e 21 f3 ad 3c 16 93 7a 3e
       0.029106298 0.13193907 0.021234097 0.24470171
000260 77 01 1a be 41 f7 fd bc 55 2a 2d 3e 83 c7 e4 3d
       -0.15039621 -0.031001689 0.1691068 0.11170866
000270 be 7f 0d bd 7d 34 f3 bd ad e6 3a bd c8 09 38 3e
       -0.034545653 -0.11875246 -0.045630146 0.17972481
000280 d5 c4 94 bd bd 20 b6 bd 94 78 e8 bc 3a b8 94 3e
       -0.07264105 -0.08892963 -0.028377809 0.29046804
000290 b8 d8 02 3e 58 f1 00 3d de 56 e4 bd 26 0f 26 ba
       0.12777984 0.031480163 -0.11149381 -0.0006334655
0002a0 23 cb dc 3c 90 d7 6f 3d 9a 7d ca 3d 01 4a 7b 3d
       0.026952332 0.058555186 0.09887238 0.061349872
0002b0 78 be 56 be b8 47 8d 3e 84 d0 39 be a6 ce 76 be
       -0.20971096 0.2759378 -0.18145949 -0.24102268
0002c0 4c e0 fd 3a ad 97 e8 3d 74 b5 9b 3d c7 85 27 3e
       0.0019369214 0.11357055 0.07602969 0.16359626
0002d0 f5 12 af 3e 2c bd 96 bd 4d bf 7b 3c 7a ed 07 3e
       0.3419415 -0.073603004 0.015365434 0.13274184
0002e0 dd d0 16 be 61 b9 01 be 01 d5 a3 3d be 25 92 3e
       -0.14728113 -0.12668373 0.07999612 0.2854442
0002f0 0b 3b 98 3c 49 21 4e 3e b0 5a 8a 3d cd fd a7 3e
       0.018582841 0.20129885 0.067555785 0.32810822
000300 d1 77 4a 3d c1 bb f4 3b 07 39 97 be ee d9 ac 3d
       0.049430672 0.007468671 -0.29535696 0.08440004
000310 34 dd 94 3d 9e 96 6c 3e 52 25 5e 3d 7a 93 ac bd
       0.07268754 0.23104331 0.05423481 -0.084265664
000320 cd 97 f3 bc 00 e4 6d be fd bf 03 3e b5 b7 0f 3d
       -0.02973547 -0.23231506 0.12866206 0.035087306
000330 2a 7c 7b 3d d7 c5 3c 3e 8f 32 2c be bb 55 bf 3e
       0.06139771 0.18434845 -0.16816162 0.37370095
000340 1a 42 51 be 76 f5 18 3e 3b 23 65 bd 89 3e 5e be
       -0.20435372 0.14937386 -0.0559418 -0.21703543
000350 dc 53 56 3d 0f 29 b0 bd 65 8b 51 bd 26 75 4b 3e
       0.05232607 -0.08601581 -0.051158328 0.19868907
000360 b2 2a 71 3d a7 dd 84 bd bf 82 d8 bd ef a6 f2 3d
       0.058878608 -0.06487589 -0.10571813 0.11848246
000370 cb 9f 70 3e 69 d2 f5 bd f1 a7 d0 3d a8 8b f4 3c
       0.23498456 -0.12003023 0.10188282 0.02985175
000380 e7 7a e1 3d 57 10 ad bc 57 fb 55 3e f2 1c 06 be
       0.1100977 -0.021125956 0.2089666 -0.1309698
000390 68 4b d8 3d 8b 75 21 3e 3b d9 1d 3e e1 0b 34 be
       0.105612576 0.15767495 0.15414898 -0.17582656
0003a0 46 98 f3 bd e6 bd 03 be 0b ff ae 3d 88 0e b3 bc
       -0.11894278 -0.1286541 0.08544739 -0.021857515
0003b0 77 75 74 3e c5 96 cb 3c 01 40 75 3c fe 12 16 3e
       0.23872934 0.024852166 0.014968873 0.14655682
0003c0 fc bf 7c bc 48 5d 28 3e 55 63 1f be 5e f0 55 3e
       -0.015426632 0.16441834 -0.15565236 0.20892474
0003d0 30 f2 35 3d 74 9e 0b 3e a4 c0 ae 3d 58 9e 82 3b
       0.04442042 0.13634664 0.08532837 0.003986161
0003e0 79 14 87 bb a3 4a a6 3c 1d 7a 1d 3e b7 02 e7 3d
       -0.0041223136 0.020299261 0.15378614 0.11279815
0003f0 a9 33 86 3d 65 01 23 3e 2c ce fb bc 0b e0 12 bd
       0.06552822 0.159185 -0.030737959 -0.035858195

conv3.conv.3.weight f4 [64, 64, 1, 1]
000000 51 8c 56 bd 08 fe 59 be 01 1f 49 3e 54 9d a2 3e
       -0.05237991 -0.21288311 0.19640733 0.31760657
000010 e5 ee 92 bd 81 53 10 3b ec df 88 bd 2a 8f 0a 3e
       -0.07174472 0.0022022428 -0.06683335 0.13531175
000020 e4 a9 57 3b 2c 10 b8 3d 95 50 43 3d c0 1b 79 3c
       0.003290766 0.089874595 0.04768427 0.01520437
000030 f5 45 cf 3d 9a e1 cd 3d e1 7f e6 bc ce 09 fd bd
       0.10120765 0.10052796 -0.02813715 -0.12355386
000040 b1 a8 03 be 81 f3 d2 3d ea 48 a9 3d 63 cb 47 be
       -0.1285732 0.10300351 0.082658604 -0.1951118
000050 16 d2 4b be 14 fe cc 3d 85 17 a2 3d 89 58 15 be
       -0.1990436 0.10009399 0.07914642 -0.14584555
000060 6b 41 d3 3c bc 17 f6 bd b5 bd ab bd 4a 3e ec 3b
       0.02578803 -0.12016246 -0.08385793 0.007209574
000070 ee c2 07 bd 6c b1 88 bd 9f f8 05 be f0 fc 31 bd
       -0.033144884 -0.066744655 -0.13083123 -0.04345411
000080 c1 f1 ae 3d 5c 23 74 bc ff b5 76 be 31 8f 8b 3d
       0.08542205 -0.014901008 -0.24092864 0.06814421
000090 10 6c 66 bb ef 7e 88 3d c1 67 11 bd 72 57 62 3e
       -0.0035159625 0.06664836 -0.035499338 0.2210367
0000a0 bd 36 62 3e 2d b3 15 bd dc 1f 37 bd b6 0f f3 bd
       0.22091193 -0.03654783 -0.044708118 -0.11868231
0000b0 00 d4 7d 3e c4 ef c9 3d 81 4f f9 bc 5b 8e 02 3e
       0.24787903 0.09860185 -0.030433418 0.12749617
0000c0 76 64 d5 3d 26 58 15 3d 39 c0 82 3d cb ba 9f bd
       0.10419552 0.036461018 0.0638432 -0.077993
0000d0 3d be 09 be 83 95 af ba d5 36 2d be 93 8f bc bd
       -0.13451476 -0.0013395998 -0.16915448 -0.09207072
0000e0 a8 85 f2 bd e4 3c 4c 3c ab fa b5 bc 25 cb 2a 3d
       -0.11841899 0.012465689 -0.022214254 0.04169764
0000f0 80 ae 9e bd ee 36 ba 3d f2 5a 52 3e 00 d8 0a be
       -0.07748127 0.09092508 0.20542505 -0.1355896
000100 21 b4 cc bd 08 89 e9 bc 55 e8 3c 3e b4 2a b2 3d
       -0.09995294 -0.028507724 0.18448003 0.08699551
000110 f8 b7 cc 3c 5e 43 42 bb 14 45 41 bd b5 a9 74 bd
       0.024990067 -0.0029642205 -0.04718502 -0.059732158
000120 ad 63 b9 bc 16 57 65 3e 8e 24 a5 3d 0d 3b 0e bd
       -0.022630537 0.22396502 0.08063613 -0.034724284
000130 7a ea 4f bd ed f3 37 be e6 dc 0e bc 7c e2 b7 bd
       -0.050760724 -0.17964144 -0.0087196585 -0.08978745
000140 b3 9f ad 3c 03 e1 ef bd d1 d4 69 bd 1f 9a 81 3d
       0.021194315 -0.117128395 -0.057087723 0.063282244
000150 ec 38 5c bc d6 b7 57 be 1b 31 4b bd 6d ef 03 3e
       -0.013441306 -0.21066222 -0.049607377 0.12884302
000160 08 c3 85 bc 31 89 e4 bd f2 52 03 3d 0e 73 e2 3d
       -0.01632835 -0.1115898 0.032061525 0.11057101
000170 c5 aa 47 be 03 79 b7 bc 70 9b 71 3c 02 c9 ae bd
       -0.19498737 -0.02239657 0.014746532 -0.08534433
000180 60 32 5d 3e b2 8a 28 be ad 01 2a 3e 1b 89 6d bd
       0.21601248 -0.16459158 0.16602202 -0.057992082
000190 ef ee 7d 3d a8 de e4 bb a8 b6 71 3d 65 99 31 be
       0.061995443 -0.0069845505 0.059012085 -0.17343672
0001a0 d6 ba 30 3e ce f4 df 3c d4 23 05 be 4c 33 02 3e
       0.17258772 0.027338412 -0.13001949 0.1271488
0001b0 b8 70 10 3d df 4d 4d bd 16 cc 97 bd a0 8a a5 3c
       0.035263747 -0.05012309 -0.07411973 0.020207703
0001c0 55 3b a5 bd 50 b0 7a 3e 9d ed 56 3e c9 41 04 3e
       -0.08067957 0.2448132 0.2098908 0.1291572
0001d0 cb d8 27 bc 82 48 ff 3d 5f 55 7e 3e 29 63 5a be
       -0.010244559 0.12465002 0.24837254 -0.21326889
0001e0 a8 6c 06 3e 57 62 39 be 39 4c 33 3d 17 ae 89 bd
       0.13127387 -0.1810392 0.043773863 -0.06722658
0001f0 a2 9f fc bd 7e 33 f8 bd cc d1 62 be dc 6a fe bd
       -0.12335135 -0.12119196 -0.22150344 -0.124227256
000200 9c 22 72 3e 5f fc 14 be 72 69 6b 3e 84 55 69 3d
       0.23646015 -0.14549397 0.22989443 0.05696632
000210 90 a5 85 3b 51 58 ec 3a b1 cb 0e 3e a7 d0 ad bc
       0.0040785745 0.0018031691 0.1394489 -0.021217657
000220 62 ce b8 bc 2d 29 29 3d 32 4f b8 bd f6 d0 23 3e
       -0.022559348 0.041299034 -0.0899948 0.15997681
000230 77 eb 26 bc 16 d9 f9 3d eb 9e ae 3d 79 d5 da 3d
       -0.010187975 0.12199609 0.08526405 0.10685248
000240 5c 5c 29 3d 3f f4 13 3d 62 c2 c3 3d c6 28 43 3e
       0.041347846 0.036121603 0.0955856 0.19058523
000250 fb d3 ef 3d b3 30 31 3e 0d bc e6 bd d2 75 52 3e
       0.11710354 0.17303734 -0.112663366 0.20552757
000260 4e 57 a5 3d 86 4c 27 3e 27 a0 8d 3d 46 c9 7e be
       0.08073293 0.16337785 0.06915312 -0.24881467
000270 d0 cf 77 bc 5f 86 b8 bd 24 d6 44 3e 83 f2 d7 3c
       -0.01512523 -0.09010004 0.19222313 0.026360756
000280 43 d1 dd bd 43 9f 69 bd a5 9e 86 bd cc 75 91 bd
       -0.10830929 -0.05703665 -0.06573228 -0.07102546
000290 38 18 37 bd 30 59 5d 3e 07 d9 26 bd e3 de 99 3d
       -0.04470083 0.21616054 -0.040734317 0.075132154
0002a0 3d 11 e8 3d 1a e9 65 3e e6 eb 52 3e af 76 03 3e
       0.11331413 0.22452202 0.205978 0.12838243
0002b0 70 93 f6 bc d3 40 8b 3c d2 22 6e 3d ad 7e 1b bd
       -0.0300996 0.016998684 0.058138676 -0.037962604
0002c0 56 a4 a2 bd 1d 19 b2 bd e1 34 5e 3d f0 7f ef 3d
       -0.07941501 -0.08696196 0.054249648 0.11694324
0002d0 77 a5 1e 3c f6 32 0a be c5 86 11 be 7a 52 d9 3d
       0.009683005 -0.13496003 -0.14211567 0.10611434
0002e0 8e 96 22 3d ba 80 a0 3d d6 77 3e be aa 32 f2 3c
       0.03969436 0.07837053 -0.18600401 0.029565174
0002f0 f3 13 33 be d9 0c 1f 3d 2a 0a 94 be 14 c7 08 3d
       -0.17488079 0.03883061 -0.28914005 0.03339298
000300 7c c7 c2 3d 22 1d 66 3e 40 0b 95 bc 32 e6 6b bd
       0.09510705 0.22472051 -0.018193841 -0.05759258
000310 5e 14 99 3d 1e f9 8e bd 45 3c 1f bd a9 d2 56 3c
       0.07474588 -0.06981109 -0.038875837 0.013111749
000320 f3 da f1 3d f7 fe e7 bd c1 ea c5 3d f8 cc df bd
       0.118093394 -0.113279276 0.096639164 -0.109277666
000330 a0 18 ee 3d ed 72 aa 3d 33 69 c2 3d 00 46 2b be
       0.116257906 0.083227016 0.094927214 -0.16725922
000340 1f a7 69 bd 30 86 b2 3d d8 4e 2a 3e 48 7a 91 bd
       -0.057044145 0.087170005 0.16631639 -0.071034014
000350 c4 45 0f bc 74 91 f9 3c 14 83 93 3d 6b ea af 3d
       -0.008744661 0.030464865 0.072027355 0.085896336
000360 9b c2 41 bd 33 b3 83 3d a9 f2 2a 3e 26 28 33 3e
       -0.04730473 0.06430664 0.1669413 0.17495784
000370 f8 19 d3 3c 3f 58 d7 bd 67 f4 ab 3b db 12 a6 3c
       0.025769219 -0.105148785 0.005247641 0.020272663
000380 e6 6b e4 bb 0b 40 14 bd d9 22 9c be 4d 07 9a 3b
       -0.0069708703 -0.03619389 -0.30495337 0.0047005774
000390 14 ee f4 3a 98 90 f4 3c 0e 38 1d 3c 0f fd 8a be
       0.0018686675 0.029854104 0.009595884 -0.27146193
0003a0 4a 32 87 bd 08 e2 28 bd 37 b3 7b bd d5 47 d1 3d
       -0.06601389 -0.041231185 -0.06145021 0.10218779
0003b0 02 64 1b 3e 0e 70 e0 3d a5 01 e9 bc 94 41 d5 3c
       0.15174869 0.10958873 -0.028443167 0.026032247
0003c0 46 7a 62 3e 2e 41 a3 3d ff 5b 04 bd 76 c5 35 3e
       0.22116956 0.079714164 -0.032314297 0.17751107
0003d0 9e 21 e2 3d 6f d2 41 3e 94 62 09 bd 2c 52 83 bd
       0.11041568 0.1892793 -0.033541277 -0.064121574
0003e0 cf 04 15 3d fa 67 f8 3d 7e 3d 60 3c fe 5d c7 bd
       0.03638154 0.12129207 0.013686536 -0.097347245
0003f0 7f 6c 0a 3e e8 ea 32 3d f5 20 c2 3d c8 0b 66 3e
       0.1351795 0.043681055 0.09478942 0.22465432

conv3.conv.6.weight f4 [64, 64, 1, 1]
000000 8f ee 54 3d d1 97 43 3d 3a 0a 22 bd f4 b9 09 3d
       0.05198532 0.047752205 -0.039560534 0.033624604
000010 92 15 cf bb 86 0d 60 bd 6b da 48 3d bc 33 29 be
       -0.00631971 -0.054700397 0.049036425 -0.16523641
000020 dc dd 0e bd 6a ed 5b 3e 6d 46 a4 bb 70 f6 90 3d
       -0.03487955 0.21477285 -0.005013278 0.07078254
000030 78 62 bd bc 29 00 05 3e aa 88 f4 3d d6 a1 9e 3e
       -0.023118243 0.12988342 0.11940129 0.30982846
000040 0c 05 24 be a9 bd 3d 3e 8f a1 62 bd c4 d1 da bb
       -0.1601755 0.18529381 -0.055329856 -0.006677838
000050 8e 62 c6 3d 35 aa 1b 3e 98 8e b5 3d 56 8f aa 3d
       0.096867666 0.15201648 0.08865088 0.083281204
000060 24 d8 08 be d2 1a 87 3e 26 18 f5 bd e4 35 d6 bb
       -0.13363701 0.2638765 -0.119674966 -0.006537186
000070 03 00 aa 3d ed d8 93 bc 4b f8 5f bd 26 ce f5 bc
       0.083007835 -0.018047774 -0.05468015 -0.030005526
000080 23 65 1c bd 22 9f e1 bd ec 7a b3 bc 1c be 54 3c
       -0.03818239 -0.1101668 -0.0219092 0.012984779
000090 be ab 85 3c a5 92 c9 bd 5e a6 2d bd fd ed 2c 3e
       0.016317245 -0.09842423 -0.04239499 0.1688766
0000a0 4f ae a8 3d 70 50 39 bc 77 b6 64 3d 3a af c9 3d
       0.08236372 -0.011310682 0.055838075 0.09847875
0000b0 ec ba 88 3e b0 19 ec 3a 8b 9a c0 3d 96 95 d7 3c
       0.2670511 0.0018013027 0.09404477 0.026316445
0000c0 c7 d4 84 3e 93 5a 12 be b5 97 83 bb c8 97 23 3e
       0.25943586 -0.14292364 -0.0040158876 0.15975869
0000d0 f0 57 3f bd 94 d9 5d 3d 94 4c b7 bd 84 a5 f5 3d
       -0.046714723 0.054162577 -0.08950153 0.1199446
0000e0 6d 3b 11 3e 14 2c 90 3c e5 d1 2d be 4b 5d 19 3d
       0.14182825 0.017599143 -0.169746 0.037442487
0000f0 85 ac 3c 3e 85 d0 35 3e e8 19 89 bd bd f9 02 3d
       0.18425186 0.17755325 -0.06694394 0.03197645
000100 1b e8 7f 3d c5 ce e1 bd fd 75 e7 3d f2 2d 9a 3d
       0.062477212 -0.11025766 0.11301801 0.075282946
000110 07 1e f0 bd 9e e4 85 bd 02 a8 11 3e 96 2f bf 3c
       -0.11724477 -0.06537746 0.14224246 0.02333812
000120 8b bb 1e bd e8 ba 1a 3e 12 86 1d be 4f 04 f5 3d
       -0.038753074 0.15110362 -0.15383175 0.119637124
000130 07 a2 a2 3d 7b c6 35 3e af 7c a3 3d 36 ec 38 3e
       0.079410605 0.17751496 0.07982766 0.18058857
000140 78 0c be 3d f7 5a 8e bd 86 63 dc 3d 88 05 fb bc
       0.09279722 -0.06950944 0.1076117 -0.030642286
000150 2c 5b 0d 3e c1 07 26 3e 10 71 0c be 5b a9 31 3e
       0.1380431 0.16213895 -0.13715005 0.1734976
000160 66 bc 16 be 94 8e 0b 3e 00 9c 07 bb 73 94 26 3e
       -0.14720306 0.13628608 -0.0020692348 0.16267566
000170 60 e0 66 3d 48 ba 50 3e d6 a9 04 bc 47 73 83 bb
       0.056366324 0.2038356 -0.008097133 -0.004011545
000180 46 d8 0b 3e 09 f1 c4 3d 0a c4 65 be a7 35 3c 3c
       0.1365672 0.09616286 -0.22438064 0.011487401
000190 10 2a 95 3d d1 2f 9a 3c b6 91 fc 3d fe 99 83 3d
       0.072834134 0.018821629 0.1233248 0.06425856
0001a0 4e ff be 3b 5b 2c 3a be 24 bb cb 3d 60 bf 94 3d
       0.0058287745 -0.18180983 0.099478036 0.072630644
0001b0 8f 3b 53 3d 19 d7 e7 bc 45 20 e5 3d f8 30 ff 3c
       0.05157047 -0.028300809 0.111877955 0.03115128
0001c0 13 6a 8a 3e b5 02 97 3c 80 cf 2d 3e 33 cd 77 3c
       0.27034053 0.018433908 0.16973686 0.015124607
0001d0 b0 d5 05 3d db 11 f3 bc 41 3b dc bd 79 62 0e 3e
       0.03267449 -0.0296716 -0.10753489 0.13904752
0001e0 e9 3f 0c 3e e1 5d b8 bd 46 7e 5c 3e 93 67 bd 3d
       0.13696255 -0.09002281 0.21532544 0.09248271
0001f0 10 61 e3 3c d0 e7 c5 3c 1c 49 48 3d da cc 42 bd
       0.027756244 0.024158388 0.048897848 -0.047558643
000200 c1 15 90 38 08 58 d1 bc 29 54 23 bd 39 b1 3c bd
       6.870507e-05 -0.025554672 -0.039875183 -0.04606745
000210 c2 00 b2 3d 6d c7 e4 3d af 93 fc bd 2a a3 22 bc
       0.08691551 0.1117085 -0.12332856 -0.009926597
000220 dc 25 f2 3d 90 50 2b 3d 50 0a d1 bd 5e 4d 32 bd
       0.11823627 0.041824877 -0.10207045 -0.043530814
000230 33 5c fe bd 36 50 f8 3d 9c 87 9b bd f8 a7 a3 3d
       -0.12419929 0.12124674 -0.07594225 0.07991022
000240 27 c8 06 3e 0d 59 fc 3d c0 83 69 bd 62 69 b6 3d
       0.1316229 0.123216726 -0.057010412 0.08906819
000250 4e bb 7c bc 64 f6 66 3e 7c 1a 56 3e e4 56 45 3e
       -0.015425516 0.22554928 0.2090854 0.19271427
000260 dc a0 b5 3d ba ff 07 bd b6 23 91 bd 2c 0a 96 3c
       0.08868572 -0.033202864 -0.070868894 0.018315397
000270 c0 ef 0e 3e cf 74 c1 bd 3f 37 07 be 43 cf 95 3d
       0.13958645 -0.094461076 -0.13204668 0.07314923
000280 dd bd 41 bd 3d a1 5b be 24 06 1f be 0f b5 09 3d
       -0.04730021 -0.21448226 -0.15529686 0.033619937
000290 0e b9 d7 3c a0 c8 16 be eb 6a a7 bd 07 ba cf 3d
       0.026333358 -0.1472497 -0.0817469 0.10142904
0002a0 0f 2d 1a 3d ad 72 65 bd 72 b5 68 be 36 8c 06 3e
       0.037640627 -0.056017566 -0.22725466 0.13139424
0002b0 41 c2 a0 3d 73 4b e8 ba 05 b2 ee 3d 4b 20 1e 3e
       0.07849551 -0.0017722681 0.11655048 0.15442006
0002c0 5e 9c 5b bd 7f 79 31 3d 54 7e 09 3d 8e 6f 04 3e
       -0.05361592 0.04332876 0.03356774 0.1293318
0002d0 17 a8 3d be d8 d1 87 39 9d 65 30 3e ff 8e 1a be
       -0.18521152 0.00025905552 0.17226262 -0.15093611
0002e0 dd ed 59 3d eb fa 96 bd d9 02 eb 3d 42 ee 54 bd
       0.05320536 -0.073720776 0.114751525 -0.051985033
0002f0 bc dd 50 3e e1 49 08 3d ac e4 2c be 2e 81 1a be
       0.20397085 0.03327358 -0.16884106 -0.1508834
000300 8f 70 e0 3d a3 50 1c 3d c8 5c 29 bc e5 1c 0f be
       0.10958969 0.03816284 -0.010337062 -0.13975866
000310 21 c3 3e 3e 43 e9 20 3d 05 89 bc bd 39 ac 21 be
       0.18629123 0.039284956 -0.09205822 -0.15788354
000320 77 67 40 3d 9a 47 31 3e 6b c5 d4 bd 01 ec d8 3d
       0.04697367 0.1731247 -0.10389217 0.10591889
000330 4f 25 45 be b7 44 34 3e 58 15 8d 3d f5 68 50 3e
       -0.19252513 0.17604338 0.068888366 0.20352538
000340 a7 f9 f0 3d 2d dd d1 3d 37 51 d3 3d c8 35 00 3d
       0.117663674 0.10247264 0.10318225 0.03130129
000350 15 44 6c 3e 35 e4 17 3d 48 fb ec 3d bb d1 98 3d
       0.23072846 0.03708287 0.115713656 0.07461878
000360 bc d8 ac bd 81 a1 1f 3e e1 0b 20 be 6e 4c a3 3d
       -0.08439776 0.15588953 -0.15629531 0.07973562
000370 11 80 8d 3d a4 49 d3 3c 38 7f 05 3c ea e6 60 3d
       0.06909192 0.02579195 0.008148007 0.054907717
000380 3a 46 b7 3d e2 cc b6 bd 81 18 d3 bd 62 b5 26 bd
       0.089489415 -0.08925797 -0.10307408 -0.040700324
000390 06 8c d0 3d b4 32 1c 3e ec b9 2b bc 4f 65 f6 3d
       0.10182957 0.15253717 -0.010481339 0.12031042
0003a0 e8 6b 71 be bb 97 8f bd f1 81 75 bd 39 d8 1c be
       -0.23576319 -0.07011362 -0.059938375 -0.15316857
0003b0 92 83 19 3e 9b a6 c1 bc 78 9f b0 3d dd 0a bc 3d
       0.14991596 -0.023639014 0.08624166 0.091817595
0003c0 f7 bd da 3b a0 ab a7 3d 56 a5 18 3d b6 43 9a 3c
       0.0066754776 0.08187032 0.03726705 0.018831115
0003d0 1d 2a 0c 3d e8 bc d2 3d af cb 42 3c db 48 63 bd
       0.03421985 0.10289937 0.011889382 -0.055489402
0003e0 42 f2 78 3c ad 87 9d 3e 20 91 51 be 33 5a 94 bd
       0.0151944775 0.30767575 -0.20465517 -0.07243767
0003f0 da 12 31 3d c8 3a e1 bc b2 9a d1 bc e2 bc 30 be
       0.04323087 -0.02749385 -0.02558646 -0.17259553

conv4.0.weight f4 [64, 64, 1]
000000 2f ab e6 3d 6c 9f 33 3e f4 c5 1a 3e c8 b3 47 3e
       0.112631194 0.17541283 0.15114576 0.19502175
000010 20 69 84 3e ff b7 e4 3c d1 19 70 bc 28 ff c2 3d
       0.25861454 0.027919767 -0.014654593 0.095213234
000020 f0 b5 f0 bd 1c 3b 0c bd 09 3f 69 3d 54 35 13 3e
       -0.11753452 -0.03423606 0.05694488 0.14375812
000030 6b 40 45 3e 87 7b d6 bd e7 56 8c 3d dd 41 29 be
       0.19262855 -0.1047278 0.06852513 -0.16529031
000040 45 6b 12 3d 69 9d 1b 3e c1 d7 42 be b7 c1 0a 3e
       0.03574683 0.15196766 -0.19027616 0.13550459
000050 38 f8 1c bd 97 5f e9 bb 33 50 45 3e 74 a0 1f 3e
       -0.038322657 -0.007121991 0.19268875 0.15588552
000060 51 c9 8a be 66 8e b0 3d a0 2c b1 be 68 30 ec 3c
       -0.27106717 0.0862091 -0.3460436 0.028831676
000070 be 16 57 3d bf e3 62 3d 7b d3 d2 3d 65 7d 1b 3d
       0.052511923 0.055392977 0.10294243 0.037961382
000080 16 8a 54 3e dc 38 2e bc c0 be ed 3d c3 10 43 3d
       0.207558 -0.0106336735 0.11608648 0.047623407
000090 51 b3 39 3e 1a a6 90 3c 20 1c 97 3d a8 fb 78 3e
       0.1813481 0.017657328 0.07378411 0.24314749
0000a0 01 88 29 bd 80 f3 75 3e 44 0c 54 3d 6e e6 5c 3e
       -0.04138947 0.24018669 0.05176951 0.21572277
0000b0 fa 45 91 3d 79 c7 ab 3d 45 cc a0 3d 72 11 f1 3d
       0.07093425 0.08387656 0.07851461 0.117709056
0000c0 6f f0 ff 3d ca eb 49 3e 02 f8 ba 3d c5 41 4c 3e
       0.12497031 0.19718853 0.09129335 0.19946964
0000d0 e6 d9 ce bd bf 6e 16 3e ec 80 ab 3c dc ac 1b 3c
       -0.101001546 0.14690684 0.020935498 0.009501662
0000e0 81 bd 01 be 7c 55 4c 3d 3a 4c f3 3d 87 79 af bd
       -0.12669946 0.04988621 0.118797734 -0.085681014
0000f0 75 c7 ac 3d 0c ec 19 3e 01 e7 69 be dc 67 95 3e
       0.08436481 0.15031451 -0.22842027 0.291808
000100 9c 97 12 be 09 9a fc bb 05 f7 ba bd 3c dc 66 3d
       -0.14315647 -0.007708792 -0.091291465 0.056362376
000110 eb 95 79 3e da 3b f2 bc 99 34 da bd be 78 e5 bd
       0.24373595 -0.029569555 -0.106545635 -0.1120467
000120 a6 a9 3e be 35 71 39 bd 02 88 c4 3d dd 73 d7 3b
       -0.18619403 -0.04527398 0.09596254 0.0065750913
000130 c6 4f 83 be 29 06 ca 3e 3b 6a b6 bd 44 99 48 bb
       -0.256468 0.39457825 -0.089069806 -0.0030608932
000140 44 43 52 bd f0 96 49 bd 0d 93 21 bd 8e 8e 97 3c
       -0.05133368 -0.04921621 -0.03944688 0.018500593
000150 f1 87 8e bd e1 23 3b be 5a f3 71 3c 61 01 60 bd
       -0.069595225 -0.18275405 0.014767492 -0.054688815
000160 88 f7 cb 3d 3d 25 b0 bd 85 e5 b1 3d 68 b3 4e bd
       0.09959322 -0.08600853 0.086863555 -0.050464064
000170 51 16 ab bd 67 c5 e3 bc a4 4d fa bd 30 94 ef 3d
       -0.08353866 -0.02780409 -0.1222184 0.116981864
000180 69 0e 3d be f2 c8 6c be b5 97 e9 bd 32 23 75 be
       -0.18462528 -0.2312353 -0.11405889 -0.23939207
000190 71 86 ae 3c ea 6c ab bd 9c 51 bf bd 76 9c bf bd
       0.021304341 -0.08370383 -0.09341738 -0.093560144
0001a0 5f c2 0a be ba ff c3 bd 08 8c af be 3e 09 12 3e
       -0.13550709 -0.0957026 -0.34286523 0.14261338
0001b0 00 36 86 bd ca c7 3c bd d8 76 38 be cc 84 1b be
       -0.065532684 -0.04608897 -0.18014085 -0.15187377
0001c0 7f fe 61 3d a4 83 d3 bc 52 2f 68 3d e2 0f d7 bb
       0.055174347 -0.025819607 0.056685753 -0.0065631727
0001d0 5a 35 67 bb 4e 95 54 bd b7 10 13 3d 77 ae d2 bc
       -0.0035279603 -0.0519002 0.035904612 -0.025717957
0001e0 7a ab 8e 3c 25 36 2e be 59 38 23 3d 82 24 ca 3e
       0.01741575 -0.17012842 0.03984866 0.39480978
0001f0 7a 70 3e bd 48 6b b6 bd 34 e0 aa bd 02 52 ba bd
       -0.046493985 -0.08907181 -0.083435446 -0.09097673
000200 6d 6b db 3d ec ce e1 3c 09 4c fe bb c4 16 43 3e
       0.10713849 0.027564488 -0.007760529 0.19051653
000210 ca 3e 9f 3d 76 3b 4a bb f1 67 c6 bd 6e 41 82 3c
       0.07775648 -0.0030858195 -0.09687794 0.01590034
000220 5b 6d 92 bd d2 a0 c5 3d ab 4e c8 3c 9c 8f 62 3e
       -0.07149764 0.09649815 0.024451574 0.22125095
000230 43 94 3c bd 80 fc 93 bd 81 1b 0f 3c 5d a4 af bd
       -0.04603983 -0.07225895 0.008734585 -0.08576272
000240 39 ad 81 3e f4 fc 0d 3e 4d 1b d2 bd b9 58 00 3e
       0.2532747 0.13866025 -0.102591135 0.12533845
000250 57 20 16 3e 52 8e 0e 3e 6c 26 7e 3e f5 39 82 3d
       0.14660774 0.13921478 0.24819344 0.06358711
000260 79 01 c2 bd 03 85 93 3d a8 12 7c 3d ef d3 0a bd
       -0.09472937 0.07203104 0.06154123 -0.033893522
000270 32 41 b2 3d 4a ac 7a 3d 1a cf 80 3c 00 fe cd 3d
       0.08703841 0.061199464 0.015723754 0.10058212
000280 13 de 3f 3e 71 3c 45 3d 9d 19 4a 3e 23 92 2d 3e
       0.18737058 0.048153345 0.19736333 0.16950278
000290 fc 14 53 3c 89 2f ae 3d f4 7c 68 3d 3f 09 37 3d
       0.012883421 0.0850516 0.05675979 0.044686552
0002a0 cb e4 82 bc 2e 28 12 3e 78 27 75 3d e8 99 3a 3e
       -0.015978238 0.1427314 0.059852093 0.18222773
0002b0 2b 31 45 be 3a ef 20 be fc 94 39 bd 4d 6d b2 3d
       -0.19257037 -0.15716258 -0.0453081 0.08712254
0002c0 c3 aa e7 3d d4 cf 36 3e d7 a6 0d 3d 92 7a 9f 3e
       0.11311867 0.17852718 0.03458294 0.311482
0002d0 e7 c5 19 be 1d cc 4b 3e 0b a5 8f 3e 06 57 07 3d
       -0.150169 0.19902082 0.28055605 0.033041976
0002e0 d2 3d 0c be fc eb 7a 3e d9 51 db 3d 70 f9 81 bc
       -0.13695458 0.24504083 0.107089706 -0.015866011
0002f0 86 4b 7b 3d 17 36 80 3e eb 3c 37 be 93 95 58 3d
       0.06135132 0.25041267 -0.17894332 0.05287702
000300 55 98 3d be fb 55 8f bd b2 66 00 be dc be 5f bd
       -0.18515141 -0.06998821 -0.12539175 -0.054625377
000310 6c 7f 10 3e 3a 89 53 bd c3 8d df 3d b7 c6 fa bd
       0.14111108 -0.05164454 0.10915711 -0.12244933
000320 ca c1 d2 bd a8 4a 00 be 62 b1 d5 3d c1 16 f4 bc
       -0.102908686 -0.12528479 0.10434224 -0.029796006
000330 a9 83 ad bd d5 41 17 3e 51 cd d3 bd db 5b 24 3e
       -0.08472378 0.14771207 -0.10341895 0.16050665
000340 65 e0 db bd d8 7f 77 be f5 c8 50 bd 5f 58 34 be
       -0.10736159 -0.24169862 -0.050972898 -0.17611836
000350 39 a8 77 be 0c 69 0d be ab 00 ad bd e2 7d af 3d
       -0.24185266 -0.13809603 -0.08447393 0.08568932
000360 c1 30 8a bd 84 b3 01 be ae 42 6b bd 22 be 20 3e
       -0.0674758 -0.12666136 -0.057436638 0.1569753
000370 7f f0 5b be e1 54 ac bd 5e ac d7 bd 60 73 88 bd
       -0.2147846 -0.08414627 -0.10530923 -0.06662631
000380 7e 89 11 be eb 0d f8 3c ca 2b 8d bd 16 c9 17 3d
       -0.14212605 0.030280074 -0.06893118 0.037057005
000390 bd 60 26 be 00 dd 81 3d 3e 9f 6d 3d dc 1b 98 bd
       -0.1624784 0.063409805 0.058013193 -0.07427189
0003a0 95 a8 7d 3d 4e a0 54 3d 04 f7 90 be da 39 04 3e
       0.06192835 0.05191069 -0.28313458 0.12912694
0003b0 f5 52 fc 3c 8a d2 16 3c a3 bd 28 bd 56 6a b1 3d
       0.030801276 0.00920547 -0.041196477 0.0866286
0003c0 e5 ef dc bd 39 35 b2 bd 42 3a e9 bd 7b 4b 4f bc
       -0.10787944 -0.08701558 -0.11388065 -0.012652273
0003d0 19 93 40 3e 47 f9 4d 3d 4d 45 e7 bc ca 0f 51 bc
       0.18806113 0.050286558 -0.028231287 -0.012760112
0003e0 33 f2 0c 3e 56 b3 52 be 91 a6 48 be 5f 2d 58 3d
       0.13764267 -0.20576224 -0.1959479 0.052777644
0003f0 50 c8 48 be d3 c8 2a be 13 5c 1d be 22 97 65 be
       -0.19607663 -0.16678171 -0.15367155 -0.22420934
