models_slbp+gf/case1_final.pth (torch_old, 110331 bytes, 9 tensors)

conv1.conv.3.weight f4 [32, 32, 1, 1]
00000000: 38c9 3a3e d711 f73d cb4e 10be 8edb 993c
00000010: ed49 bb3e 256d 05bd 8a90 86bd aef0 25bd
00000020: ae1c c63c 2f6e 46bd cc7d 47be e2ba 83bd
00000030: fb8a 0c3d 1800 003c e294 20bc df5c 9dbd
00000040: 1faa cd3c e992 86be 9a8d 2dbc ede8 183e
00000050: 52fe 30bd 9209 bcbd 085c 67bc 66b7 4a3d
00000060: 7954 e3bd c44e 153e 208c 9b3e d3ae 41bc
00000070: 1cc4 f23d 20f7 1d3e 8b0b d1bc 47ee b4bd
00000080: e68f 2abe e789 aabd b113 a9bc dcbd 36be
00000090: 1569 353d d414 02bd b871 65bd 0a0f bdbc
000000a0: 98b8 7e3d bc97 653d f554 a6bd 25b1 fe3d
000000b0: 3ae7 ff3d 5c64 ddbd 8ed3 91bd 51c8 363d
000000c0: 8738 163d 6be0 14be 01f0 223d c4b1 9f3d
000000d0: 7f38 69be 0963 21be 7705 50be 3cba 7e3d
000000e0: ef64 683d 07b6 f73d 1fa5 473e 7705 523d
000000f0: 092d 103e 40fa 0f3b 4a35 843e 40b0 f7bd
00000100: 69a6 db3d 3a7d 24be 5518 203d 1fd6 70bd
00000110: c9da 663d 09b2 643c 580b 99bd 7051 98bc
00000120: 747f ed3d 3a82 9b3d ae2d b6bd bff6 3dbd
00000130: c372 08be 2a84 62be 76e7 95bd 9a80 15be
00000140: 0661 463e 4161 f6bd 0bcb 01be 9acf d03d
00000150: 2cca 063e 72df e6bd b8c2 9d3d 6fb2 f13c
00000160: 327a 1cbe 9201 3d3e 5067 8439 fad0 4cbe
00000170: ad84 5f3e b75d 26be 96ef ff3d 39ae 04be
00000180: 5597 53be fee3 0ebe f0a8 ec3c a1a1 113e
00000190: 4f2b 46be 91c3 8d3d da85 133e d377 9a3c
000001a0: 5f1d 0fbe 2b83 07be 8589 7d3d e138 be3d
000001b0: 8fce 5bbb 2c15 52bb 6d18 c1bd 87bb 2abe
000001c0: 5751 b1bd f730 543d ebf9 82bd bb81 79bd
000001d0: bbbf 4f3e 9b27 2e3e fb84 983d 406b d73c
000001e0: dfe4 a8bd 7908 15be 3a4d 3abd 81be 263e
000001f0: e12e 8cbc 37d6 73bd 82a7 06b9 f911 afbd
00000200: 9521 fd3c cb76 a4bc 4630 e1bd 147b 973c
00000210: bd1b c43e 7edf 3a3e ad78 febd c10a 65be
00000220: af11 6bbe 2e6c 79bd 1410 373c bb5c a63c
00000230: bb10 403e 67ff bdbd 6aea 493e 1161 893d
00000240: 17dd ab3c 2aaa e6bd 9cfd 5ebe 7efb 88bc
00000250: cfa7 0cbe 2367 f5bd 233b 0fbe 0282 5bbd
00000260: 433b 3cbe 9970 023e d600 0cbd 6a55 aebd
00000270: 019f 153d 2e44 7f3d 0f14 a7bd dfab 83bd
00000280: 4dbc 3e3e a4fc ddbd d51d 263e 7980 9d3d
00000290: e2a0 21be e5eb f83c e0f4 a23c f688 ecbd
000002a0: 7a4b fd3d 42da 743d eb2d 593e f57d 9c3c
000002b0: 08c3 5abd d517 fd3a 46e6 acbd 8937 4fbd
000002c0: 5a46 813e cb92 cbbd cf87 023d 4ecf 46bd
000002d0: c56a 563d 981f f2bc 1e05 163e ff2d da3d
000002e0: d48f eebc e6a8 8dbd a332 8bbd 8652 a4bd
000002f0: d11d 3b3e 6208 4f3d 965c 3dbe e31a 13be
00000300: e4cb 9c3d dfff 353e 2512 a23d 94df 1ebd
00000310: 183a 083d 31d6 e63c 20c4 0d3e 7110 cdbb
00000320: 9427 643e 9705 18bc 9682 e63d 9eee 1d3e
00000330: 497b 653e c717 483b 9c12 8f3d 36ab 79bd
00000340: d73c 493d 0702 853e 91ba f93b 2b06 44bd
00000350: 5028 77bd db5b 6fbd be6d 6e3e db48 113e
00000360: 00cd a03d 9ae6 4d3d 0a48 013e 7b2b 35be
00000370: 155d 8dbe 341c 21be d500 693e 0e72 8c3e
00000380: d73d 11be 528c 9eb9 4327 acbc 1665 2abe
00000390: c67f d73c 6e90 a5bd ced7 f3bd 3701 eebd
000003a0: 5906 383c 3f2f 1b3e 26f3 95bd a52c e0bd
000003b0: 29f7 293e 1686 1c3d 16cf 223e 6aa6 e9bc
000003c0: c21a 783b f987 60be d0c5 c43d 9649 6c3e
000003d0: 255d d23d 9076 1d3b d83c 89bc 28bd 39bb
000003e0: 1024 1dbe 1523 903e 6983 a83e 4b10 f7bc
000003f0: abef 573e 1efe 13be b52a a23d 1973 05be
0.18240821 0.120639496 -0.14092557 0.01878145 0.36579838 -0.03257479 -0.065705374 -0.040512733
0.024183597 -0.048444923 -0.19481581 -0.064321294 0.03431223 0.007812522 -0.009801121 -0.076837294
0.025105534 -0.2628396 -0.0105928425 0.14932604 -0.04321129 -0.09181513 -0.014121063 0.04949131
-0.11100096 0.14580828 0.30380344 -0.0118214665 0.11853811 0.15426302 -0.0255182 -0.0883451
-0.16656455 -0.08327084 -0.020639272 -0.17845863 0.044289667 -0.031758144 -0.056016654 -0.02307846
0.06218776 0.05605291 -0.08121673 0.124361314 0.12495275 -0.10810158 -0.07120429 0.04462463
0.036675002 -0.14538734 0.039779667 0.07797578 -0.22775458 -0.15760435 -0.20314585 0.062189326
0.056736883 0.12095266 0.19496582 0.051274743 0.1407968 0.002196923 0.25821906 -0.12094164
0.107250996 -0.16063395 0.039085705 -0.05879795 0.056360994 0.0139584625 -0.07472867 -0.01859352
0.115965754 0.07593198 -0.088954315 -0.046377894 -0.13325028 -0.22120729 -0.07319538 -0.14599839
0.19372949 -0.120302685 -0.12675111 0.10195847 0.1316306 -0.112730876 0.07703155 0.02950403
-0.15280989 0.1845763 0.00025253976 -0.20001593 0.21827956 -0.16246687 0.12496869 -0.12957086
-0.20663197 -0.1395416 0.02888915 0.14221813 -0.19352458 0.06922067 0.14406529 0.018855965
-0.13976048 -0.1323363 0.061898727 0.092881925 -0.0033539867 -0.0032056076 -0.09428487 -0.16673099
-0.086580925 0.05180451 -0.06395324 -0.060914736 0.20287983 0.17007296 0.07447239 0.026296258
-0.08246779 -0.14554013 -0.045483805 0.16283609 -0.017112197 -0.059530463 -0.00012841637 -0.0854835
0.030899802 -0.020076176 -0.109955356 0.018491305 0.38302413 0.18249318 -0.12425361 -0.22367384
-0.22955965 -0.060894184 0.011173267 0.02030789 0.18756382 -0.0927723 0.19718328 0.06707967
0.020979447 -0.11262925 -0.21776432 -0.016721483 -0.13735889 -0.119825624 -0.13987403 -0.053590782
-0.18381982 0.12738265 -0.034180485 -0.08512385 0.03652859 0.06232088 -0.08158123 -0.06429266
0.18626519 -0.10839203 0.16222318 0.0769052 -0.15784028 0.03038592 0.019892156 -0.11549561
0.12367912 0.05977846 0.21208923 0.01910303 -0.053408653 0.0019309471 -0.08442359 -0.05059007
0.25248986 -0.09940108 0.0318678 -0.048537545 0.052347917 -0.02955608 0.1465039 0.10653304
-0.029121317 -0.069169804 -0.067967676 -0.080235526 0.18273093 0.050545104 -0.1849235 -0.14365725
0.076560766 0.17773388 0.07913617 -0.03878744 0.033258528 0.028178306 0.13844347 -0.0062580635
0.22280723 -0.0092786765 0.11255376 0.15423056 0.22410311 0.003053175 0.06985971 -0.060954295
0.049130287 0.2597811 0.0076211174 -0.047857445 -0.06034118 -0.05843721 0.23284051 0.14187948
0.07851601 0.050268747 0.12625137 -0.17692368 -0.27610078 -0.15733415 0.22754224 0.27430767
-0.14183746 -0.00030240655 -0.021014815 -0.16640124 0.026306044 -0.080841884 -0.11906396 -0.116213255
0.011231982 0.15154742 -0.073217675 -0.10946015 0.1659819 0.03821381 0.1589931 -0.028521735
0.0037857746 -0.2192687 0.09608042 0.23074946 0.10271672 0.0024026968 -0.016752645 -0.0028341506
-0.15345788 0.28151765 0.32912758 -0.030159136 0.2108752 -0.14452407 0.07918302 -0.13032188

conv1.conv.6.weight f4 [32, 32, 1, 1]
00000000: 547f 443e 9368 b83d d044 32bb 9d36 53bd
00000010: 8bef 783e 84ba 02be 1d8a a2bd 9b33 e63d
00000020: e7eb 473c 26c2 263e 1353 753d 789d dc3b
00000030: 724f 0d3e 5f48 8abb 2e5b 8d3e 58d2 be3c
00000040: 4457 f63d a014 c23e 3e1c fcbd c4da 5e3e
00000050: 7bbe f4bd 016e 793d 1d4e 15be 6990 3c3e
00000060: a205 83bd 1c5f f9bd 05ca 843e 9669 6c3c
00000070: 0996 503c cab6 2a3c ae92 af3c 2387 603e
00000080: d58b 773e 3385 d83d 6f76 953e 17c7 4b3d
00000090: 0441 9b3d a915 ae3e 13bb 823e 06d3 6e3c
000000a0: f6c2 733d d89c 6e3e a958 323e 9b5d 0f3e
000000b0: 47a9 c23d d63c e1bc 4e54 3bbe f0eb 8ebe
000000c0: df87 f93c f81b 60bb fe59 d43e 5d9c 373d
000000d0: 3301 bb3d 029d c6bd 9a68 293e 5cf7 56bd
000000e0: f18e 7b3d 08e4 0b3e 21af 123e cb03 1f3d
000000f0: d78e 2dbd b22a ac3d ede0 5dbe cbfd e4bc
00000100: f817 c4bd f95f 823d 031d 263e 9e66 d7bc
00000110: 6994 6f3d ac1b 01be c0db e0bd f40f 6ebd
00000120: 66e1 8f3d 0619 3bbe 1921 273e 3b2f cebb
00000130: 63a9 093e 4298 ecbd f5cb 713d dc3e 303d
00000140: 080a 8fbd fb88 8a3e 29e3 83bc 79bc 883e
00000150: 1280 073e 0437 ed3c 2a25 28be c13b 813c
00000160: 1198 ecbd 9a99 98ba 3a11 173e 207a 113c
00000170: c43a 15bd bb2a 4abd 5f02 04be fb90 0a3e
00000180: 713c 7ebd dbd4 113e 6074 d4bd 5d42 dc3d
00000190: edc9 373d e3e2 df3d e53e 48be a647 21be
000001a0: a3f0 443e 443a 50be f965 55bd daa8 16be
000001b0: 9597 133e 5515 f0bd ff74 d73d 62e5 b1bc
000001c0: 1df2 09be 925f c1bd da11 5d3e c83a dfbd
000001d0: 0b6b 6fbe 0fb7 acbc 3c0d 443e a420 b23e
000001e0: d80e 193c a82f 8a3b 142b 5ebd 3d2a d8bc
000001f0: f936 d83d c600 62bd f356 d03d f755 84be
00000200: 9b03 0abe b89a 93be f0ed 8abd df6d bc3d
00000210: 3ad3 57be 484d 9dbd e510 44be 06c5 86be
00000220: 7d23 613d 1da0 093e 3aa3 2cbe 71ff 78bb
00000230: 9e3b 3dbe e70f 573e c9ac a7be 21e5 1fbe
00000240: dff3 33bc 7a0d b8be c097 a13e 2e27 29bd
00000250: 9f6c 913d 8ecc 4cbe e3d2 bb3e 0d79 b03e
00000260: a5d3 403e 391d 8a3c 475b 6ebe 174d b4be
00000270: 3e22 a03e 2744 403e 80a1 793e 2231 fbbd
00000280: 3c37 2f3d bdc1 f4bd 0ae4 573d eaaa 9c3e
00000290: 20e3 823d 05d7 19bd 9517 823c a24e d13d
000002a0: 384b a93e 53c5 5dbc 3abc 46be 8bfe 57be
000002b0: d5c6 483d 8ca7 39bd abd2 50be 29e3 443d
000002c0: 5b6f 23be 3d41 f1bc 6116 793e f8dc 50be
000002d0: 63d1 a5bc d498 73be 73bb 1c3e 07b5 6b3e
000002e0: 19df 4e3e fe93 e93c 1dbf c3bc 27b4 34be
000002f0: ecec d5bc 4925 1bbb d044 3ebd 3861 66be
00000300: 917f 2f3d caf7 483e eb57 5cbd 888c e43d
00000310: 8528 5f3e af9c 93be 9cd3 903a 1827 b53d
00000320: cae6 4fbe 8901 503c 4333 293d 5f27 553e
00000330: f607 3cbe 4c1d 643a c7fa 693d 1c86 843c
00000340: 71aa 313e b255 0a3d 9fd1 8c3d 9626 efbd
00000350: b48c 3dbe 21ff 1f3e db64 65be 2edd acbd
00000360: 52ea 17be 26ab 97be e7c6 4c3c 9646 d93d
00000370: 5a66 c6bd 2d3c a4bd 6016 d6bc d256 d53d
00000380: c22a 1fbd c31a 813e c23f cdbd f6dc 523c
00000390: 84b2 833d 88c5 953d 81b7 a7bd 0925 093e
000003a0: 785a 8d3d 0dbb 0d3e ce74 5d3d 356b 003e
000003b0: ec12 803e bb3b 2fbe ab44 353d c33a 37be
000003c0: 21a5 02bd af5e 3c3e 0905 d9bd 7000 1dbe
000003d0: ec2c a53b 1818 fe3d 8a3e 573c 5f8f 2d3d
000003e0: 78cc 43be 7442 03be 3f3d 11be b92f e7bd
000003f0: 5953 233e c157 ecba c49f d8bd 2431 c83e
0.19189197 0.09004321 -0.002720166 -0.051565755 0.24310128 -0.12766463 -0.07936499 0.11240312
0.01220224 0.16284999 0.05989368 0.006732639 0.13799837 -0.004220053 0.27608627 0.02329366
0.12028363 0.3790636 -0.12310074 0.2176314 -0.11950394 0.060895924 -0.14580579 0.18414463
-0.06397559 -0.12176344 0.2593538 0.0144294705 0.012731084 0.010419557 0.021432247 0.2192655
0.24174435 0.10572281 0.2919192 0.049750414 0.0758076 0.340009 0.2553335 0.014576679
0.0595121 0.23302019 0.17416634 0.14000551 0.09504943 -0.02749483 -0.18293878 -0.2791438
0.030460296 -0.0034196358 0.4147491 0.044826854 0.09131088 -0.096979156 0.16543809 -0.052481994
0.061415616 0.13661206 0.14324619 0.038821977 -0.04237255 0.08406581 -0.21667834 -0.02795305
-0.09574884 0.063659616 0.16222005 -0.026294049 0.058491144 -0.12608212 -0.10979414 -0.058120683
0.07025413 -0.18271264 0.1632122 -0.0062922514 0.13443522 -0.115524784 0.0590324 0.043028697
-0.06984335 0.27057633 -0.01609953 0.26706293 0.13232449 0.028956898 -0.16420427 0.015775563
-0.11552442 -0.0011642457 0.14752665 0.0088792145 -0.036432996 -0.049357157 -0.1289153 0.13531868
-0.06206936 0.14241354 -0.10373759 0.10754845 0.044870306 0.10931947 -0.19555242 -0.15749988
0.1923242 -0.20334727 -0.0520992 -0.1471285 0.14413293 -0.11722819 0.10520362 -0.021715824
-0.13471265 -0.09442057 0.21588841 -0.108998835 -0.23380677 -0.021083383 0.19145674 0.34790528
0.009341918 0.004217107 -0.0542403 -0.026387328 0.1055736 -0.05517652 0.10172834 -0.25846836
-0.13477938 -0.2882898 -0.06783664 0.09200644 -0.2107667 -0.07680756 -0.1914707 -0.26322192
0.054965485 0.13439985 -0.16859141 -0.0037994052 -0.18479773 0.2100216 -0.32749012 -0.1561475
-0.010983436 -0.35947782 0.3156109 -0.04129713 0.07100796 -0.19999906 0.3668433 0.34467354
0.18830736 0.016859638 -0.23277007 -0.35215065 0.31276125 0.18775998 0.24378014 -0.12265231
0.042777285 -0.11951015 0.05270771 0.30599147 0.06390977 -0.037558574 0.015880385 0.10220076
0.330652 -0.013535815 -0.1940774 -0.21093194 0.049017746 -0.0453258 -0.20392863 0.0480682
-0.15960447 -0.029450053 0.24324943 -0.20396793 -0.020241445 -0.23788768 0.15305881 0.23018275
0.20202293 0.028512951 -0.02389484 -0.17646848 -0.02611395 -0.0023673347 -0.046452343 -0.22498024
0.042846266 0.19625774 -0.053794783 0.11159617 0.217928 -0.28830478 0.0011049393 0.08845347
-0.20302883 0.0126956785 0.041308653 0.208158 -0.18362412 0.00087018753 0.057123926 0.01617723
0.17350174 0.03377313 0.068759196 -0.116772816 -0.18510705 0.15624668 -0.22401755 -0.08440624
-0.1483548 -0.29622763 0.012498594 0.10609166 -0.09687491 -0.0801929 -0.026133716 0.1041695
-0.038859136 0.2521573 -0.100219265 0.012870064 0.064305335 0.07313067 -0.081892975 0.13393034
0.06902021 0.13840885 0.05406647 0.12540896 0.25014436 -0.17112629 0.04425494 -0.1789351
-0.03189576 0.18395494 -0.105966635 -0.15332198 0.0050407555 0.12406939 0.013137469 0.042373057
-0.19120967 -0.12818319 -0.1418352 -0.11288399 0.15949763 -0.0018031524 -0.10577348 0.3909999

conv2.conv.3.weight f4 [32, 32, 1, 1]
00000000: 50ec de3d 588a 743e de9c 643e b9a6 24be
00000010: a365 c6bd 72a4 6c3e 09ea a5bd 3a2b b43e
00000020: e5bb b0bd 41ed f2bc a056 40be 88cc 793b
00000030: 4061 f8bd e715 783e 7ab4 99bb 3c57 5d3c
00000040: 8626 243e 8682 013e 3fb7 17bd dff9 2e3e
00000050: 1c1b cbbd 9a19 a6be 342c 533e 28aa cb3d
00000060: 877c bd3d 08d2 1abd c5ba d3bc 4e93 093e
00000070: b48f cc3c 388a 523e fffb f93d 182c c8bd
00000080: 7d8e 3fbd 9481 08be 8c4e b63c 4674 09be
00000090: 8d32 283e 4b53 65be 7f18 6fbe 8734 233e
000000a0: efd5 7c3d 1c30 3d3d 3d0b 483d bf9a 033e
000000b0: 2e98 04be c957 78be 2dd6 52be 1986 80bc
000000c0: 1c10 933d 3ef1 2ebe fb69 863d ccb6 3c3e
000000d0: cd35 1ebe 3401 bbbd 3b98 0e3d 8135 f03d
000000e0: b8e0 9ebe ef11 aebd 242d 48bd 18b9 a6be
000000f0: 1d87 3fbd 12d0 8abe bfea b93c 1995 fc3d
00000100: 9fe1 c2be 99ef a7bd 2eba 2ebd 8627 eb3d
00000110: cc13 09bd c100 0fbd da21 87bd dd7c de3d
00000120: 673a f4bd 2be0 c23d a217 b13d dbda 3bbe
00000130: 6d58 913d 51a5 6c3c 8071 02be f08c 4f3e
00000140: 09f7 8cbd b52e 34be 2e79 6fbe 95b5 803e
00000150: c560 9f3e 846a 233e e253 91b9 5032 d33d
00000160: 058e 05be 68f0 99bd 635e e63d 55fb 40be
00000170: e379 0dbe 6b5b 0a3e cb09 963d 6d38 15be
00000180: 022f 863d 6bb6 77be e622 423e 93db 14bd
00000190: de40 fcbd ff69 b63d 00e2 543c e4a1 9a3d
000001a0: 3d0a 05be b33b 463d cf19 bebd 1217 4fbe
000001b0: a844 ba3d 38a9 44be 315e 45be 8086 883c
000001c0: 885d 553d a5a3 ccbc 27bc c03d 5123 4e3e
000001d0: 6c55 253e 8f24 583d d560 cd3d 2fc7 863d
000001e0: feb9 7ebe 33eb 98bd 7399 2b3e 7f21 023c
000001f0: 6d99 78be 1a92 efbd 9e4c 1a3e e3a4 823d
00000200: 2791 87be 14d4 55bd 7381 07be 4e6c 0abe
00000210: ecf3 febc 7c03 3d3d 2ca0 383e 2267 8a3e
00000220: ec89 ad3c 0359 13be 9cf9 bf3d 4dce 3c3d
00000230: 92ed ad3c f191 5a3e cf8a 3bbe 4a7e 08be
00000240: 4f02 41bd bd03 bfbd 093f 09be 362e 233e
00000250: 147c 623e cfc6 943d 0d43 57bc 1b12 6dbd
00000260: cf23 213d a03c 20be 17aa aebd 7ca6 d4bc
00000270: 822d bdbd e1d7 9f3d 47c7 a63e 57fb 33be
00000280: 9dc8 923c da7e 3ebb 53af 3f3e dfd5 55be
00000290: 4ee3 9b3c eeda c43d b8df e23c e147 c03c
000002a0: 7529 14be 3f20 2c3e 6b32 be3d 6be4 4cbe
000002b0: c142 ae3d 524c 8c3c b1a4 1ebe 2fba 323d
000002c0: 37d2 d33d ba1f 3c3d 95cb b0bd 5590 283e
000002d0: 3a9b 723e 7ddb d43d 93d6 02be df4a f7bd
000002e0: 2bd3 1abe 3c94 f2bc 1e89 283e 6e8a ecbd
000002f0: f67a a3bd 3e5b 6abe 6930 903e 65a3 ec3d
00000300: 3dcf 5cbe 5362 e03d b81d efbd 5c23 f2bd
00000310: 295f 693e 2464 e9bd 01ee 87be 75bc 17be
00000320: 5759 473e 4c42 fb3d d997 a8bd bdd0 1cbe
00000330: adbf 1fbe 2add edbd 41b2 c63c 47e2 32bd
00000340: f327 94be 908c 31be 7913 943e 196a 013e
00000350: f0df 03be c917 3a3e 98d6 833d 5f87 05bd
00000360: 28d0 ddbc afda b2be 7737 e93d b487 15be
00000370: 6c5f 753e f16b 2dbd 01bc 70be 38a1 283e
00000380: ec0d acbd 5b71 cabd 0129 783e e133 02be
00000390: e293 65bd 9339 aabd f248 72be dc95 5b3e
000003a0: 8f1d 563e ce54 cc3d 57a2 20be 86da 533e
000003b0: ab27 83be 909e 303d 83a0 58bd 3d8c 153e
000003c0: 6383 963c 7df9 a3bd d290 083e 6d24 643e
000003d0: f237 8b3d fac9 d83d d5de 10bd 9017 87be
000003e0: bb70 b9bc 1bdc aebd f8c6 723c 9024 d93c
000003f0: 20ea 433c d86d b73d c874 9b3c 1d60 6e3c
0.10884917 0.23880899 0.22325465 -0.16079225 -0.096873544 0.23109606 -0.08101279 0.3518923
-0.08629588 -0.029654147 -0.18783045 0.0038116295 -0.12127924 0.24227105 -0.004690704 0.013509568
0.1603032 0.12647447 -0.03703999 0.17087506 -0.0991728 -0.32441407 0.20622331 0.09944564
0.09252267 -0.037797958 -0.025845895 0.13435099 0.024970867 0.20560539 0.122062676 -0.09774035
-0.046766747 -0.1333068 0.022254251 -0.13423261 0.16425534 -0.22395055 -0.23349188 0.15938006
0.06172746 0.04618846 0.048838843 0.12852 -0.12948677 -0.24252237 -0.20589514 -0.015688943
0.07180807 -0.17084214 0.06563183 0.18429106 -0.15450211 -0.09131089 0.034813147 0.11728955
-0.31030822 -0.08499514 -0.048871174 -0.3256309 -0.046759713 -0.2711187 0.022694943 0.123331256
-0.3806276 -0.081999965 -0.042658024 0.11482148 -0.033466145 -0.03491283 -0.065982535 0.108636595
-0.11925202 0.09515413 0.08647086 -0.18345205 0.07096944 0.014443711 -0.1273861 0.20268607
-0.06883056 -0.17595942 -0.2338607 0.25138536 0.31128517 0.15958601 -0.00027719053 0.10312331
-0.13042457 -0.07516557 0.112484716 -0.18845876 -0.13816027 0.13511436 0.073260866 -0.14572306
0.06551935 -0.2419068 0.18958625 -0.036342215 -0.1231706 0.08906936 0.012993336 0.075504094
-0.12992187 0.048396777 -0.09282266 -0.20223644 0.090951264 -0.19205177 -0.19274212 0.016665697
0.05209115 -0.024980376 0.09410887 0.2013066 0.16145867 0.05276924 0.10028235 0.0658096
-0.24875638 -0.07466736 0.16757755 0.007942556 -0.24277277 -0.116977885 0.1506829 0.06379106
-0.2647793 -0.052204207 -0.13232975 -0.13517877 -0.03112217 0.0461459 0.1802985 0.2703181
0.02118393 -0.14389424 0.09373781 0.04609518 0.021231446 0.21344735 -0.1831467 -0.13329425
-0.047121342 -0.09326885 -0.13402952 0.15935597 0.22117645 0.07264482 -0.013138545 -0.057878595
0.03934079 -0.15648127 -0.08528536 -0.025958292 -0.092371956 0.078048475 0.32573912 -0.17576347
0.017917925 -0.0029067309 0.18719225 -0.20882367 0.019029286 0.0961207 0.027694568 0.023471775
-0.1446894 0.16809176 0.0928696 -0.2000901 0.08508826 0.017126236 -0.15492512 0.04363459
0.1034283 0.045928694 -0.0863258 0.16461308 0.23692027 0.103934266 -0.12777166 -0.120748274
-0.15119617 -0.0296117 0.16458556 -0.11549841 -0.07982437 -0.22886369 0.28161934 0.115546025
-0.2156343 0.10956254 -0.1167559 -0.118231505 0.22790207 -0.113960534 -0.2654877 -0.14817984
0.19467674 0.122685045 -0.08232088 -0.15314002 -0.15600462 -0.11614449 0.02425492 -0.043672826
-0.2893673 -0.17338777 0.28921106 0.1263813 -0.12878394 0.18173136 0.06437415 -0.032599803
-0.027076796 -0.34932467 0.11387532 -0.14602548 0.23962182 -0.04233927 -0.23509218 0.1646775
-0.08401093 -0.09884902 0.24234392 -0.12715103 -0.056049235 -0.08311763 -0.23660639 0.21443886
0.20909713 0.09977113 -0.15686928 0.20688829 -0.25616202 0.043119967 -0.05288745 0.14604278
0.018373197 -0.080065705 0.13336495 0.2227952 0.0679778 0.10585399 -0.03536876 -0.26385164
-0.022636762 -0.085380755 0.014817946 0.026506692 0.011957675 0.08956498 0.018976584 0.014549282

conv2.conv.6.weight f4 [32, 32, 1, 1]
00000000: f477 4a3e f822 cc3d 4ea4 26bd 94a2 603d
00000010: 62ba 5cbe a243 45be 684f ecbd 63cc 8dbd
00000020: 3f8b 93be c382 4e3c 355e d6bd 0093 8fbe
00000030: 17fe f0bd 0e4d 15be 17f6 d0bd bfc6 8d3c
00000040: 0a2e 3d3c 283e fabd cd87 4abc fc11 563d
00000050: 3325 42be adbd 673c 8c88 bd3d 2f59 9a3d
00000060: e262 833d 6a46 ee3c dfc9 4e3d fa2e 3e3e
00000070: bd1e f7bc 9e27 523d d970 083e 4d02 dbbc
00000080: dbba 08be d2b3 c7bc 0bab 04be 314b 113e
00000090: 5d3a 563c d26e 153d 4f17 bdbd 84bd 3f3e
000000a0: 1d89 d53d 04a7 953d 68ee b7bd f0a6 d13d
000000b0: 8a51 213e c4a0 0b3e 43d0 b33a 6cf5 2dbe
000000c0: 290b 10be dd6c 5cbe 199b 93bd a030 8a3c
000000d0: c3d4 a73e 2076 0abd 887d 92be 79cf 18be
000000e0: b282 de3d 7434 bc3d 62ac cf39 bf59 f43d
000000f0: e1f5 bc3c 627e 123e 457c 993d f519 9d3d
00000100: b798 973d 5b39 1d3d 5ee5 3a3e 1be6 783e
00000110: f117 823d 15f4 0d3d 0c87 1dbc 1477 ce3c
00000120: 8f4b 1fbe b355 43bd 1101 1fbe 8c14 8e3d
00000130: 2ee1 c9b8 0b40 d5bc 3bf0 bfbd 85ca 753e
00000140: f048 34bd faf3 b53e b52e 4a3e e22b ae3c
00000150: 6fd0 aebe 5368 9fbb e0b9 b7bd dadd 2f3e
00000160: bfc5 e03d fb67 08be 5d59 923d 933b 173c
00000170: f180 223e 901d e43c 8494 52be 07fc 28be
00000180: 2b07 cc3c 42bd fdbd 129a 08be 9727 0abe
00000190: fde1 b5bd b3c4 b1bd 2a5c 6abd 6a1f 84ba
000001a0: c628 1f3d 439b b33e 1719 133b 3cbe 283e
000001b0: 139d bc3e c3f2 c4bd bcf2 50be f0a8 f63d
000001c0: 1478 1f3e c26d aebb 9e06 b33d 6be0 85be
000001d0: dc9f 593e 30b6 4d3e 017f 94be e939 04bd
000001e0: 4861 d73a 8763 113d 9f9a fd3c 7369 76be
000001f0: 1da3 c1bb 50fb bdbd 6cea c43e 48c2 b9be
00000200: 8cec babe 0860 1d3e 8ad9 4d3e 3440 033c
00000210: d5a4 17bd fafc 90bd e85b d53d 5dab e2bc
00000220: 4597 05be fe07 d8bd 3e92 43be 6227 d4ba
00000230: f8c3 a8bd e72b 2f3e b82c 2c3e b919 25be
00000240: 4fbe e2bd 65f2 1bbe 2827 e43d 794c da3d
00000250: 80b1 713d b451 afbb 4906 af3d 09dc 18be
00000260: 142a 35bd 5c48 63be 0689 2bbc ce2b 3e3e
00000270: c00e 753e 10bd ec3d 62c3 0e3e 27dc 93be
00000280: 2fbe 1bbe 22c8 ee3d 7296 edbc c10f 763d
00000290: fa4f 263e d7a2 1ebd 7856 aabc 2776 193e
000002a0: 734a 533d 5c7d fcbc 2399 c43e 59e4 f7bd
000002b0: 9fe8 13bd 2a41 123e aafa 163e 4594 9dbb
000002c0: 1acb c43d e4ff 0f3d 9a2b 51bc 79da 703d
000002d0: d251 a2bd c427 2fbe 7f9d f2bd 563b 68bd
000002e0: 6ccf fbbd 5973 823d 4ab9 9fbd ec01 7d3e
000002f0: 79b7 14be ce8a 253e bd02 513e afab 373e
00000300: 0702 dabd 09ef fe3d 7fb3 1cbc 2906 1b3d
00000310: 4193 70be 6a19 ef3d c88c 133e 1015 5b3d
00000320: 85ba 18bd 798c bebc 9949 d43d c2f1 dfbd
00000330: a8f7 9fbd 97db 82bd 94e0 803e a2cb 9dbe
00000340: 68e4 f33c 80d1 b4bc dc71 df3a 3092 a63d
00000350: e14c 48be e447 db3b 69d0 703e 0cab 5abe
00000360: 3dfa adbd 3dac a5be a7ed 9fbd 06ef f8bd
00000370: f662 563c a285 263e 1814 003e 38e5 8b3e
00000380: e78d 823e b3c1 88bd aab2 2c3c 17a8 693c
00000390: 2e0c 793e 77f3 863e 86e4 213e 0797 433e
000003a0: cb3f 42bc 7224 41be b623 083e 4f13 6b3e
000003b0: 9ba5 5c3b 9dce 9dbd 6bd2 98bd 77a9 c03d
000003c0: c292 f2bd e9d8 9c3d 2b2e 683e a91f a73d
000003d0: 593a 0cbd 52bf c73c 72c0 2d3e a2be e63d
000003e0: 8ed0 d3bd b907 cd3d 4e2d 3e3e 96f5 b73d
000003f0: f108 133c 1b7a 96bd 233e 8cbe 5529 913d
0.19772321 0.09967607 -0.040684037 0.054842547 -0.21555474 -0.19264081 -0.11538583 -0.06923749
-0.28817174 0.012604418 -0.10467187 -0.2804184 -0.11767214 -0.14580175 -0.10203188 0.017306684
0.011546621 -0.122188866 -0.012361479 0.052263245 -0.18959503 0.014144343 0.0925456 0.07536542
0.06415345 0.02908631 0.050485488 0.18572608 -0.030166024 0.051307313 0.13324298 -0.026734496
-0.1335253 -0.024377737 -0.12955873 0.1418884 0.013075438 0.03648264 -0.092329614 0.18724638
0.10426543 0.07307246 -0.08981019 0.10236919 0.15753761 0.13635546 0.0013718683 -0.16988152
-0.14066757 -0.21525903 -0.07207317 0.01686889 0.32779512 -0.03380406 -0.28611398 -0.14922895
0.10864772 0.09189692 0.00039610552 0.1193118 0.023066463 0.14306024 0.07494406 0.076709665
0.07402175 0.038384777 0.18251559 0.24306528 0.06352223 0.034656603 -0.009614717 0.025203265
-0.15556167 -0.04768915 -0.1552775 0.06937513 -9.62637e-05 -0.026031515 -0.09371992 0.24003036
-0.04401487 0.35537702 0.1974438 0.02126116 -0.34143397 -0.0048647313 -0.08971 0.17174473
0.10975217 -0.13320915 0.07145951 0.009230512 0.158695 0.027846128 -0.20564467 -0.16502391
0.024905762 -0.12389614 -0.13340023 -0.13491665 -0.088809945 -0.086800955 -0.0572168 -0.0010080163
0.038857244 0.35079393 0.0022445375 0.16478819 0.36838588 -0.096166156 -0.20405096 0.12043941
0.1557315 -0.0053231427 0.087414965 -0.2614778 0.21252388 0.2008903 -0.29003146 -0.03228179
0.001643219 0.035495307 0.030957518 -0.24063663 -0.005909337 -0.0927645 0.384601 -0.36281037
-0.36508596 0.15368664 0.20102516 0.008010913 -0.03702243 -0.070795015 0.1041792 -0.027669603
-0.13045986 -0.105483994 -0.19098756 -0.0016186053 -0.08240503 0.17106591 0.16813934 -0.16123094
-0.11071455 -0.15229185 0.11140281 0.10659117 0.059007168 -0.005350316 0.08546121 -0.14927687
-0.044229582 -0.22195572 -0.010469681 0.18571398 0.23931408 0.11559498 0.1394172 -0.288789
-0.15209268 0.11659266 -0.029002402 0.060073618 0.16241446 -0.038729515 -0.020793185 0.14986478
0.051584672 -0.030821495 0.38398084 -0.12104101 -0.036110517 0.1428267 0.14744058 -0.004808935
0.09609051 0.035156146 -0.012766743 0.0588021 -0.07925762 -0.17105013 -0.11846446 -0.056697212
-0.12295422 0.06369657 -0.07799013 0.24707764 -0.14523114 0.16166231 0.20411201 0.17936586
-0.10644918 0.12447936 -0.00956428 0.03784767 -0.23493673 0.11674769 0.14409173 0.053486884
-0.037287254 -0.023260342 0.103656 -0.109347835 -0.078109086 -0.0638954 0.2517134 -0.30819422
0.029771999 -0.022072554 0.0017047483 0.08133352 -0.19560577 0.0066919196 0.23517002 -0.21354312
-0.08494995 -0.3235797 -0.078090005 -0.12154965 0.013085118 0.16261914 0.12507665 0.27323318
0.25498888 -0.0667757 0.010540644 0.014261267 0.24321052 0.26357624 0.15809831 0.19100581
-0.01185603 -0.18861559 0.13294873 0.22956584 0.0033668044 -0.07705424 -0.07462009 0.09407323
-0.11844398 0.0765856 0.22673862 0.081603356 -0.034235332 0.02438322 0.16967943 0.11266829
-0.10342513 0.100112386 0.1857197 0.08982389 0.0089743 -0.073475085 -0.27391157 0.070879616

conv3.conv.3.weight f4 [64, 64, 1, 1]
00000000: 1a26 863d 0cd2 f9bc 3923 b33d d55f 4e3d
00000010: 50ef 7dbd ac81 82be 7cba 8b3d c04a d93c
00000020: 335f 753d 4080 96be 2bde fc3d e31e b5bd
00000030: f868 4f3d 68a4 ff3b d950 6fbe e529 023e
00000040: b485 0dbd dc36 10be 5da5 2fbd 63de 7bbe
00000050: 34de ddbc 1061 ffbc 43e2 2b3d 70fd 4e3e
00000060: 419c e13c 6a0d 0c3c 3016 1abd 3f6d 09be
00000070: a213 013e 46cf ff3d cd2b fb3d bf52 66be
00000080: 57d4 643e 08ba 843d 1746 b6bc 6cf6 9c3d
00000090: 64c3 0bbd 64e2 84bd 5f93 babd 7740 49be
000000a0: 06cf 773d fe5f 1a3e 5029 9dbd c890 5d3e
000000b0: bd63 593e 255e 18be f812 f33d 9d84 8f3e
000000c0: 5de8 21bd 05c2 06be 230e ab3d 4028 783e
000000d0: e4b7 de3d cc31 643e 912e febb 0719 b63e
000000e0: 4635 a0be d7e2 84bd 1236 103d de0d e3bd
000000f0: f679 943e a0af 05bd 6e7a c5bd 0091 0dbe
00000100: bb9d ca3b 74ea 053e 4988 493e 88a9 9f3d
00000110: 6faf 203e 1348 71bd fd16 f03c b092 813d
00000120: 9c5c 763d 17b4 003b 598d 973d 0327 0f3e
00000130: bd1c 443e 11e1 fc3d 6e7a 06be d0e1 d33d
00000140: 4806 87bd ae35 8abe e6ad eebd 3bbe bdbd
00000150: 1e37 0dba 9d1c 06be efca 183e e892 393e
00000160: 96d0 eebd f05e c03d 9b94 69be 3a40 1b3e
00000170: 79d6 d83d 739c 753e 7b6a 7dbe a5ff 3e3e
00000180: 408f ef3c 721a 1d3d d3c3 2e3c 83c3 b0bd
00000190: 4339 923d 0955 bb3d 72c0 97bd 566a d1ba
000001a0: 54c7 a13d 3671 b93d 5aa2 12bc 4888 c4bb
000001b0: 8293 b43d d9ac 87bd 7a9f 263e a175 5c3e
000001c0: 2a85 e33c 23b1 28be ab33 98bd e035 a8bc
000001d0: 66bf d63c 89dd aa3d 616e 76bd 9a42 89be
000001e0: 0d16 183c 6efa 0ebd ba24 b13d 4ff7 fe3b
000001f0: 8bc6 763b 6f0a f23c 7d8c 203e a8fc 0ebe
00000200: bfba 8abd de8e c43d e241 85be 0483 7a3d
00000210: 6047 dd3b 5a6e 9c3e a887 84bb 7e84 a2bd
00000220: d4f5 42bd 6d67 343e 05b6 bf3d 48fe 873b
00000230: 2b73 8d3d 83d7 f73d 4e5e 29be 04e9 4a3e
00000240: b6f6 cc3d 50d5 2bbd 5a13 89bc 985d 6fbe
00000250: b67b ecbd 461e b7bd 4ac8 113d f782 3b3d
00000260: c03c 2d3e 7082 27bd d258 4d3e 6dd5 3abe
00000270: f278 08bd cc89 5cbe 6787 c6bd 4fc0 f73d
00000280: c9fa 813e 9461 1f3d c593 41be 7743 203d
00000290: ca1f d73d cc5c 1b3e 2f9c d5bd 00a6 3cbe
000002a0: 378f 1c3e dee7 2b3e ff13 95be 1511 a93c
000002b0: c829 f0bc 9ef9 7fbd b930 15bd 6a93 aa3d
000002c0: ea3c a8bd 6965 4ebe 2c32 0ebd 5265 013e
000002d0: aaf2 44bd eb37 3cbd 6e1b d53d f4fe 1e3e
000002e0: 5de4 19be 9dc0 0ebe f133 39be de2b 1cbd
000002f0: f9f6 cc3d ed8b 3ebd 1be4 11be 8185 a63d
00000300: 1544 79ba 9aba 7bbd bcb9 42bc bbe2 103c
00000310: a729 0fbe 9d22 3e3e e485 b5bd 14b5 8dbd
00000320: ca55 4bbe 07a6 bf3d e7af e3bd 19f3 1abc
00000330: bba8 9fbc 6bbb 42be 2749 053e 1c0a 6c3e
00000340: 7122 0f3e acd3 b23d 3df1 d8bd 5bfe 25be
00000350: e3ed 5ebd c846 073d f7bc a23c 5d87 a8be
00000360: d62f a5bd 949a 9bbe 160a d53c cae3 7f3c
00000370: 7ce4 08be 9cef 49be 3631 48be 39c9 8fbd
00000380: 693a e43d a331 2cbe 2133 c4bc 2287 42be
00000390: 3e11 f73c 413c 9d3d 6591 21be 4e29 98bc
000003a0: 87c9 0cbe d0fa d23d af19 e4bc 133d fa3c
000003b0: db66 89bc 84ae debd c097 47be 6949 88bd
000003c0: ce1a ca3d 4e4a bcbd c44f 2abd 24f5 083c
000003d0: 6a60 2cbe c3f1 e0bd e925 ab3d 2227 9a3d
000003e0: 4f2e 80bd bd69 5dbd c6da 65be f53f 21be
000003f0: bde2 933e 681e a83c c42f 023d 0f19 463e
0.06550236 -0.030495666 0.087469526 0.05038436 -0.061995804 -0.25489557 0.068226784 0.026524901
0.059905242 -0.29394722 0.12347063 -0.08843782 0.050637215 0.007801581 -0.23370685 0.12711294
-0.034551337 -0.14083427 -0.042882312 -0.24596553 -0.027083494 -0.031174213 0.041963827 0.20213866
0.027540328 0.00854812 -0.037618816 -0.1342058 0.12605146 0.12490706 0.12264214 -0.22492503
0.22346626 0.06480795 -0.022250218 0.07664189 -0.034121886 -0.06488493 -0.0911014 -0.19653498
0.060500167 0.1507568 -0.07673895 0.21637261 0.21229453 -0.14879663 0.118688524 0.28030863
-0.03952824 -0.1315995 0.08352306 0.24234104 0.10874918 0.22284621 -0.007757016 0.3556597
-0.31290644 -0.06488579 0.035207815 -0.11086629 0.289993 -0.032638192 -0.09642492 -0.13824844
0.0061833537 0.13077718 0.19680895 0.077960074 0.15691923 -0.058906626 0.029307837 0.063268065
0.060146913 0.0019638592 0.07400007 0.13979726 0.19151588 0.123476155 -0.1313264 0.10345805
-0.06592995 -0.2699408 -0.11654262 -0.09264799 -0.0005386936 -0.13096853 0.14921163 0.18122447
-0.11660878 0.09393108 -0.22810595 0.15161219 0.105877824 0.23985462 -0.2474765 0.18652208
0.029243112 0.0383553 0.010666805 -0.08631041 0.07139828 0.091470785 -0.07409753 -0.0015977125
0.07899347 0.090547964 -0.00894984 -0.0059976913 0.088171974 -0.06624765 0.16271773 0.21529247
0.027773459 -0.16473822 -0.0743173 -0.020533502 0.026214313 0.08343036 -0.06016386 -0.26808625
0.009282601 -0.034906797 0.08649583 0.0077809463 0.0037654962 0.02954599 0.15678592 -0.13963568
-0.067739 0.09597562 -0.26026827 0.061160102 0.0067528933 0.30552942 -0.004044492 -0.07935427
-0.04759772 0.17617579 0.09360889 0.0041501857 0.06906732 0.121016525 -0.1653988 0.19815451
0.10007994 -0.041951478 -0.01673286 -0.23375547 -0.115470335 -0.08941321 0.0355914 0.045779195
0.16917706 -0.04089588 0.20053414 -0.18245478 -0.033318467 -0.2153694 -0.09693795 0.12097227
0.25386646 0.038911417 -0.18904026 0.03912684 0.1050411 0.15172118 -0.1043018 -0.18422699
0.15289007 0.16787669 -0.29116818 0.020638028 -0.029316798 -0.062493913 -0.03642342 0.08328898
-0.082147434 -0.20155872 -0.034715816 0.12636307 -0.048082985 -0.045951765 0.104056224 0.15526944
-0.1502852 -0.13940664 -0.1808622 -0.038127773 0.10008044 -0.046520162 -0.14247172 0.081309326
-0.0009508741 -0.061457254 -0.011885103 0.008843119 -0.13980733 0.18567891 -0.08863428 -0.069193035
-0.19856945 0.09357839 -0.11117535 -0.009457373 -0.019489637 -0.19016807 0.13016187 0.23050731
0.13977982 0.087317795 -0.105928876 -0.1621031 -0.054426085 0.033026487 0.019865496 -0.32915774
-0.080657646 -0.3039137 0.026005786 0.015618274 -0.1336841 -0.1972031 -0.19550022 -0.07020802
0.11143953 -0.1681581 -0.023950161 -0.18996862 0.030159589 0.07677508 -0.1577812 -0.018574383
-0.13748752 0.10301745 -0.027844278 0.0305467 -0.016772678 -0.1087313 -0.19491482 -0.06654627
0.09868394 -0.0919386 -0.041579977 0.008359227 -0.16833654 -0.109836124 0.0835684 0.07526995
-0.06258833 -0.054055918 -0.22446737 -0.15747054 0.28883925 0.020522311 0.031783834 0.19345497

conv3.conv.6.weight f4 [64, 64, 1, 1]
00000000: b877 33bd f3d8 6d3c 87ac 1c3e 58ee 4d3d
00000010: aa02 4ebe d71c 22bd 12a1 9ebe e756 6dbe
00000020: 13d6 d3bd d9d2 acbe 11f6 b8bd f266 15bd
00000030: 3a25 803d 4281 3ebe 0349 133d 177b 093e
00000040: 7e5f 25be c18a 51be da33 26be 04d8 213e
00000050: 1bc2 31be bbce 8b3d 4204 6a3e 0030 56be
00000060: 2a84 99bd 18d1 80bd ca37 1dbe 722d 533e
00000070: 04e5 c3be af64 c0bd 19d7 3e3e 1add 193e
00000080: 248a 04bd a431 a63c c82c 6ebc 005f f4ba
00000090: 400e 2f3d 8e2f 83be 6529 90be 6883 833e
000000a0: a7ff 09be d674 d2bd 103a 973d fc5f 75bc
000000b0: 1988 463d a3f7 68bd a244 6d3d 9853 2bbe
000000c0: 962b b33d c77a 1bbd 2af6 663d 8cb2 10be
000000d0: cd45 44be ed8e c6bd 6290 13be 3deb 09be
000000e0: 2e3f e53d bbd4 033d bba7 52bd 4379 ec3d
000000f0: 4f79 04be 6a6c 9f3c d187 ce3d 708d 3c3d
00000100: 426c 9e3e 75fa 273d 20d5 3b3e 1165 0ebe
00000110: af6c e53c 66e0 36be ef62 5f3d d4ff 5a3e
00000120: 0c34 f03d 1daa a7bd 5161 2abe ffa8 05be
00000130: 7ee4 0cbe 1797 12be b905 dabd 2d9e b2bd
00000140: f1b9 663d d6da b83d 400e f9ba 874b fd3d
00000150: 0e20 863e 4c13 a2bd 2ec7 0dbe d784 5abe
00000160: 473a 993d ab49 2b3e f0c4 9abc cb75 1cbd
00000170: 2f91 a53e a097 ef3d 5240 363e 621a b0bc
00000180: dd79 703d e812 913e aebd 14bc 5a3f d53d
00000190: 503b 673d 63a3 82bd 5d79 b93d 79bb b4bd
000001a0: ba34 59be 5cce 51bd b768 37bc 8e5d c5bd
000001b0: 9676 74bd e18d 80bd 322f 93bc 160a 1f3b
000001c0: 522b 94be 5736 35be bffa 09bd 4617 973c
000001d0: b574 9ebd 480a cf3e 2df7 b2bc 9b04 383e
000001e0: f49e 023e 379f 6e3d e621 f23d a85c f0bc
000001f0: bfe4 4d3e 7267 bd3c 07e1 80bd e0c7 0cbd
00000200: eb47 913e 60d7 1d3e 5343 6e3c 6a71 ba3d
00000210: a458 9fbd 4626 67bc 818d a3bc 4c43 663e
00000220: abaf 8fbd 1de8 dcbd 27a5 24be ccc9 9ebc
00000230: ea98 763d c066 06bd 4a9f d63d 940d c63c
00000240: c643 23be 66a0 33be 3fcf 54be 4319 1a3e
00000250: f955 5e3d 9dbe 93bd 3206 14bd 4375 b53c
00000260: 044e 17be 0a8a c9bc b12b b2be 2d87 c6bd
00000270: 4cab dc3d 2f31 46be 2705 353d 444d ccbd
00000280: c4d5 e4bd 87c6 323b d410 a83d a444 cc3c
00000290: 59af ac3d fdd4 76be 770b 65be 6bdc 203e
000002a0: 6753 db3d 4745 b8bd 77e7 3bbd 4750 f63c
000002b0: 81b9 fb3d d742 9b3d bd80 80bd dadb 80bd
000002c0: ce49 fd3d bf5f b3bd 82a3 773e 5871 69bd
000002d0: 849c a8bd 054c 14bd b878 1c3d d48c 1cbd
000002e0: 0383 023e 14c1 483e c67b 52bd abb1 d23c
000002f0: 5102 e63d 313f 453d 793b f5bd 98e6 213e
00000300: f2e2 b2be 7a71 23bd 9d4f 41be a1d0 1a3c
00000310: 655e 49be 22db 8abc 99e9 283e b141 ab3d
00000320: e232 253d 4933 febd cc06 e63d c2c9 c23d
00000330: cafb 21be cfb2 b5bd db08 4fbe ca5c 60be
00000340: e1d8 f93c 4cb2 cbbc d0bd 823d 63af 10be
00000350: b595 323d c420 5bbc d969 c63d d97a 2a3e
00000360: 5dc5 3abd 4fa9 5ebd 0c4f 903d 2ba9 e0bc
00000370: bd5e 353d e9a8 7b3d 010d 00be 8f15 a7bc
00000380: 3615 943d a71c 213d 78b7 823d 0a62 32bc
00000390: d4cc 81be 6f89 2f3e f824 583e ddd2 0dbe
000003a0: b69b 12bd cc70 55be 304c cc3d 3c9d 03be
000003b0: f8a3 d73c 4740 17be 519f b2bd 1af3 c53d
000003c0: e97c e8bd e345 873d 8cef 43be 16cf f5bd
000003d0: dcb9 c5bc 47c6 ff3c 6089 82bd 68c9 083d
000003e0: ea71 babd 71ea 2d3e efb3 24be e905 84be
000003f0: 6704 683c 4b38 213e 224d f13d 8be2 84be
-0.043815345 0.014517057 0.15300189 0.05027613 -0.20118204 -0.039578285 -0.30982262 -0.23177682
-0.10343566 -0.33754614 -0.090313084 -0.03647513 0.062571004 -0.18603995 0.0359583 0.13425861
-0.16149709 -0.20463087 -0.16230717 0.1580506 -0.17359202 0.0682654 0.22853187 -0.20916748
-0.074959114 -0.062898815 -0.15353313 0.20622805 -0.38260663 -0.09394204 0.1863674 0.1502575
-0.032358304 0.020287342 -0.014537044 -0.0018644035 0.0427382 -0.2562222 -0.28156582 0.25686193
-0.1347643 -0.10276191 0.073841214 -0.014976498 0.048469637 -0.05687679 0.05792678 -0.16731107
0.08748548 -0.037958886 0.056387104 -0.1413061 -0.19167252 -0.0969523 -0.14410546 -0.13468643
0.11193691 0.032185297 -0.05142949 0.11546566 -0.129369 0.019460876 0.10084499 0.046033323
0.3094197 0.04101034 0.1834302 -0.13905741 0.028005926 -0.17859039 0.05453771 0.21386653
0.11728677 -0.081867434 -0.16638686 -0.13052748 -0.13759038 -0.14315449 -0.10645623 -0.08721576
0.05632967 0.09026115 -0.0019001439 0.12367921 0.2619633 -0.07913837 -0.13845512 -0.21339737
0.07481819 0.16727321 -0.018892735 -0.038198274 0.3233733 0.11698842 0.17797974 -0.021496955
0.058709968 0.28334737 -0.009078426 0.10412474 0.05645305 -0.0637882 0.09056351 -0.0882482
-0.2121152 -0.05122219 -0.0111944 -0.09636985 -0.059683405 -0.06277061 -0.01796684 0.0024267486
-0.289393 -0.1769651 -0.033686396 0.018443715 -0.07737104 0.4043753 -0.021846378 0.17970507
0.12755948 0.058257308 0.11822872 -0.029341057 0.20106791 0.023120616 -0.062929206 -0.034370303
0.28375182 0.1541419 0.0145424185 0.09103663 -0.07780579 -0.014108246 -0.019964935 0.22486609
-0.07015928 -0.107864596 -0.16078626 -0.019383334 0.060204424 -0.032812834 0.10479601 0.024176396
-0.15943822 -0.17541656 -0.20782183 0.15048699 0.05428121 -0.07214091 -0.03613872 0.022150641
-0.14775854 -0.024601955 -0.3479896 -0.096937515 0.1077486 -0.193547 0.044194367 -0.09975675
-0.11173585 0.0027278976 0.08206335 0.024935074 0.084318824 -0.24104686 -0.22367655 0.15709083
0.10709267 -0.089975886 -0.04587504 0.030067576 0.122912414 0.07581108 -0.06274555 -0.06291933
0.12367593 -0.087584965 0.24183467 -0.05699286 -0.08232978 -0.03620531 0.038201064 -0.03822024
0.1274529 0.19604903 -0.05138757 0.025719484 0.112309106 0.048155967 -0.11974234 0.15810621
-0.3493877 -0.03990314 -0.18878026 0.009449155 -0.19664915 -0.016950194 0.1649536 0.08362139
0.04033173 -0.124121256 0.11231765 0.095111385 -0.15818706 -0.08871996 -0.20218222 -0.21910396
0.030498924 -0.024865292 0.0638386 -0.14129405 0.043599803 -0.013374511 0.096881576 0.16648425
-0.045598377 -0.054360684 0.07046327 -0.027424416 0.044279803 0.061440382 -0.1250496 -0.020396022
0.07230608 0.039333966 0.0638265 -0.010887632 -0.25351584 0.1714227 0.21107852 -0.13849969
-0.03579303 -0.2084381 0.09975469 -0.12852949 0.026323304 -0.14770614 -0.087217934 0.096655086
-0.1135195 0.06605127 -0.19134349 -0.12002389 -0.024136476 0.031222476 -0.063738585 0.0333952
-0.09103759 0.16983964 -0.16084264 -0.2578576 0.014161206 0.1574413 0.1178229 -0.2595409

conv4.0.weight f4 [64, 64, 1]
00000000: 7742 123d 6afb 6abe ae5d 1dbe 5a4a 8b3d
00000010: 8c79 1d3e 3c49 9f3d 6814 8a3b 3b3e 7fbb
00000020: 2672 b2bd 2722 913c de70 9bbd ee64 173d
00000030: 78a7 623e 4b5a ac3d 1233 d03d cbc9 a7bd
00000040: 929b 3a3d 7577 a7bd b0b9 453c 0a61 b4bc
00000050: 9058 9f3d 8894 8cbd 4adf 483d 56e2 643d
00000060: 5bdf 71be 3bd9 2abd c2c1 92bd 36b9 49bb
00000070: 57c0 703d dde9 9a3d 2de3 5fbe db38 4abc
00000080: 360f 0f3e 56aa 283e 265b 47be b5cf dc3c
00000090: 48d4 063e 36d4 09bc d45e 12bd 1009 d8bd
000000a0: 248e af3d def5 2ebe f9b0 723e 3f5e 7c3e
000000b0: 535c a53c c03a 25be fe61 3d3d 7ef7 073d
000000c0: b9f7 93ba dad3 05be c9e1 a3bd 44eb 803e
000000d0: 7baf 27be 30ac cdbd f6b7 f2bd c8e7 353d
000000e0: c906 853e dc47 7e3d 7285 94bd 5d47 033e
000000f0: 446c 04bc cb5c 033e 4920 1fbd ca13 b3bd
00000100: b612 a03d 58f3 02bd 5f28 91bd 63ec af3c
00000110: b3ff 20be e38b a5bb 1e8d 253e 04c8 39be
00000120: 6ec2 243e abf9 9a3e f99b 523e 222b 0bbe
00000130: 4056 063e e819 9f3c 6296 a3bd 7f32 ad3d
00000140: f831 3dbd 20dc b7bd fe5f 60bc 197b 99bd
00000150: 5f7c f6bd 4810 253e 996c 51be 3351 073c
00000160: 7fe3 0cbe 045e 333d d6fc c4bd 708b 1abd
00000170: 7d54 0dbe 50a1 3ebe f6cd 8b3d 564f aabd
00000180: d301 2abd 6a61 e83d 2d85 fa3d 1a5f 5c3e
00000190: e28f 043e 94c2 5b3e 40e0 5dbe 04af 08be
000001a0: aaeb 2abd 3197 a43d 9f6e 0bbe a24a 37bd
000001b0: 0ccc 2dbe 628e c63d cd2a 7fbd c665 1dbe
000001c0: 1543 7b3c 432a 513d 1a96 683e 6f2f cebd
000001d0: 4f20 063d aaf4 2c3d 4f23 4a3e 8a94 4bbd
000001e0: ddbb 4a3c 54f1 ee3d f9ab f5bd e273 c7bd
000001f0: 7060 923d d8be af3e 6acd 023e 8728 613d
00000200: b61f 123d 8914 7abe 5cf2 393e 9fc9 3cbe
00000210: 5cff 45be 2802 96bd ffbe d83d f70e f13c
00000220: b43f 183e 10a0 983c b958 b13d 3466 dd3c
00000230: c0f1 d0bd 1752 84bc 3529 9dbd b6eb a73d
00000240: ac9a f1bd fea0 423d b085 2ebd b97a a83c
00000250: a244 6b3d 7c1b d13d 9b2a 82be 195e 3a3e
00000260: 5050 0a3e 579f 083e 4cea 44be 9375 1cbe
00000270: 274e 72bd c777 05be 086b 3e3e cc82 08be
00000280: d137 b0bd c2c9 7fbd dca9 6f3d 9d08 ef3d
00000290: ddb3 77be 63a8 b23b 448c 0dbe 06d8 23be
000002a0: 4dad 653e d7d4 b43d 6c54 20be 5376 1fbe
000002b0: 111a 833e 7c07 d83c 090c 06be 3836 6ebd
000002c0: 5458 d7bd ae44 a83d 7a9e 8a3d 3795 ccbd
000002d0: 6b0b 02be 6f15 023e 789a 6e3e 1a9a 0ebe
000002e0: 4735 f4bd 4019 8a3d 8ae2 ffbd 2342 bbba
000002f0: 6a81 f5bd e3f2 373e fbe3 f3bb e69a acbd
00000300: 4946 ddbd 75f1 09be b609 70bd 2f48 e33d
00000310: 1a4a d63c 1d1a ea3d ab71 4fbe 63e4 2b3d
00000320: 5d80 12bc 2bf3 bdbd 03c0 cabd 1c58 1f3e
00000330: 87a6 32be 7bf4 913e 7bf3 67bb cfdc 6abd
00000340: 0eac 583d aa66 cf3d 7392 123e e01e b8bd
00000350: 7b22 e7bb ed69 75be be01 8c3d f9a5 533d
00000360: 38b7 cb3d d2c1 0b3d 5f4c 7a3e 69b7 523e
00000370: ca1d a83d 15e3 e73d 4197 3bbe 37dc afbd
00000380: 4868 e33d 658a 0cbc 5de7 bdbd a8d3 e3bd
00000390: 4139 f73d 8f00 8ebd e2b8 f5bc 29b2 6d3d
000003a0: 4e2b 7fbe 77f1 183d c725 bf3d 1929 1b3e
000003b0: f976 9cbc 0602 033b b10a 853e 3190 b33d
000003c0: ad37 2d3e cae1 2ebd 849e b9bd 2275 a23a
000003d0: 7c60 643d d799 5b3c 7e7f 2fbe 836a 6dbe
000003e0: 94b1 60bd 33e6 44bc e38f 613d a141 033e
000003f0: b380 d1bd 309b 1dbe f2ec 1dbe 62c0 7fbe
0.035707917 -0.2294747 -0.15367767 0.06801291 0.15378398 0.0777764 0.0042138584 -0.0038947004
-0.08713178 0.01771648 -0.07589887 0.03696149 0.22134197 0.084156595 0.10165991 -0.08192786
0.04555852 -0.081770815 0.012068197 -0.022018928 0.07780564 -0.068642676 0.04904107 0.055879913
-0.2362036 -0.041711073 -0.071658626 -0.003078056 0.05877718 0.07564137 -0.21864004 -0.012342657
0.13970646 0.16471228 -0.19468364 0.026954511 0.13166916 -0.008412411 -0.035734966 -0.105486035
0.08572033 -0.17085978 0.23700322 0.24645327 0.020185625 -0.16135693 0.04623603 0.03319501
-0.0011289037 -0.13069096 -0.080020495 0.25179493 -0.16375534 -0.10042608 -0.11851494 0.044410497
0.2598174 0.06208025 -0.07252015 0.12820192 -0.008082453 0.12828366 -0.03884915 -0.08744009
0.07816069 -0.031970352 -0.07087778 0.021475023 -0.15722542 -0.005052076 0.16167113 -0.18142706
0.16089794 0.30268607 0.20567311 -0.13590673 0.1311884 0.019421533 -0.079876676 0.08456897
-0.046190232 -0.089775324 -0.013694761 -0.07494182 -0.12035441 0.16119492 -0.20451583 0.0082591055
-0.13758658 0.043790832 -0.09618537 -0.037730634 -0.13801761 -0.18616223 0.06826393 -0.083159134
-0.041505646 0.11346705 0.122324325 0.21520653 0.12945512 0.21460944 -0.21667576 -0.13348013
-0.041728653 0.0803665 -0.13616417 -0.04474891 -0.16972369 0.09695126 -0.062296677 -0.15370855
0.015335818 0.051065695 0.22713509 -0.10067641 0.032745656 0.042225517 0.19740032 -0.049702205
0.012373892 0.116671234 -0.11995692 -0.097389 0.071473 0.3432529 0.12773672 0.05497029
0.035674773 -0.24421896 0.18158859 -0.18436287 -0.19335693 -0.0732463 0.105833046 0.029426081
0.14868051 0.018631011 0.08659501 0.027026273 -0.1020236 -0.016152425 -0.07673875 0.08199255
-0.117970794 0.047516815 -0.042607963 0.020566331 0.0574385 0.1021032 -0.2542313 0.18199958
0.135072 0.13342033 -0.19230002 -0.15279226 -0.059156563 -0.13033973 0.18595517 -0.13331145
-0.08604396 -0.06244827 0.0585116 0.11671565 -0.24189706 0.005452202 -0.13823038 -0.16000375
0.2242939 0.088296585 -0.15657204 -0.15572481 0.25605825 0.026370756 -0.13090529 -0.058157176
-0.10514894 0.082162246 0.06768508 -0.09989398 -0.12699668 0.12703489 0.23301113 -0.13925973
-0.11924224 0.06743097 -0.12494381 -0.0014286678 -0.119875744 0.17963748 -0.007442949 -0.08427982
-0.108044215 -0.13471015 -0.05860301 0.11097752 0.026158381 0.11430762 -0.20258205 0.041965853
-0.008941737 -0.09274896 -0.098999046 0.15560955 -0.17446338 0.28506836 -0.0035392928 -0.057339486
0.05289846 0.101270035 0.14313678 -0.08990264 -0.007053671 -0.23966189 0.0683627 0.051671956
0.099470556 0.03412039 0.24443196 0.20577778 0.08208807 0.11322609 -0.18319418 -0.085869245
0.111038744 -0.008577918 -0.09272645 -0.111243546 0.12071467 -0.069337 -0.029995386 0.058031235
-0.24918863 0.037339654 0.09333377 0.15152396 -0.0190997 0.001999022 0.2598472 0.08767737
0.1691577 -0.042695798 -0.090634376 0.0012394527 0.055756077 0.0134033775 -0.17138478 -0.23185162
-0.05485685 -0.012017774 0.05506886 0.12818004 -0.102296256 -0.1539123 -0.15422419 -0.24975732

conv4.2.weight f4 [64, 64, 1]
00000000: 1d85 12bd 6b3b 95ba 2666 013d 6e92 a7bc
00000010: a820 04be 957b 553b b638 ab3d 9818 e03d
00000020: 76f0 10bd 1a0c 4e3c 8d69 723d f1fc a0bd
00000030: 5a5b cabc 2928 e7bb 7a7e 4abd f832 d13c
00000040: 8e7c d33d 60e1 043d 5850 48bd c462 febc
00000050: 0256 303d 32a0 a0bd be93 963c abae 58bc
00000060: 3672 dd3c ffd7 a83c a8fd a8bb e9d9 93bb
00000070: 0137 893c 90cb 13bd eae2 be3c 8f85 27bc
00000080: 85f8 67bd aa51 b03c e9c5 e43c a233 44bc
00000090: 7009 943d 6422 313a 2916 48bc 9ab5 91bd
000000a0: b550 05bc f18e fb3c dc51 743d f069 87bd
000000b0: 24b0 a1bc 2eb8 9bbd 0a60 813d 3288 563d
000000c0: 06e6 99bc 26ad c1bd a466 553d dbb2 64bd
000000d0: f51d 8a3d ccb7 9a3c d24b 553b 9c2c 853d
000000e0: cd10 e8bd 4759 e3bc b38a b23a e0b9 203d
000000f0: 3392 e2bb 3b47 873d 11f0 1e3d b8b1 9ebc
00000100: 48e0 cdbd 9524 b6bc e7b5 883d 5c14 bdbb
00000110: 1e9c b63d 35cc 58bc 6132 19bd 44e6 a73c
00000120: 2da6 f0bd 27e5 bebd bf2f 5fbb 4e42 bc3c
00000130: 15ee 03bc 2536 5dbd 1ea9 66bd e59b f5bb
00000140: c5bd adbd 7ceb 363d 1e1e a1bd 0962 a53d
00000150: 911e a73c 8f82 bfbc 3a14 003e 986c a83d
00000160: a45d 053e ac84 edbd 0144 d8bc f212 8bbd
00000170: c8a5 55bb 4948 66bd 61f1 f4bc c099 09bd
00000180: d6d8 103d f5b9 49bd 2a96 c83d 1921 7b3d
00000190: 40fc 6e3c 6723 4f3c 877d 3bbd 1fd5 0b3e
000001a0: 4165 c6bc 6ada 84bc 583a c23d 743c a8bd
000001b0: 9af1 ed3c a759 a23c 0b35 aebc 6018 c03c
000001c0: 4e26 f3bc 4b16 76bc 305d e23b 0d59 70bd
000001d0: 3e5b 8fbd c031 12bd 492b 99bd 3c83 3fbd
000001e0: b1db 2dbd 3fcd a53c c964 b83c 3890 133e
000001f0: a207 b13d 726b cb3c d707 443c 8a4b 30bd
00000200: f458 9e3d 6582 003d 53f7 ebbb 2e30 ce3d
00000210: 9324 15bd 2882 e53d e698 103b d1a1 98bd
00000220: 8b2b e13b 4ac2 85bd 05c2 563d 8803 11bd
00000230: ba2b 763d fbb2 4e3c d6c6 103d a020 0d3d
00000240: a6a6 89bd 0303 aa3c 1788 053d ad5b 803d
00000250: d57d 21bd 868d a73c b9d8 453c c8a0 963c
00000260: 2e15 1abd bd99 bb3d 3dba 033e 7415 883d
00000270: 1e42 f33d 7a47 9e3d cf28 01bd 0b6d c9bd
00000280: 4ede a63d e133 093d 0b5f 883c 8062 093e
00000290: 2a09 733d 7991 ecbd 31f2 e33a 8ba3 a6bd
000002a0: d8cb d4bd 14f7 c93c 1f24 c03c f31f 79bb
000002b0: 531d 4dbd 88e9 bb3c fbea cbbd 8b4a 773d
000002c0: 7c1a 04bc 3c04 d13d d5c1 a53d b7b6 0f3e
000002d0: c46e 573c ce3a 0e3d 9da6 2c3d 6a9c c83c
000002e0: 6ba9 6b3d 82b2 0b3b db21 433d 9f33 67bb
000002f0: 7580 a2bd 721d 8abd 6756 aebd f3e0 aa3d
00000300: 0a1c 573c 417e b4bc 080f 8dbc 8252 553c
00000310: e555 61bd 5db0 7d3d d4a3 2dbd b40c 67bd
00000320: 3ad4 ed3c 3acc afbc 9f7f d2bc faeb 8c3d
00000330: 0488 213d 0608 d93a aded 543d eee5 143c
00000340: 48f1 493d 7b34 fabb d5e5 36bc 781e 0dbc
00000350: c907 d4ba c2a6 0abd 6d76 223e d294 873d
00000360: c87d babd 0a4f 063d 3b3d b03b 5ebd 3dbd
00000370: 2f3a b93d aaf3 113e 06b5 f2bc b700 36bb
00000380: 8f7e f43c 8a71 4a3d c150 6f3d ed52 f93d
00000390: c9c1 883c 8e29 b6ba f3e1 673c 772a 8dbc
000003a0: a916 c7bd 4572 10bd 9b95 9a3c 4bcb 7bbd
000003b0: 59d6 ccbc 27b6 a33d 9dad adbc 0470 c9bb
000003c0: c3be 87bd a3ef e83c d510 1abd bf66 6abd
000003d0: 1f38 3fbd a8e3 ab3d 53df 2e3c a2ff af3d
000003e0: 8a6a b9bd 3bed 993c 076f 853d 04ce eabc
000003f0: 6651 733c 2849 99bb a579 8dbc 9d4e d0bc
-0.035771478 -0.0011385506 0.031591557 -0.020455565 -0.12903082 0.0032574881 0.08360426 0.10942191
-0.03538557 0.012576127 0.059182692 -0.07860745 -0.024701763 -0.007054348 -0.049437024 0.025537
0.10326491 0.032441497 -0.048904747 -0.031052954 0.043050773 -0.07843055 0.018380996 -0.013225238
0.027032 0.020610807 -0.0051571913 -0.004512061 0.01674986 -0.036082804 0.02330156 -0.010224714
-0.05663349 0.021523315 0.027926402 -0.011975201 0.072283626 0.0006757139 -0.012212315 -0.07114716
-0.008136918 0.030707808 0.05964838 -0.06612003 -0.01973731 -0.07603489 0.06317146 0.05237598
-0.018786442 -0.094568536 0.05209984 -0.055834632 0.06743995 0.01888647 0.0032546413 0.06502649
-0.113313295 -0.027752532 0.0013621658 0.039239764 -0.006914401 0.06605383 0.038803164 -0.019371852
-0.10052544 -0.02223424 0.0667532 -0.0057702493 0.08916496 -0.0132322805 -0.03740156 0.020495541
-0.117504455 -0.09321051 -0.0034055558 0.022980835 -0.008052369 -0.054006714 -0.056313626 -0.0074953907
-0.08483461 0.04465817 -0.078670725 0.08075339 0.020400317 -0.023377685 0.12507716 0.082238376
0.13024002 -0.11597571 -0.026399614 -0.06790723 -0.0032600034 -0.05622128 -0.029900255 -0.033593893
0.03536304 -0.049249608 0.097942665 0.06131086 0.014586508 0.012642718 -0.04577401 0.13655518
-0.024218203 -0.01621743 0.094837844 -0.082146555 0.029045869 0.01981814 -0.021265527 0.023449123
-0.029681351 -0.0150199635 0.0069080815 -0.058678675 -0.06999825 -0.035691977 -0.07478959 -0.046756014
-0.042445842 0.02023947 0.022508996 0.14410484 0.08644034 0.024831507 0.01196476 -0.04304079
0.0773181 0.031374354 -0.007201114 0.10067783 -0.036411833 0.11206466 0.002206379 -0.07452739
0.006871646 -0.06531198 0.052431125 -0.03540376 0.060100295 0.012615914 0.035345875 0.03445494
-0.06721239 0.02075339 0.03260049 0.06267486 -0.039426643 0.020453226 0.0120755965 0.018387213
-0.037617855 0.091601826 0.12864013 0.06644717 0.11877845 0.07728477 -0.03153306 -0.098352514
0.0814787 0.03349674 0.016646883 0.13416481 0.05933491 -0.11551184 0.0017390904 -0.08136662
-0.103904426 0.024653949 0.023454724 -0.0038013428 -0.050076794 0.022938505 -0.09956928 0.060373824
-0.008062955 0.10205886 0.08093611 0.14034544 0.013148967 0.03472405 0.042151082 0.024488647
0.057534616 0.0021316116 0.04763971 -0.0035278571 -0.079346575 -0.067438975 -0.08512574 0.08343687
0.013129244 -0.022032859 -0.017219082 0.01302016 -0.055013556 0.06193577 -0.042392567 -0.0564086
0.029031862 -0.021459688 -0.02569562 0.068809465 0.039436355 0.0016558177 0.051984478 0.009088023
0.04930237 -0.0076356507 -0.011163195 -0.008613221 -0.0016176637 -0.03385044 0.15865488 0.06620182
-0.09106022 0.03279022 0.005378393 -0.046323173 0.09044301 0.14253107 -0.029627334 -0.0027771422
0.029845504 0.049424686 0.058426622 0.1217402 0.016693966 -0.0013897882 0.014152992 -0.017232163
-0.09721119 -0.035265226 0.018870166 -0.061473172 -0.025004553 0.07993727 -0.02120095 -0.0061473865
-0.06628182 0.02843458 -0.03761371 -0.057226893 -0.04668438 0.08393031 0.010673362 0.0859368
-0.09053524 0.018789878 0.065153174 -0.028662689 0.01485095 -0.0046779104 -0.017269919 -0.02542811
