models_slbp+gf/case5_final.pth (torch_old, 110331 bytes, 9 tensors)

conv1.conv.3.weight f4 [32, 32, 1, 1]
000000 0c 10 69 3e e4 82 11 be a0 fe 9f 3d 07 96 d1 bd
       0.22760028 -0.14210087 0.07812238 -0.102336936
000010 88 c0 14 3d 6d ef 8f 3b db ab 36 3d ac 59 15 3e
       0.036316425 0.0043925554 0.044597488 0.14584988
000020 df 26 35 3e b4 de e2 bd ce d6 86 bd a0 42 f4 bd
       0.1769061 -0.110776335 -0.065839395 -0.1192677
000030 4f e7 ed bc 18 fb 73 3d 0d 1e 47 be 0c c6 6a 3e
       -0.02904096 0.059565634 -0.19445057 0.22927111
000040 8a bc 66 3e 6a 3e 53 3e e3 79 b9 3c 73 3f 4f bd
       0.2253286 0.20629278 0.022641128 -0.05059762
000050 03 df e2 3c db df c2 bc e3 5d 94 3e b1 84 77 3c
       0.02769423 -0.023788383 0.2897788 0.01510732
000060 1b d4 3d 3e 45 cc 5a be 5b f5 0a bd dc f0 9d bc
       0.18537943 -0.21366985 -0.033925395 -0.01927989
000070 a1 16 69 3e 37 ea 05 3e dc 01 57 3e af 23 36 3e
       0.22762538 0.13077627 0.20996803 0.1778705
000080 38 0f ec bb d5 b1 09 3e 01 7e c6 3d b2 9a 27 3e
       -0.0072039627 0.13446744 0.09692002 0.16367605
000090 68 c5 ae bd c9 a0 20 3d 11 40 2a bd f9 1e 4c 3c
       -0.08533746 0.039215837 -0.041565005 0.012458556
0000a0 bf fc 1b 3e a1 84 a0 3e 91 25 91 3e ad 8d d5 bd
       0.15233134 0.31351188 0.28348973 -0.10427413
0000b0 eb 72 1e 3e 72 67 7b be 53 0e d2 bd ff c6 ed 3c
       0.15473525 -0.2455118 -0.102566384 0.029025553
0000c0 0c f5 bc bd 0d a1 c7 bd 2b 20 16 bd 0a c4 e5 3c
       -0.092264265 -0.09747515 -0.03665177 0.02804758
0000d0 4c 30 03 be 28 51 e0 bd a6 fb 50 3e fe d7 4d 3e
       -0.12811393 -0.10952979 0.20408496 0.20101926
0000e0 29 97 06 be 0f b8 2a bd ff c5 90 be 4c 93 dc bd
       -0.131436 -0.04167944 -0.2827606 -0.10770282
0000f0 9b 41 9a 3d 79 b8 1c 3e 4a 62 1e bd 9d 55 22 be
       0.075320445 0.15304746 -0.038667955 -0.15852971
000100 a8 96 00 be 35 f1 3d be 24 ec 94 3d 6c 2f 22 3e
       -0.12557471 -0.18549044 0.07271603 0.15838403
000110 ee d9 d2 bd 86 f0 8a 3e 97 ef 34 3e 68 90 15 3e
       -0.10295473 0.2713663 0.17669521 0.14605868
000120 1e 08 4f be 96 6f fe 3d e4 0e e1 3b e7 b4 cd 3d
       -0.2021794 0.12423627 0.00686823 0.1004427
000130 67 61 36 3e 7d 74 3c be e2 a3 29 3e 36 b8 35 3e
       0.17810594 -0.18403812 0.16566423 0.17746052
000140 f8 c4 2f 3d ba 37 0f 3c 83 06 85 3d 7c b8 96 3c
       0.042912453 0.008741314 0.06495383 0.018398516
000150 3b dc 57 bb fb bb 27 3d ff 78 28 3e b2 aa 0f 3e
       -0.0032937664 0.040950757 0.16452406 0.14029959
000160 65 47 1d 3e ef 31 fa 3d fc 06 55 3e b4 c1 4b bd
       0.15359266 0.12216555 0.20803446 -0.049745277
000170 7d b5 a6 3d c5 fd 48 3e f9 9e 52 be 71 40 a1 bd
       0.08140085 0.19628055 -0.20568456 -0.07873619
000180 4e 27 c9 3d 3a 0c 8e 3d f1 34 8f be 6e 06 20 3c
       0.0982195 0.06935926 -0.2797008 0.009767158
000190 3a 62 bb be 2b 26 3c be 8b 2f 0d bd 77 e9 87 3e
       -0.36598378 -0.18373935 -0.03446917 0.26545307
0001a0 b7 e8 e4 3d 5a 98 a7 3e 60 c2 16 3e 1c 45 77 be
       0.11177199 0.32733423 0.14722586 -0.24147457
0001b0 d6 dc 3c 3e 46 94 60 be da 47 e3 bc 2f 69 49 3d
       0.18443617 -0.21931562 -0.027744222 0.049172577
0001c0 da ea 42 3e 42 b5 02 3d d0 f3 0c 3e 91 5c 95 bc
       0.19034901 0.031911142 0.13764882 -0.018232616
0001d0 85 00 79 be 57 e2 7b 3c e1 1f 77 3e 0b 8f f4 3d
       -0.24316604 0.015373788 0.24133255 0.11941346
0001e0 36 f0 4b be 70 e8 aa 3a 8e 52 c4 bd 64 5f b5 bd
       -0.19915852 0.0013039242 -0.095860586 -0.08856085
0001f0 ff ac 4d be 6c c2 70 3d 10 a9 f8 ba 6a 77 39 be
       -0.20085524 0.058779165 -0.0018971283 -0.18111959
000200 8a 36 f7 3d eb 7d a9 3e 0e 1f d1 3d b8 04 12 3d
       0.120709494 0.3310388 0.10211001 0.03564903
000210 67 34 1d 3e 4a df 8a be fb a6 07 bd 1d 95 43 3e
       0.15352021 -0.2712348 -0.03311823 0.19099851
000220 7d 04 c0 3d 0b ca 89 3e af 0d 58 3d 79 3f aa bd
       0.09375856 0.2691196 0.052747425 -0.08312888
000230 6e 7b a3 3d 33 4c 10 bd 03 55 5a 3d 0a 74 56 bc
       0.07982527 -0.03522892 0.05330373 -0.013089189
000240 98 5a 30 be ee 4a 1c be 7d 43 43 3e d4 27 5e bd
       -0.17222059 -0.15262958 0.19068713 -0.0542372
000250 1d ff 29 be a7 ed 3f be ac 73 fb 3d b3 81 18 be
       -0.16601224 -0.18743001 0.12277922 -0.14893226
000260 61 04 f0 bd 87 c0 81 be 8f bd 20 be ad 01 82 bd
       -0.11719585 -0.253422 -0.15697311 -0.06347976
000270 c8 97 a0 bd 6d fb ae bc ef 35 49 3e dd 05 e7 3c
       -0.0784145 -0.021360124 0.1964948 0.028201038
000280 e8 f9 3a bc 2e 67 1e be 83 5e 9c 3b 32 34 03 3e
       -0.011412121 -0.15469047 0.004772009 0.1281288
000290 e6 6c 51 3d 6f 0f 31 3e 1c a1 95 bd 84 b2 f2 bd
       0.051129244 0.17291044 -0.0730612 -0.118504554
0002a0 3a ad cc 3d 84 a7 69 bd 0a 1c 33 be 85 fb 31 3c
       0.09993978 -0.05704452 -0.17491165 0.01086319
0002b0 df 31 08 bc 90 90 66 3e 08 8e 21 be b5 af a7 bd
       -0.008312671 0.22516084 -0.15776837 -0.0818781
0002c0 33 f6 34 be a2 cb 94 bc 95 49 0c bd c2 f5 90 3d
       -0.17672043 -0.018163506 -0.03424986 0.070781246
0002d0 9f 93 67 3e da 2f 80 3e d4 56 13 bd cc 28 ee 3c
       0.22614907 0.25036508 -0.035971478 0.029072188
0002e0 cf 8b 1f be d0 61 51 3e 7c f7 a2 3d 02 df 67 3e
       -0.15580676 0.20447469 0.0795736 0.22643664
0002f0 bf e9 5c be b0 f6 0e be b7 af 80 3c 33 38 ff bd
       -0.21573542 -0.13961291 0.015708787 -0.12461891
000300 b7 65 b7 bd 85 74 6e 3d 7f 84 41 bd 92 ec 0c 3e
       -0.089549474 0.05821659 -0.0472455 0.1376212
000310 e1 53 f8 bd 24 ac 09 3d 16 67 4d be f6 fc 36 3e
       -0.12125374 0.03361143 -0.20058855 0.17869934
000320 9e fc 1b 3e 80 96 18 bd 14 9e 4a 3e b4 b4 68 be
       0.15233085 -0.037252903 0.19786865 -0.22725183
000330 fc a4 8d 3e b5 cc 55 be e5 7a 72 be f7 c2 61 bd
       0.27664936 -0.20878871 -0.23679693 -0.055117574
000340 ad 89 c0 bd 78 23 d6 3d fe 56 b1 3d b6 b8 98 bc
       -0.094012596 0.10455984 0.086591706 -0.018642765
000350 c5 ee 78 bc 91 df 7a bd 90 7a 2b bd 1c 3a 1a 3d
       -0.015193646 -0.061248366 -0.04186493 0.037653074
000360 39 6f 4c bd 8d 0e af bc 34 93 e6 bd ea fe 58 be
       -0.049910758 -0.021369243 -0.112585455 -0.21190992
000370 a9 4b da 3d ba 4e 0e be 10 43 cf 3d 47 c0 d3 bd
       0.10658962 -0.1389722 0.10120213 -0.10339408
000380 58 70 f2 bd 18 db a8 3e 32 28 25 be 25 34 94 bd
       -0.11837834 0.32979655 -0.16128615 -0.07236508
000390 5a bd 20 3e 21 24 1c bd 77 c1 c7 bc e8 cd 2e be
       0.15697232 -0.038120393 -0.024384243 -0.17070735
0003a0 6a 7c fa 3d 6b 39 a3 3e 7b 6e f2 3c a6 4e f8 ba
       0.12230761 0.31879744 0.029593697 -0.0018944337
0003b0 6c 11 97 3d d6 6d 6a 3d b4 59 ad bc 8e 46 06 3e
       0.0737637 0.057233654 -0.021160938 0.13112852
0003c0 f1 a9 76 3d 1c e6 4f be 47 38 53 3e 8c 9f 20 bd
       0.060220663 -0.20302624 0.20626937 -0.039214656
0003d0 b5 a9 5e 3d ec f6 2f be 5e 5e 39 3e d7 12 e1 3e
       0.054361064 -0.17184037 0.18102404 0.43959686
0003e0 eb 8d 25 3e 8e 24 dc 3c 73 fe 85 3e a3 cb f5 bd
       0.16167419 0.0268729 0.26170692 -0.12001731
0003f0 94 5f bb bd c8 cf 9b 3e b0 52 e4 bd c8 e1 96 3d
       -0.091490895 0.30431962 -0.11148584 0.07367283

conv1.conv.6.weight f4 [32, 32, 1, 1]
000000 e2 d9 ff bd ad 05 25 3c 90 98 a6 3d 1b 42 a3 bd
       -0.1249273 0.010072154 0.08134568 -0.07971593
000010 c3 e7 fb 3d 4d ac ce 3c fd cb 8f 3e 2a f0 8a be
       0.123000644 0.025228644 0.28085318 -0.27136356
000020 12 cc 91 3d 81 aa b6 bd df 49 98 3d 84 d5 a2 bb
       0.071190014 -0.0891924 0.07435965 -0.0049693007
000030 94 67 e6 3c ab ab 3e bd 2a f0 db bd 22 1b 89 3e
       0.028125562 -0.046550434 -0.10739167 0.26778513
000040 48 99 6c bd 49 5f 24 be 09 47 7a bd 3c eb 28 3e
       -0.057763368 -0.16051973 -0.0611029 0.16495985
000050 71 c0 16 b9 fc 7d 11 be 12 34 5e 3c 69 90 62 bd
       -0.00014376805 -0.14208215 0.013562219 -0.0553135
000060 be d7 1b 3c 89 ee 4b be 7f 0b 3a 3e 2b 37 87 3d
       0.009511886 -0.19915213 0.18168448 0.06602319
000070 d4 b4 43 be 6d 29 64 be 18 a9 97 be 8c ed 19 3c
       -0.19111949 -0.22281428 -0.29621196 0.0093950145
000080 1e 5f 3c bd 89 6e 80 3d 80 92 9e 3c 01 b5 e0 3d
       -0.04598915 0.06271083 0.019356966 0.10972024
000090 0a 40 2a 3e c4 7e 51 bd cb 74 84 3e 40 bc 81 be
       0.16625991 -0.051146284 0.25870356 -0.25338936
0000a0 e4 e3 82 3e 9b 49 44 3e f9 59 52 3e 22 59 33 3e
       0.25564492 0.19168703 0.20542134 0.1751447
0000b0 e9 e0 5c bc e0 37 bf bd 78 4c 8d 3d 8a 34 2e bd
       -0.013481357 -0.09336829 0.06899351 -0.042530574
0000c0 6f 59 e8 3c da af 1b be 37 e5 2b 3e 87 71 69 be
       0.028362958 -0.15203801 0.16786657 -0.22797213
0000d0 50 c4 2f 3e e3 6f be bd ec fc 0e be 21 c9 72 3d
       0.17164731 -0.092986844 -0.1396367 0.059273843
0000e0 ca db 7b 3e ac e6 82 bd 97 7e 58 3e ba 3e ba bb
       0.24595562 -0.063916534 0.2114204 -0.005683747
0000f0 35 49 07 3e 4c 78 8e bd f8 10 f3 bc a6 75 1c 3d
       0.1321152 -0.069565386 -0.029671177 0.038198136
000100 6e 43 ef bc 91 a6 1c 3e 10 e0 a0 bd 55 b4 a6 3e
       -0.029206958 0.15297915 -0.078552365 0.32559457
000110 fb c2 82 3d 8b dd 0b be 2c ee 33 3e 20 2c 86 be
       0.06384846 -0.1365873 0.17571324 -0.2620554
000120 5d 89 32 bd c3 5f fa 3b ef 63 66 3e c6 da dc 3d
       -0.04358803 0.00764081 0.22499059 0.10783915
000130 92 8d 0a bd 8d 7c 4c be c6 8a c4 bd 60 45 ef bd
       -0.03382642 -0.19969387 -0.095967814 -0.11683154
000140 4d c7 8d 3e ec ef a4 bd 6f 97 54 3e 3d a6 83 bd
       0.27691117 -0.08053574 0.20760892 -0.06428192
000150 01 d6 76 3e 35 a9 5e be 7e 54 80 3d b8 81 57 be
       0.24105074 -0.21744235 0.062661156 -0.21045578
000160 f5 f8 94 3e e9 15 05 be 32 fa 17 bb 65 b2 1a 3d
       0.2909619 -0.1299664 -0.00231899 0.037767787
000170 bb 75 aa 3d 1c 75 d5 3d ac 78 59 3e af 3d 18 3d
       0.083232366 0.104227275 0.21237439 0.0371682
000180 7c db 67 3e fc 52 bb 3c 38 49 60 3e e4 13 21 bd
       0.2264232 0.022866718 0.2190293 -0.03932561
000190 e3 c9 37 be 1b 70 63 be 04 25 44 bd 70 6b 68 3e
       -0.17948107 -0.22210734 -0.047886863 0.22697234
0001a0 70 fa c5 3b 03 d3 9b 3d 3b 10 9e 3d 88 6e 32 3d
       0.0060418174 0.07608607 0.077179395 0.043562442
0001b0 fa 59 91 3e 83 47 33 be 35 9a 04 be b4 af 98 3d
       0.2838896 -0.17507748 -0.1294945 0.07455388
0001c0 9e 3e 28 3e 24 1d 17 3e 96 df 2b 3e e4 bd 0f 3e
       0.16430137 0.1475721 0.1678451 0.14037281
0001d0 cd 86 66 3c d5 f0 ba bd aa c4 99 bd e6 dd 61 be
       0.014070225 -0.09127966 -0.07508214 -0.22057304
0001e0 75 2e 69 3c a5 f1 a2 3e 6c b1 be 3c cc a1 e7 3d
       0.014232268 0.31824985 0.02327796 0.11310157
0001f0 bb 7b 2f bd 92 b8 66 3d bd 93 d2 3d 9e de 2b 3d
       -0.042842608 0.056328364 0.10282085 0.04196035
000200 1e 63 ee bd f5 ce 20 be f0 eb f6 bd c6 81 3b be
       -0.11639999 -0.15703948 -0.1205672 -0.18311223
000210 e7 3e 69 bd c4 2a 92 3e 45 d7 03 be 33 0b 1e be
       -0.056944754 0.28548253 -0.12875088 -0.1543396
000220 1c bc 03 3e ef e6 8e bc a6 17 bb bc 08 8b c7 3d
       0.12864727 -0.017444102 -0.022838425 0.09743315
000230 30 ef 5d 3e b8 5f 03 3e 30 f5 f7 3d 87 96 2e 3e
       0.21673274 0.12829483 0.12107313 0.17049609
000240 67 d0 16 be 8d ed 1a bd a9 35 50 3e e8 fa 5b be
       -0.14727937 -0.037824202 0.2033297 -0.21482432
000250 b1 8d 8a be 6d e2 ba 3e 03 db 0a be f1 48 81 3e
       -0.27061227 0.36500874 -0.13560109 0.25250962
000260 ea f9 89 3c a2 09 16 3e e1 62 83 bd d9 22 8e bd
       0.016842801 0.14652112 -0.06415344 -0.069402404
000270 10 06 30 3d cb b4 00 3e 83 ad 11 3d 9a 46 ee 3c
       0.04297453 0.12568967 0.035565864 0.0290864
000280 15 4c 2a be c8 4e 49 bd 5a ae b5 3d 9e 25 7b be
       -0.16630585 -0.049147397 0.088711455 -0.24526069
000290 a8 85 1c be e0 d6 2c be 25 49 16 be 3e 1a 39 3e
       -0.15285361 -0.16878843 -0.1467634 0.18076417
0002a0 82 b5 3e be ef a8 35 3e d5 a7 1b 3e cc 0c 07 3e
       -0.18623927 0.17740224 0.15200742 0.13188475
0002b0 75 a0 55 be 2e fe d8 bd 9a bd 0d 3e a0 cb 71 be
       -0.20861991 -0.10595356 0.13841859 -0.23612833
0002c0 37 08 86 bd a4 f4 37 3e 93 f6 db 3d 60 00 83 be
       -0.065445356 0.17964417 0.1074039 -0.25586224
0002d0 10 11 6f be 51 ce de 3e 66 f1 5e 3e 88 5e 99 bd
       -0.23346353 0.43516782 0.21771774 -0.074887335
0002e0 8c 3b 86 bd 04 e5 05 3e 8e 6d 2b be aa 10 dc bd
       -0.065543264 0.13075644 -0.1674101 -0.10745366
0002f0 d9 5e 22 3e 2f 4f 11 bd 5f 39 a5 3e 3e f2 99 bd
       0.15856494 -0.035475906 0.32270333 -0.07516907
000300 16 c1 46 be ff 68 76 be c9 9b 83 bd 2e 34 75 be
       -0.19409594 -0.2406349 -0.06426198 -0.23945686
000310 46 57 47 be ed 15 80 bd fa 3f b3 be 02 d4 fa bc
       -0.19466886 -0.06254182 -0.35009748 -0.030618671
000320 e1 3f d1 3d 53 61 9b 3a c5 bc 42 3e 41 73 66 bd
       0.10217262 0.0011854566 0.19017322 -0.05626226
000330 20 87 83 bd 64 d7 d1 3d 9d 6f 9f 3d ca 16 10 3c
       -0.064222574 0.102461606 0.077849604 0.008794496
000340 7f 3c 0a be 63 7b 9a 3e 36 69 4e be 41 bb db 3d
       -0.1349964 0.30172262 -0.20157322 0.10729075
000350 bf 11 4c bd f6 8c b9 bd 91 48 bb 3e 8d 9c 11 3d
       -0.04982161 -0.09060089 0.365788 0.03554969
000360 8f c2 25 be 58 af 92 3b a6 5e 6a bd f1 0f 44 be
       -0.161875 0.004476469 -0.05721917 -0.19146706
000370 2e ba be bd 61 fb 5d 3d 68 86 fc bd 41 32 27 3e
       -0.09312855 0.05419481 -0.123303235 0.16327764
000380 dc 3d 57 3b df c1 ee bd 5d a4 35 be a7 62 c0 3d
       0.0032843268 -0.11658072 -0.17738481 0.093938164
000390 bb 56 49 3e 71 2c 33 be 5d 22 67 be 91 04 76 3d
       0.19661991 -0.17497422 -0.22571702 0.06006295
0003a0 d8 55 77 bd ba 2c d9 3d 3f e3 61 bc 1f 4c 4b be
       -0.0603846 0.10604234 -0.01378709 -0.19853257
0003b0 c9 30 f7 3d a9 eb a2 ba 58 32 46 bd c1 7e 3d be
       0.12069852 -0.0012429851 -0.048387855 -0.18505384
0003c0 e2 99 97 3d 06 69 8c 3e 6d 1e d0 b8 58 0e cd bd
       0.07402398 0.27423877 -9.92388e-05 -0.100125015
0003d0 b8 78 f7 3d a2 a3 02 3e 94 79 88 3e 4b 7b 8d bd
       0.12083572 0.12757733 0.26655257 -0.06908282
0003e0 fa 8e fc 3d 7c 5a 8f 3e 98 55 7d bd e3 5d ea 3d
       0.12331958 0.27998722 -0.061849207 0.11443689
0003f0 f5 06 0c 3e db 3e 82 bc 00 cb 20 3e b8 c9 b3 bd
       0.13674529 -0.015899112 0.15702438 -0.08778709

conv2.conv.3.weight f4 [32, 32, 1, 1]
000000 05 e6 ac bd ba b7 b8 bc f5 7d b9 3d 79 06 cf 3d
       -0.0844231 -0.022548545 0.090572275 0.101086564
000010 46 76 4f 3d 48 97 7b be b0 12 1b be e3 d4 88 3d
       0.050649904 -0.24569428 -0.15143847 0.0668123
000020 a1 8b 4d bd 82 0b 6a be 99 92 5c 3c 84 8e 37 3d
       -0.05018199 -0.22855952 0.013462686 0.044813648
000030 d9 61 cc bd ca e1 bf bd 53 42 cb 3c 55 1e f3 bd
       -0.099796005 -0.09369238 0.0248119 -0.1187102
000040 d0 01 94 be 4b 85 a5 3d b4 ca bc bd 94 fc db 3d
       -0.28907633 0.08082064 -0.0921835 0.10741535
000050 12 88 c7 3d 5a 9d 93 3e 90 16 05 be 62 f5 60 bc
       0.0974275 0.28830987 -0.12996888 -0.013730379
000060 73 da ad 3e db 4b 31 be 3b 02 17 be 63 3b 5d bd
       0.33955726 -0.17314093 -0.14746945 -0.054011714
000070 46 31 78 be 82 21 34 be c6 13 7f 3d 20 fb a9 3d
       -0.24237546 -0.17590907 0.062274717 0.082998514
000080 61 34 53 be c3 bc ae bd 08 85 58 be 6d 90 3a 3e
       -0.2062545 -0.08532097 -0.21144497 0.18219157
000090 f9 11 fe 3d 67 f2 99 bd 9d 5f 26 3d 5b ec 0f bd
       0.12405772 -0.07516938 0.040618528 -0.035137516
0000a0 2a 3a 80 be 3c b5 fc 3c 05 ca d4 3d d2 c3 5d 3e
       -0.25044376 0.030848138 0.10390095 0.21656731
0000b0 42 8e 6a 3e 8a 9e 97 3d eb 55 17 be 58 c1 8a bd
       0.2290583 0.07403286 -0.14778869 -0.06775159
0000c0 85 ed af bd d6 10 d6 ba 74 f9 e6 bc e0 fd 2a be
       -0.08590225 -0.0016331922 -0.02819512 -0.16698408
0000d0 65 52 95 be 22 61 11 bd fc d3 84 bd 5b c3 23 bd
       -0.29164425 -0.035493024 -0.06485745 -0.039981227
0000e0 e0 fc 2c 3e 14 9e e9 bd 19 f1 99 be 37 16 8c bd
       0.16893339 -0.11407104 -0.30066755 -0.06840175
0000f0 ef e6 27 be d0 56 50 3d c7 9c 21 3e f3 23 32 be
       -0.16396688 0.05086404 0.15782462 -0.17396526
000100 14 cb b2 bd d3 70 4d 3e 10 f2 23 3e 7a b6 c3 3c
       -0.0873014 0.2006257 0.16010308 0.023890723
000110 2a a3 46 3e 21 6e ab 3e 7f d0 d2 be 4c 67 3f 3d
       0.1939818 0.3348246 -0.41174695 0.04672937
000120 83 83 e6 3d cd 75 40 3d 92 15 b2 bd b9 df 0d 3e
       0.112555526 0.046987344 -0.086955205 0.13854875
000130 88 cc 07 be 15 67 f8 3d 82 b0 1d 3e b6 2c 59 3e
       -0.13261616 0.12129036 0.15399364 0.21208462
000140 84 ce 69 3e dd cd cf bd 5d 2c 2f bc 47 32 14 be
       0.22832686 -0.10146687 -0.010691729 -0.14472304
000150 0e cc 60 3e 85 f4 51 3d 39 94 de 3d 01 e3 e7 bc
       0.2195284 0.051258583 0.10868115 -0.028306486
000160 d6 d4 22 3e bb 62 a1 bd 81 0d 9b 3e 6d d8 0f be
       0.15901503 -0.078801595 0.3028374 -0.14047404
000170 1d a2 86 be 1f 6d 85 bd 3b f6 65 3e 76 36 03 3e
       -0.26295558 -0.06514954 0.2245721 0.12813744
000180 9e 76 1c bd 9e 98 2f bd 23 0c 45 bb 8a 7f 0b 3e
       -0.03819906 -0.042870156 -0.0030067049 0.13622871
000190 a4 0b e8 3d 48 7a 8f be 2a d8 39 be b0 22 4d be
       0.11330345 -0.2802298 -0.18148866 -0.20032763
0001a0 c6 07 7e bd d2 c2 46 be d6 36 3c ba e1 4f 91 bd
       -0.062019132 -0.19410256 -0.0007179802 -0.07095314
0001b0 2f 80 5a 3e ae eb 2c be 6c 27 32 3e d9 cf ad be
       0.2133796 -0.1688678 0.17397851 -0.33947638
0001c0 ea 86 2f be 55 f7 36 3e bd bf ac 3c 4f f5 d0 bc
       -0.1714131 0.17867787 0.021087522 -0.025507597
0001d0 a2 3d b8 3c 25 1b 33 3e 53 e0 94 be ae 48 90 3d
       0.022490326 0.17490824 -0.29077396 0.070451126
0001e0 c9 42 ea 3d e0 5f e1 bd 1c 2a 62 3d d5 86 96 be
       0.114385195 -0.11004615 0.05521594 -0.29399744
0001f0 cf aa 6f bd e2 09 06 be f9 40 dd bd d5 1c 87 be
       -0.058512505 -0.13089707 -0.10803408 -0.26389185
000200 93 8b 91 3e 45 cf 41 3b 0c 7d c6 bd e3 af 34 be
       0.284268 0.0029573005 -0.096918195 -0.1764522
000210 9b a1 81 be a2 b6 cf bd 56 ee 68 3d 0e 9e 04 3d
       -0.25318608 -0.10142256 0.05686792 0.032377295
000220 d5 5a 8b 3d 19 26 3a be f1 ea 39 bc aa 22 be bd
       0.06804434 -0.18178596 -0.011347518 -0.092839554
000230 48 70 af 3d fc e0 7d bc fe ec c7 bc 4f 7c 39 be
       0.08566338 -0.015495535 -0.024404999 -0.18113826
000240 48 6a 2a bc c0 73 2d 3e c8 6e 9c 3e 08 83 16 3d
       -0.010401316 0.16938686 0.3055327 0.036746055
000250 0e a6 2a be a0 8b e0 3c aa d1 71 be bb 95 07 be
       -0.16664907 0.027410328 -0.23615137 -0.13240711
000260 65 98 8b bd 9d b9 cb 3d 07 85 61 3c 3d 85 cc 3d
       -0.06816176 0.09947512 0.013764626 0.09986351
000270 90 db b3 3e 41 23 ed 3c 87 b2 44 bd 20 3e c3 bc
       0.3512845 0.028947474 -0.04802182 -0.023833334
000280 8b cf 19 be dc b0 ea bd 2d 0f e0 bd ca 37 7f bd
       -0.15020578 -0.114595145 -0.109403946 -0.062309064
000290 06 d2 55 bd ac 06 52 be 77 29 76 be 84 63 ef bd
       -0.052202247 -0.20510358 -0.24039255 -0.11688903
0002a0 98 0f 5e 3e 85 2e 00 be 12 ab 4a bd bb 57 dc bc
       0.21685636 -0.12517746 -0.04947955 -0.026897302
0002b0 1a 62 b9 bd 61 c2 a1 bd 6c 1a 47 3d a0 ce 00 3e
       -0.090519145 -0.07898403 0.048609182 0.12578821
0002c0 1e df d1 bd e5 cf 7d 3e 4f dc 2b 3c ff 93 a6 3e
       -0.10247634 0.24786337 0.010489537 0.32534787
0002d0 ae 79 af bd 28 b4 e2 3d 2a a5 05 be 92 86 80 be
       -0.085681304 0.11069518 -0.13051286 -0.2510267
0002e0 d3 96 01 3e 21 75 b1 bd 55 34 cb ba 61 d0 a6 3c
       0.12655191 -0.08664919 -0.0015503267 0.020363035
0002f0 e0 08 11 3e f7 de a5 3d db ed 73 bd 9b 53 30 bd
       0.14163542 0.08099168 -0.05955301 -0.043048482
000300 7b 23 98 bd 59 0b 4a be 79 2c 5f bd 9a 39 65 3d
       -0.07428642 -0.19730891 -0.05448577 0.055963136
000310 0c 66 94 3e e3 11 40 be ed 85 4f bd a7 0d 95 3b
       0.28984106 -0.18756823 -0.05066483 0.0045487466
000320 66 62 a5 3e d5 ce 0e 3e 5d 42 08 3d f1 8a 27 3c
       0.32301635 0.13946088 0.033266414 0.010225997
000330 b3 9d c4 3d 40 a0 d8 ba d5 54 a8 bd 4d 9b f8 bc
       0.09600391 -0.001652725 -0.082193054 -0.03034749
000340 f1 5f 92 bd 30 15 f7 3c 10 2b 06 bd dc 20 a4 bd
       -0.071472056 0.03016147 -0.03275591 -0.0801408
000350 14 e7 4c 3e 8c 18 4c 3e 9d c3 8a bd 5a 17 d7 3b
       0.20010024 0.19931239 -0.067755915 0.006564063
000360 de 84 15 3e 5e 52 9f 3d fc b8 7a bd a8 07 d9 3d
       0.14601466 0.07779382 -0.06121157 0.105971634
000370 e6 be 07 3e a5 eb 11 be f0 a7 0f 3e f6 64 21 3d
       0.13256416 -0.14250048 0.14028907 0.039402924
000380 cf b0 82 3c b4 dc e5 3d 12 99 65 3b 6b 0e 77 3d
       0.01595345 0.112237364 0.0035033864 0.060316484
000390 d5 69 9a 3d 4b d7 4b bd 6a 1a 0d be b3 8a d5 bd
       0.07539717 -0.049765866 -0.13779607 -0.104268454
0003a0 ef fc 88 be 0d a1 c5 be 5d c9 e8 3d d7 84 e4 3d
       -0.26755473 -0.38599434 0.11366532 0.1115815
0003b0 7a 58 3e 3e 1e 6b 41 3e b1 31 9d bd 8e 93 18 3e
       0.18588439 0.18888518 -0.076754935 0.14900038
0003c0 1c aa 80 be 13 36 41 3d 6a 13 ee 3d 3c c7 73 be
       -0.25129783 0.04717071 0.11624797 -0.2380647
0003d0 8e f9 94 3d 55 f8 af 3d d6 dd d2 bd a9 e0 33 bd
       0.07274161 0.085922875 -0.10296218 -0.043915424
0003e0 1b 31 2a be bb 4f 98 3e 70 af 75 be 73 23 2e 3e
       -0.16620295 0.2974833 -0.23992705 0.1700571
0003f0 d4 2d 0b bc 81 a1 0e be c7 8c 0e 3e cc 82 e2 bd
       -0.008494813 -0.13928796 0.1392089 -0.11060104

conv2.conv.6.weight f4 [32, 32, 1, 1]
000000 eb 6f 4e be ff 18 b1 bd 7f 58 c0 bd 51 5a 1a be
       -0.20159881 -0.08647346 -0.09391879 -0.15073515
000010 e8 d2 e9 bc b9 27 e7 bb 72 90 28 bd 6b b2 8c ba
       -0.02854295 -0.007054296 -0.04115338 -0.0010734325
000020 dd f8 86 3d b7 f4 31 be 64 51 b9 3e 22 09 59 bd
       0.06590436 -0.17378508 0.3619491 -0.052987225
000030 a3 78 1b 3d e2 55 81 be 46 69 ce bd 98 11 96 bd
       0.037956845 -0.25260836 -0.10078673 -0.073275745
000040 39 b2 f8 3d 31 e4 92 bc 1c 2e 96 be e9 39 90 3c
       0.12143368 -0.017931076 -0.29332054 0.017605739
000050 95 44 62 3e a5 ad 02 be e7 6b 83 be 8b 04 75 be
       0.22096474 -0.12761553 -0.2566826 -0.23927514
000060 20 a0 69 bd eb 86 71 3e 80 47 c6 bd 9b b4 44 be
       -0.057037473 0.23586623 -0.09681606 -0.1920952
000070 cd e6 65 be c1 4b 55 3e 0f 72 7d bd 3b fc dc bc
       -0.22451325 0.20829679 -0.061876353 -0.026975742
000080 9f 30 27 be ec fc 6c 3c f9 c2 5f be f0 92 3a be
       -0.16327141 0.014464598 -0.2185172 -0.18220115
000090 6a 59 ba 3d bb 72 b6 3c d5 a1 10 be 9e 5a f8 3c
       0.09099086 0.022271505 -0.14124234 0.030316647
0000a0 41 d1 23 3e 0c 5e 09 bb 89 aa 3f 3d 96 71 37 3e
       0.15997793 -0.0020960597 0.046793494 0.17914423
0000b0 bd a0 13 be a5 f1 8f be 7c a9 62 3d 66 90 86 bd
       -0.14416786 -0.28114048 0.055337414 -0.065705106
0000c0 3a 34 8c be ef 78 3e 3e c6 c9 43 be 36 62 84 bd
       -0.27383596 0.1860082 -0.19119939 -0.06464045
0000d0 66 73 41 bd 40 60 e6 bd 93 be 69 be f6 54 91 be
       -0.047229193 -0.11248827 -0.22826605 -0.28385133
0000e0 3b 95 cb bd ee e5 6a 3e e4 12 6d 3d d3 0a 99 bd
       -0.09940573 0.22939274 0.057879344 -0.07472768
0000f0 cb 19 bd 3c 88 63 3b 3d ad ab 27 3e 96 84 69 be
       0.023083588 0.045749217 0.16374083 -0.22804484
000100 46 5e 8b bd e6 84 5c be bc 71 a8 3e da 95 70 3c
       -0.068050906 -0.21535072 0.32899272 0.014684165
000110 3d bc 07 3e 47 fa 2d 3e a5 5e 20 be 31 bf 1f 3e
       0.13255401 0.16990004 -0.15661104 0.15600277
000120 73 b1 0f 3e b0 7e 74 3c 09 76 4b bd f7 8e 8d 3e
       0.14032535 0.014922783 -0.049673114 0.27648136
000130 40 a5 8e be 3c 3c ed bc 3c bf e0 3d d2 21 06 3e
       -0.2786045 -0.028959386 0.10973975 0.13098839
000140 f5 59 57 be 54 66 b4 bd ae 97 f8 bc 77 4f 7a 3e
       -0.2103041 -0.0880858 -0.030345764 0.24444376
000150 f0 47 fa bb 69 83 01 3e bf f9 9a 3d b3 ed ab 3e
       -0.00763797 0.12647785 0.075671665 0.33579788
000160 55 4c 5f 3e a8 95 7e bd 0a 88 f8 3d a5 dc 87 3d
       0.21806462 -0.062154442 0.121353224 0.066338815
000170 1e 0b e2 3c b3 23 27 3e e2 d9 c9 3e 2c b4 85 bd
       0.027593192 0.16322212 0.39424044 -0.06528506
000180 0b 80 73 3a 1b 75 9c 3e c6 6a ed bd 50 c7 ae bc
       0.0009288794 0.30558094 -0.11592631 -0.021335274
000190 75 3e fa bd 21 6f 49 bd 22 dc 50 be 43 8e bb 3d
       -0.12218944 -0.049178246 -0.20396474 0.09157994
0001a0 19 7b e9 3e ff d7 93 3d 3c 10 b9 3d 46 5d 4f 3e
       0.4560173 0.07218932 0.090362996 0.20250425
0001b0 06 09 8e be 72 4e 19 be 20 4f e5 3d a3 c4 21 be
       -0.2774126 -0.14971331 0.111967325 -0.15797667
0001c0 7f b5 7e bd 1c 2b 41 3e e6 94 aa be a6 32 7c bd
       -0.062184807 0.18864101 -0.33316725 -0.06157174
0001d0 55 ce 0c be 6d 27 12 3e 98 8a 24 be 4c aa ad 3d
       -0.13750584 0.14272852 -0.16068494 0.08479747
0001e0 c1 6a 66 bd cc 91 0c be 71 53 35 bc 59 65 47 be
       -0.056254152 -0.13727492 -0.011067257 -0.19472255
0001f0 ca 7a 4f bd e2 dc 8b 3d 16 b8 1d 3e 87 bb 4f 3c
       -0.05065421 0.068292394 0.15402254 0.012678987
000200 ba 1d 76 be 4b b3 0f be c7 57 09 be 26 d3 29 be
       -0.24034777 -0.14033239 -0.1341239 -0.16584453
000210 fc 37 1e be fb fc 9c be 1c 5e e0 bd 75 70 a2 bd
       -0.15451044 -0.3066176 -0.1095545 -0.07931606
000220 4d e2 ad 3d 81 c0 73 be 22 5e 7b 3e 34 55 26 3e
       0.08490429 -0.23803903 0.24547628 0.1624344
000230 2e 62 28 be eb 2e 7f be e1 3c 53 be 1b 03 27 be
       -0.16443703 -0.24920242 -0.20628692 -0.16309778
000240 f8 5e 5d be 21 c6 a4 3e e5 4d 86 be 6d 6e 9d be
       -0.21618259 0.3218241 -0.26231304 -0.3074831
000250 b9 9a dd 3d f0 88 c7 bd 26 d3 89 bd 67 8c 4f bd
       0.10820527 -0.09742916 -0.067297265 -0.050671007
000260 05 06 5f 3e 9e af 33 3e ea db 22 3e ab d2 10 be
       0.2177964 0.17547461 0.15904203 -0.14142863
000270 58 83 ae bd 89 4c 44 3e ed 49 5c bd 00 9e 28 be
       -0.085211456 0.19169821 -0.05378144 -0.16466522
000280 9d 12 ae 3d ba 94 cb 3d c3 cb 8c bd 39 a4 2b 3e
       0.08499644 0.09940477 -0.06874802 0.16761865
000290 5e 98 d8 bd 64 1c e3 3c ed 94 e0 bd 93 22 4b bb
       -0.10575937 0.027723499 -0.10965905 -0.003099595
0002a0 2b a2 95 3d 9d f6 a4 3d 42 b4 bf bd d0 96 7d be
       0.07306322 0.0805485 -0.09360553 -0.24764562
0002b0 94 17 d4 3d a1 20 08 be 11 aa 3e be 98 ab 1f 3e
       0.1035606 -0.13293697 -0.18619563 0.15592802
0002c0 93 c8 91 3c 68 5b a1 be 7e 63 43 3c fc d4 1c 3d
       0.017795837 -0.3151505 0.011925576 0.038289055
0002d0 ac 3a be bd c6 6c 33 be 88 b1 bc 3d 26 04 7d 3e
       -0.092885345 -0.17521963 0.09213549 0.24708614
0002e0 af e1 a5 be 95 3b 85 3e 87 a6 12 be a7 95 0e 3e
       -0.32398745 0.2602202 -0.14321338 0.13924275
0002f0 c4 e1 45 be 31 cc 96 be e2 a2 2e bd 31 7e 85 be
       -0.19324404 -0.2945266 -0.042635806 -0.2607284
000300 51 53 a9 bd 55 59 bc 3c a3 41 6d bd c5 27 bd bd
       -0.082678445 0.022991816 -0.057923924 -0.09236101
000310 1d 05 96 be 72 db dd bd 6f 0e 7f be c8 a0 cb bd
       -0.29300776 -0.108328715 -0.2490785 -0.09942776
000320 01 b5 d6 3d 1c 46 d2 bd 04 48 8c 3e 16 db ca 3e
       0.104837425 -0.102672786 0.27398694 0.39620274
000330 09 1d 44 3e f1 78 48 be 24 ec 4b be 2c 7b 31 be
       0.19151701 -0.19577385 -0.19914299 -0.17332143
000340 a2 ed 74 be 7e ce 84 3e 64 bf be bd 62 0e 21 3d
       -0.23918775 0.2593879 -0.093138486 0.039320357
000350 d5 86 40 3d 4c 78 7e bc 18 d2 a8 3a 6c 74 d2 bd
       0.047003586 -0.015531611 0.0012879996 -0.10276112
000360 69 da 04 bd c7 8d a8 3d 6c 77 3c be cb 46 37 be
       -0.032434855 0.08230167 -0.18404931 -0.17898099
000370 ef 4d b2 3e 61 42 83 bd 61 a5 ec 3d b3 44 5d be
       0.34825084 -0.06409145 0.11554981 -0.21608238
000380 f1 58 2a be 35 e1 8b 3d 2b b6 19 be a3 d8 5c 3c
       -0.16635491 0.06830064 -0.15010898 0.013479385
000390 fb 97 1b 3e c3 37 2a 3e 67 ab ae 3e 1b 28 44 bd
       0.15194695 0.16622834 0.34115145 -0.04788981
0003a0 a8 15 e5 bd de d9 05 3e 01 23 f7 bd 7a eb 63 3d
       -0.11185771 0.13071391 -0.12067223 0.05564449
0003b0 0b bf 67 3e f9 f9 ba bd b3 10 68 be 68 87 14 be
       0.22631471 -0.0912971 -0.2266262 -0.14504778
0003c0 00 b6 2d 3e ee 40 e0 bd 6d 46 38 3e c1 97 22 3e
       0.16963959 -0.10949884 0.17995615 0.15878202
0003d0 19 b1 1b be ff 4e f4 3c 74 53 0a bb 79 eb 83 bd
       -0.15204276 0.029822825 -0.002110687 -0.06441397
0003e0 5a 4f 0e be f2 da 14 3d 13 3c f9 bb a1 12 88 3d
       -0.13897458 0.036341615 -0.0076060384 0.06644178
0003f0 64 25 38 3e af 6c f4 bd 87 dc 4e be ff 54 9c 3c
       0.17983013 -0.11934792 -0.20201312 0.019083498

conv3.conv.3.weight f4 [64, 64, 1, 1]
000000 1c e4 1c bd 6b a3 90 3c 6a 16 56 3e 81 1a 1f bd
       -0.03830348 0.017656049 0.20906988 -0.038843635
000010 c7 89 d9 bc bc d6 08 3d 95 d3 40 be 97 a9 9a 3d
       -0.026554955 0.03340791 -0.18830712 0.07551878
000020 19 13 72 be a8 bf d3 3d 99 b3 66 3c 31 9d 33 bd
       -0.23640098 0.1033929 0.014080905 -0.04385108
000030 37 fd a4 bd ba 98 78 3d 3f 4e 1c bd f4 1e 93 3e
       -0.080561094 0.060692526 -0.03816056 0.28734553
000040 38 0e 6e be ae 80 90 3d 4d 0e 86 bd e8 a9 01 be
       -0.23247612 0.07055794 -0.065456964 -0.1266247
000050 17 14 31 3d 75 6b 6a bd 16 23 6b be 84 5b 51 bd
       0.04323205 -0.057231385 -0.22962603 -0.051112667
000060 a3 52 b1 bd 3e 2d 04 bc 21 3e ab bd 68 77 57 3c
       -0.0865834 -0.008067427 -0.083614595 0.013151027
000070 35 54 88 bd f4 26 09 3e ba 3a 05 bd a3 15 82 be
       -0.06656686 0.13393766 -0.03252671 -0.25407133
000080 cd ec d2 3d 20 64 f4 3d d8 66 62 be 27 fd bf bd
       0.102990724 0.1193316 -0.22109544 -0.09374457
000090 95 f2 a9 bc 71 e5 c3 3d 6a dc 09 3e 67 85 87 3c
       -0.020745555 0.09565247 0.13462988 0.016543103
0000a0 56 8e b6 bd 2e 76 a9 be 3a 16 06 3e 14 56 57 bd
       -0.08913867 -0.33097976 0.13094416 -0.052572325
0000b0 3d 1a 1b 3e 9f 9c 15 be 2c 15 d4 3d 9a ed 29 be
       0.15146728 -0.14610527 0.10355601 -0.16594544
0000c0 70 b9 d9 bd 23 2e 0d be b9 34 20 be 14 19 81 3c
       -0.106310725 -0.13787131 -0.15645112 0.015759028
0000d0 2b 3d 8b 3d a6 0b 08 3d 67 c7 38 3e 0b 54 cb 3d
       0.06798776 0.033214234 0.18044816 0.09928139
0000e0 85 2c fe 3b 32 ba 5b bd 4e 09 af bd 0d 8e f1 3c
       0.007756772 -0.053644367 -0.085466966 0.02948668
0000f0 ec d8 5d be e9 d2 8b be ee 18 40 bd f8 a1 08 bc
       -0.2166478 -0.2730935 -0.046898775 -0.008339398
000100 62 3f e0 3d 9e 96 2e 3e 9c 0c 8a 3b 21 da 36 bd
       0.10949589 0.17049643 0.004212929 -0.044641618
000110 50 35 47 be bb bd 88 be 88 23 24 be 92 e4 18 3e
       -0.19453931 -0.26707253 -0.16029179 0.14930943
000120 43 26 05 be f0 f6 a2 bc 87 67 58 bc d7 98 58 be
       -0.13002877 -0.01989314 -0.013208277 -0.21152054
000130 2a f9 80 3d 63 27 5a 3c fb ca 97 bd 90 35 a4 3d
       0.06297524 0.013315055 -0.07411762 0.08018029
000140 34 3f 3c 3d 3c ae 25 3e 1c de 23 be cb 7e 2e 3e
       0.045958713 0.16179746 -0.16002697 0.17040555
000150 51 f4 52 3c 51 bb 2e be 5b 77 21 3d 89 3a a5 bd
       0.012875632 -0.17063643 0.039420467 -0.08067805
000160 0c 1c 64 be 07 ac 42 be 84 2d 90 be ef 9e e2 bd
       -0.22276324 -0.19010936 -0.28159726 -0.110654704
000170 94 13 ac 3d 67 6e 02 3d ce e2 1b be 4a b3 58 bd
       0.08402172 0.03184357 -0.15223238 -0.05290536
000180 98 4f 3b be 6b b0 23 be 02 d5 a2 be 96 d7 15 3e
       -0.18292081 -0.15985267 -0.31803137 0.14633021
000190 29 02 a0 bc 63 b3 0e 3e 6a 85 08 bd ed 85 71 be
       -0.01953228 0.13935618 -0.03333036 -0.23586245
0001a0 4e 15 56 be f7 8c c2 3c 7d 3f ff bb 55 56 9a bd
       -0.20906565 0.023748858 -0.007789551 -0.07535998
0001b0 d9 d9 9f 3d 65 fc 66 be a2 64 ae 3c 1f d9 83 be
       0.07805223 -0.22557218 0.02128822 -0.25751588
0001c0 41 59 3a bc df fd 8b be a3 a2 d3 3d ce d3 69 be
       -0.011373819 -0.27342126 0.10333755 -0.22834703
0001d0 ae 3f 88 bc f1 a7 c7 3d fd 99 a6 bc 7e 2d 5b be
       -0.016631927 0.09748829 -0.0203371 -0.21404073
0001e0 c2 ea bc bd dd 05 ba 3c f6 65 23 be e0 f0 a0 be
       -0.09224464 0.022707874 -0.15956864 -0.31433773
0001f0 4f 74 32 3e c7 b4 13 3e 9f eb dd bb a2 ba 34 bd
       0.1742718 0.1442443 -0.006772473 -0.0441233
000200 5c 27 4d 3e 2d b2 33 3e 6a f8 31 3e b6 e6 6d bc
       0.20034546 0.17548437 0.17379919 -0.014520338
000210 2d e5 a5 be d2 93 d9 3d f5 5b 14 be 9e 55 00 3e
       -0.3240141 0.106238976 -0.14488204 0.1253266
000220 4b 33 1d bd dc ce ab 3d 24 7f 10 3e 16 a9 8d bd
       -0.038378995 0.08389065 0.14111 -0.06917016
000230 ac 72 ce bd 46 86 1a 3e 6f 09 37 be c4 78 7c 3e
       -0.10080466 0.15090284 -0.17874692 0.24655443
000240 a5 ef 98 3c 56 e1 06 3e 5e 2a 03 be d5 34 0b be
       0.018668959 0.13171896 -0.1280913 -0.13594373
000250 43 7d 2b bc ad 96 3d 3d a7 3a 7e bd bd f4 33 bd
       -0.010466876 0.046286274 -0.062067654 -0.043934572
000260 32 25 4e 3d 68 0b 1f be 7e d1 c9 3c 1b d1 ef bd
       0.05032844 -0.15531695 0.024636026 -0.117098056
000270 50 e8 19 be 4a a9 08 3b e5 d4 df bd 35 e3 36 3d
       -0.15030026 0.0020852857 -0.10929278 0.044650275
000280 57 a9 f0 bd ae 7f ac 3d ca 6a 8f be 22 e4 2b 3c
       -0.11751049 0.084227905 -0.2801116 0.010491403
000290 32 57 0c be 77 fb 0c 3e 18 fc 53 3e 97 50 95 3d
       -0.13705137 0.13767801 0.20701635 0.07290762
0002a0 b9 44 30 be cb 87 3d 3e 8b 11 ac 3c 70 2c b5 bd
       -0.17213716 0.18508832 0.021004459 -0.088463664
0002b0 4a 8c 16 3e 49 55 e9 3d d8 5d 0e be 66 68 82 be
       0.14701954 0.1139322 -0.13902986 -0.25470275
0002c0 30 2e bd bd 7f 67 dd 3c 12 13 80 bd 32 80 cb bd
       -0.09237325 0.02702689 -0.062536374 -0.09936561
0002d0 bf 91 01 3e c8 a9 0f 3e 08 3e 18 bd 94 3a b4 bd
       0.12653254 0.1402961 -0.037168533 -0.088002354
0002e0 09 ce cf 3d a4 8d 59 bd 45 b9 04 3b 7f 3e f5 3b
       0.1014672 -0.053113595 0.002025203 0.0074842568
0002f0 e3 eb ef bd bd 86 a8 bd 80 c8 86 3d 9b bf 6c ba
       -0.11714914 -0.08228824 0.06581211 -0.0009031237
000300 3d 3b b2 bb 1e f1 32 be 3a aa 30 be 2c ef 44 bd
       -0.0054391907 -0.17474791 -0.17252436 -0.048079655
000310 87 1e 26 3e db fb 2c 3e c3 c1 41 3e e3 31 0a 3e
       0.16222583 0.1689295 0.1892157 0.13495593
000320 54 ef 8e 3e e2 80 84 be fe cc f5 bd 71 fb 48 3e
       0.27916968 -0.2587958 -0.1200199 0.19627167
000330 ad 82 ee bd e8 08 22 be 96 42 ab 3d 0a d2 ae be
       -0.11646018 -0.1582371 0.0836231 -0.34144622
000340 a3 7f 8b 3d bf 8d 3d 3e d3 50 9d be 73 db ff 3d
       0.06811454 0.18511103 -0.30725726 0.124930285
000350 2b df 43 be 1d 33 e8 3d f7 df 8d bd 45 52 66 3e
       -0.191281 0.11337874 -0.069274835 0.22492321
000360 a2 4f 49 3e b4 41 b6 be 10 ac 21 3e 79 d5 4f 3e
       0.19659284 -0.35597003 0.15788293 0.20296277
000370 52 ef 06 bc 11 4b 34 3b 0b 9a ab 3d 5c 8c c5 3d
       -0.008235769 0.0027510563 0.08378991 0.09645912
000380 c7 0f 60 3c 6c 5f e8 be 44 68 24 3e db 5d 72 be
       0.013675637 -0.453853 0.16055399 -0.23668616
000390 34 1d 26 be 2b 98 80 be 15 b2 8b 3d f9 95 b9 bc
       -0.16222078 -0.25116095 0.06821076 -0.02265452
0003a0 7b 42 31 bd 25 8e cb 3d 1d 99 9a bd 02 74 78 be
       -0.04327629 0.09939221 -0.07548735 -0.24263003
0003b0 79 07 7d be 9c 65 a9 3d c2 b4 27 be b1 48 59 bd
       -0.24709882 0.082713336 -0.16377547 -0.05304784
0003c0 e5 0d 5a 3d 99 51 91 3e 90 ee 08 be bd 47 cd 3d
       0.053235907 0.28382567 -0.13372254 0.100234486
0003d0 68 d3 97 be 26 42 5d be 98 91 4f be 6a ab 96 3d
       -0.29653478 -0.21607265 -0.20270383 0.073569134
0003e0 83 fa 03 be b6 79 45 be c0 2a 0a be 61 80 87 3e
       -0.12888531 -0.1928471 -0.1349287 0.26465133
0003f0 cb 49 cf bc 19 f6 91 3d c9 bb ca bd 35 58 20 3b
       -0.025303742 0.071270175 -0.098990984 0.0024466638

conv3.conv.6.weight f4 [64, 64, 1, 1]
000000 44 10 50 3e 3b 3b 98 3c 98 89 22 3d 1e 11 93 bd
       0.20318705 0.01858293 0.039682 -0.07180999
000010 a9 9e 3a bd 19 fb 39 be 49 76 8e bc 7a 18 12 bc
       -0.045561466 -0.18162192 -0.017390387 -0.0089169685
000020 40 1f 26 be 9a 3b 13 be 69 e0 f2 be ea 4b 2a be
       -0.16222858 -0.14378205 -0.47436836 -0.16630521
000030 72 67 ca 3d 5e a3 c7 bd ce 12 51 3e 31 69 fa bd
       0.09883012 -0.09747957 0.2041733 -0.12227095
000040 2d 12 bb 3a 81 7a 68 be 57 1c 8e be 9e ef 31 3d
       0.0014272385 -0.22702982 -0.27755997 0.043441407
000050 92 88 2b 3e a2 11 71 3e f9 fd 65 be 86 a7 fc 3d
       0.16751316 0.23541883 -0.22460164 0.1233664
000060 57 47 eb ba 9d 21 06 bd 9b 6e 00 be c5 06 8e 3e
       -0.0017950338 -0.0327469 -0.12542193 0.2773954
000070 e3 42 3e 3d c2 f1 be bd 18 87 92 bd eb 1c d6 bd
       0.046450507 -0.093234554 -0.07154673 -0.104547344
000080 df b8 e3 3b 61 0c 2b be e6 bf c9 3d 2b e2 07 3e
       0.0069495286 -0.16703941 0.09851055 0.1326987
000090 1e 86 60 be df 52 02 be df 7d a0 3d 19 27 24 3e
       -0.21926162 -0.12726925 0.07836508 0.1603054
0000a0 dd 2e 24 3e 4a 45 dc bd 60 b3 52 3c ad 44 53 be
       0.16033502 -0.10755403 0.012860149 -0.20631666
0000b0 a9 c8 d9 3d a6 22 d6 3c 27 ff e5 bd 23 2d da bd
       0.10633976 0.026139569 -0.11230307 -0.106531404
0000c0 c2 50 f6 3d df f1 3a 3e 1c 20 b1 3d 7f d2 29 bd
       0.12027122 0.18256329 0.086487025 -0.04146051
0000d0 0c 4c 3e bd 7a d8 7a 3e 07 0a 92 3d 22 fd 25 3e
       -0.046459243 0.24496642 0.07130819 0.16209844
0000e0 7b f1 80 be 9a c3 5d 3c 1e 22 4e bd 6c da 05 3c
       -0.25184235 0.013535405 -0.050325505 0.008169752
0000f0 b1 be 74 be 46 72 51 be 47 da 46 ba b3 b1 4a bd
       -0.23900868 -0.20453748 -0.00075856264 -0.049485873
000100 08 cf ad bc ec 25 b5 3d c5 51 3a be 15 bb ee 3a
       -0.021216884 0.08845124 -0.18195255 0.0018213714
000110 34 92 5b 3e b9 af 84 3e a6 cb 9c bd d7 f5 85 be
       0.21442491 0.25915316 -0.0765603 -0.26164123
000120 ec 5c 5b 3e 77 24 0a 3e d5 c4 2f bd 6e 55 c5 bc
       0.21422166 0.13490473 -0.042912323 -0.024088588
000130 fe 0e 79 bd 7f 49 a7 3e 17 36 58 bd ef 97 54 be
       -0.060805313 0.3267326 -0.05278596 -0.20761083
000140 37 db a2 3d 89 dd 37 3d 46 31 8b bc d4 0a 15 3d
       0.07951968 0.044889007 -0.016991269 0.03638728
000150 55 86 3a 3c 2d 0b 1d be 9c cd 43 3e 69 fe 93 3e
       0.011384566 -0.15336294 0.19121403 0.28905037
000160 75 26 d7 bd 21 8b a3 3b e6 e2 0b bd e6 59 1c be
       -0.10505382 0.0049909507 -0.034151934 -0.15268669
000170 12 3f 79 be 18 61 af 3d 9f 2e 01 3e b0 8d 05 3c
       -0.24340466 0.08563441 0.12615441 0.008151457
000180 28 a5 3d 3e e7 e4 51 3e 18 66 4c be fb c0 cb bd
       0.18520033 0.20497476 -0.1996082 -0.099489175
000190 55 9d af be b6 6f 07 be 24 ec ca 3e 12 15 4c be
       -0.34299722 -0.13226208 0.39633286 -0.19929913
0001a0 f0 9c 83 3e 51 39 b0 3e c4 35 ba 3d e3 3d 73 be
       0.2570567 0.3441873 0.09092286 -0.23754077
0001b0 c9 48 ad 3b 9c 31 2d 3c e3 59 81 be ce 0f 5a 3c
       0.0052882177 0.01057091 -0.2526389 0.013309432
0001c0 7c 3f 0a be f2 d9 53 3e ed 53 94 3e a9 40 77 3e
       -0.1350078 0.20688608 0.2897028 0.2414576
0001d0 7e 0a 7d 3e 4c 52 16 bd 6e fe 81 3d d2 f5 b5 bd
       0.24711034 -0.03669958 0.06347357 -0.08884777
0001e0 65 85 68 bd 9c 8b e6 bc c1 89 1d 3e d1 93 a1 be
       -0.05676784 -0.028142743 0.1538458 -0.31558087
0001f0 1f 77 a6 3e b0 c7 8d 3e d2 77 0e 3e 07 de 93 3e
       0.32512757 0.27691412 0.13912895 0.2888033
000200 f8 a9 a4 be ff ee 03 3e 96 bf f7 bc e0 df 9d bc
       -0.32160926 0.12884139 -0.030242722 -0.019271791
000210 9e dd 2b 3c 2e 22 50 3e 29 b3 e2 bd 0f 5c 37 be
       0.010489849 0.20325539 -0.11069328 -0.17906211
000220 6a db 93 3d 0f 82 f7 bc 4e 02 35 3d f0 fb ac 3d
       0.07219584 -0.030213384 0.04419165 0.08446491
000230 b6 99 03 be e0 da d5 3b ea f0 26 3d ee 58 f9 bc
       -0.12851605 0.006526336 0.040757097 -0.030437913
000240 28 52 c7 bd 24 fa 59 be 18 58 bd be 2e 0a 16 be
       -0.09732467 -0.21286827 -0.36981273 -0.1465232
000250 18 cb 35 be 5b 4d 4e be 8b 26 0b be 09 e0 a0 bd
       -0.17753255 -0.20146696 -0.13588922 -0.07855231
000260 a3 8e 2a be 59 79 fc 3d 0c e5 c4 3e f7 ea 57 be
       -0.16655974 0.12327833 0.38456 -0.21085726
000270 3c 9e 40 3e 72 77 6f 3d bd 6d da bd 0d 72 de 3d
       0.18810362 0.05846352 -0.10665462 0.10861597
000280 d7 36 bf 3d ff 57 a1 3d 11 bf 61 bd cb b5 1a bd
       0.09336632 0.07878112 -0.055113856 -0.037771028
000290 a2 5d 57 be 4c 60 90 3e 53 3c 26 be c8 3e 9f be
       -0.21031812 0.2819847 -0.1623395 -0.31102586
0002a0 46 10 27 be 05 8a e6 3d ba 94 0f be 91 db 1c 3d
       -0.16314802 0.11256794 -0.14021578 0.038295332
0002b0 07 b0 c8 bc 74 4a 05 bc 7b 7d 02 3e 1d 10 ac 3d
       -0.024497999 -0.008135427 0.1274318 0.08401511
0002c0 18 c2 db bd 95 39 04 be 26 84 e3 bd 1f 5d e0 3d
       -0.1073038 -0.12912591 -0.1110919 0.109552614
0002d0 07 08 5d bd 70 00 5e be ad 80 ce bd 83 3c e8 bd
       -0.053962734 -0.21679854 -0.10083137 -0.11339667
0002e0 bb f4 43 3e 56 c8 8c be 68 4f 3a 3d 03 bc 0e 3e
       0.19136326 -0.27496594 0.045485884 0.13938908
0002f0 cb 70 e1 3d 25 3e bb bd 0b 9f 24 be 36 22 6a 3d
       0.11007842 -0.091427125 -0.16076295 0.057161532
000300 ef 2a 2b 3e 88 ae 63 bb 45 7c 8f bd 22 4e ae bd
       0.16715597 -0.003474148 -0.070061244 -0.085109964
000310 b4 2d 21 be a7 f8 3b bd 40 72 17 3e c7 cc 0b 3e
       -0.1574009 -0.04589143 0.14789677 0.13652335
000320 04 83 43 3c 01 30 7b be 01 98 8c bd d5 5b 6e bd
       0.011933092 -0.24530031 -0.0686493 -0.058193047
000330 fd e3 a7 bc 77 72 10 be de 38 97 bd e3 91 05 be
       -0.020494455 -0.14106165 -0.073838934 -0.13043933
000340 3d 1c cc bc 2b 6a 32 3e ee 72 c5 3d 1a 1d 8d 3e
       -0.024915809 0.17423312 0.09641062 0.27561265
000350 fb df 1b bd 69 01 7e bd a1 9a 48 be 07 62 0a be
       -0.0380554 -0.062013064 -0.19590236 -0.13513957
000360 1d 00 e1 bb ef c6 15 38 6e 69 48 bd 08 30 99 3e
       -0.0068664686 3.570964e-05 -0.04892867 0.29919457
000370 46 23 6f 3e 8f 1b 7a bd 77 de 9d bd 4d b9 cd bd
       0.233533 -0.06106144 -0.077084474 -0.10045109
000380 68 4f 39 3c 94 3c 03 be d1 9a 84 be 6b 99 2d be
       0.011310436 -0.12816077 -0.25899366 -0.16953056
000390 c6 1b 07 be 92 b0 e8 3d bc 1a 64 bc 1d d5 3c 3e
       -0.13194188 0.11361803 -0.01392239 0.18440671
0003a0 5d 16 a9 bd 87 ba 53 be 5e 6e 2f 3e 8e 3d 4b be
       -0.082562186 -0.20676623 0.17131945 -0.198477
0003b0 70 c8 2c be 53 1c 54 bd c8 d3 82 bd 48 30 70 3d
       -0.16873336 -0.051784825 -0.0638805 0.058639795
0003c0 94 66 7b bd f1 24 48 3e fe 26 5d bb 66 36 40 be
       -0.061377123 0.19545342 -0.0033745165 -0.18770751
0003d0 23 ea 40 bd ba 14 43 3e 7f d2 aa 3d c8 63 03 3d
       -0.04709829 0.19050875 0.0834093 0.03207758
0003e0 8e 50 f7 bd ae ab d2 bc e8 bb ff 3c 40 73 8f be
       -0.120759115 -0.025716629 0.03121753 -0.28017616
0003f0 11 11 2f be 19 3a 05 bd 8a 27 7d 3c a6 9b 93 3d
       -0.17096354 -0.03252611 0.015451321 0.07207422

conv4.0.weight f4 [64, 64, 1]
000000 ee b2 89 3d 74 90 5a be df 2e 97 bd 48 68 e8 3c
       0.06723581 -0.21344167 -0.07381987 0.028370038
000010 ca 43 89 bc 10 69 e0 bd fe 67 2b 3e f6 6c a5 3b
       -0.016755957 -0.10957539 0.16738889 0.0050483895
000020 a6 aa ad be 47 f6 82 3d 24 9f bd bc 4e f2 d8 ba
       -0.33919257 0.0639463 -0.023147173 -0.0016551705
000030 c4 52 10 3e 16 b6 95 3d 90 1a ce bd b6 1c 07 be
       0.14094073 0.07310121 -0.1006366 -0.13194546
000040 e6 08 0d 3e fb 6c 1c 3e bc 8f a9 bd 68 bb 64 be
       0.13772926 0.15275948 -0.08279368 -0.22337115
000050 34 d5 1f be 5e 56 d9 3b 5b 61 19 3d f2 b5 79 bd
       -0.15608674 0.00663261 0.03744636 -0.060964532
000060 99 23 ad 3d ef 1e ff 3d 2b 84 7a be a4 ad 7e 3b
       0.08454055 0.12457072 -0.2446448 0.0038860822
000070 85 68 59 be 1f 6d d7 bd 34 ce b0 bd 0a fc a1 bc
       -0.21231277 -0.1051886 -0.0863308 -0.019773502
000080 ed 25 af bb 9e c3 d6 3c a9 f7 84 bd 81 e9 07 be
       -0.0053450973 0.026216324 -0.0649255 -0.13272668
000090 c3 66 97 3d 95 c1 d6 bd 46 f0 32 bd 75 b5 b6 bd
       0.07392647 -0.104861416 -0.043686174 -0.08921329
0000a0 a2 97 45 3e 8b 30 64 be fa 03 0e be 12 6a 48 bd
       0.19296125 -0.22284143 -0.13868704 -0.04892928
0000b0 df 0c 7d be 4a c4 0a 3d 8b eb da 3d c5 e1 42 3e
       -0.24711941 0.033878602 0.106894575 0.19031437
0000c0 98 b8 94 3e 9c 97 94 be 5e 36 95 be 0c 07 21 3c
       0.29047084 -0.2902192 -0.2914304 0.00982834
0000d0 41 91 32 be 89 c5 dc 3d 0f 6a e4 bd 97 a4 b1 3d
       -0.17438222 0.10779864 -0.111530416 0.08673971
0000e0 e2 73 0a 3d 87 64 98 be a8 a9 fd 3d a7 dc 03 be
       0.03380192 -0.29764196 0.12385875 -0.12877141
0000f0 08 f4 a5 be b1 12 17 be 04 c7 8e bd 34 9f 00 3e
       -0.32412744 -0.14753224 -0.06971553 0.12560731
000100 b7 e3 59 3d 1d 34 55 bc 41 21 fe bd 40 79 e2 bc
       0.05319568 -0.013012913 -0.124086864 -0.027645707
000110 7b 28 91 bd 11 b6 03 be 29 e4 e9 bd 0c 2e d1 bd
       -0.07087799 -0.12862422 -0.11420471 -0.10213861
000120 03 3d cf bd 5d eb 3c be 1a e5 7b bd 62 df 27 bd
       -0.10119059 -0.18449159 -0.061497785 -0.04098452
000130 4d f4 51 bb 3e 32 08 3e dc 8c 81 bd d9 17 19 3d
       -0.0032036484 0.13300416 -0.06325695 0.03737626
000140 a3 1e 93 3c eb de c8 3c a7 91 32 bb 60 56 82 3c
       0.017958945 0.024520358 -0.002724746 0.015910327
000150 1f 93 b4 bd 48 28 d3 bd 7d 43 e7 bc fa fd ce bd
       -0.088171236 -0.103104174 -0.028230423 -0.10107036
000160 16 25 46 bb a0 2c 45 3e 5f e9 09 be 2b 1a ba bd
       -0.0030234507 0.19255304 -0.1346793 -0.090870224
000170 b8 35 e0 3c 14 fa 57 be b5 28 5b be 49 3a b8 bd
       0.027369365 -0.21091491 -0.21402247 -0.08995492
000180 46 5a 8c bb 28 78 d9 3c 41 58 46 3c 38 20 22 be
       -0.0042832224 0.026546553 0.012106002 -0.15832603
000190 99 07 7f 3e 94 b4 95 3d 67 6e d2 bc 6e c7 0a be
       0.24905242 0.07309833 -0.02568741 -0.13552639
0001a0 fa 35 ca 3d 50 34 5b 3c 4c 21 0f 3d 85 0a 45 be
       0.098735765 0.0133791715 0.034943864 -0.19242294
0001b0 83 4c 5f 3d fa a4 87 be 78 7d 6a 3e 74 9b 43 3e
       0.054516327 -0.26493055 0.22899425 0.1910227
0001c0 34 dc 64 3d 68 46 1d 3c 27 71 0d bb 30 9f 3a 3e
       0.055874065 0.009599306 -0.0021582337 0.18224788
0001d0 29 7c ce 3d f1 d9 6e 3e 7a d2 19 3e cb 93 86 3e
       0.100822754 0.23325326 0.15021697 0.26284632
0001e0 09 9d 9e bc b9 7d 8d bc 07 21 f4 3d fa f3 0d be
       -0.01936199 -0.017271863 0.11920362 -0.13862601
0001f0 c4 c0 e7 3a d6 65 87 be 2d 19 1d 3e 4d 80 d2 3d
       0.001768135 -0.26444882 0.15341635 0.10278378
000200 33 30 01 3e 77 59 25 be e1 d0 27 3c 04 5d 03 3e
       0.12616043 -0.1614741 0.010242672 0.12828451
000210 28 eb b9 3d de a6 c9 bd 17 3a 43 3d ac 35 12 be
       0.090780556 -0.098462805 0.04766282 -0.14278287
000220 2c 3b 48 be ed f9 1f be c4 29 a2 bc 68 fe bf 3c
       -0.19553822 -0.15622683 -0.019795306 0.02343674
000230 b9 c3 1b 3e 63 75 5d 3d 3d b1 9f bc 15 f8 66 be
       0.15211381 0.054067027 -0.019493693 -0.22555573
000240 ae d7 f0 3c e8 69 4f 3d c2 db ac bd 51 90 70 be
       0.02939972 0.05063811 -0.08440353 -0.23492552
000250 8f d6 be be 4d 65 cb 3c 57 6f 4f bd 2e 5e af bd
       -0.3727307 0.024828577 -0.05064329 -0.08562885
000260 d0 7a d8 3d da 9b fd 3d f0 06 06 be b5 42 88 3d
       0.105702996 0.12383242 -0.13088584 0.06653348
000270 b6 73 41 be 49 99 8a 3d 27 b4 da bd 8b 5f 40 be
       -0.18891796 0.06767518 -0.106788926 -0.18786447
000280 ac 6a ce bd 49 5f 06 be 30 23 9a be b0 fb 33 be
       -0.1007894 -0.13122286 -0.3010497 -0.1757648
000290 d1 c1 12 3e 99 30 56 3c b4 3f 08 be 8c c2 a6 bc
       0.14331748 0.01307311 -0.13305551 -0.020356439
0002a0 68 c8 18 3e c8 5e 8e bd 37 a2 52 3e 61 fd 41 bd
       0.14920199 -0.06951672 0.20569693 -0.04736078
0002b0 29 a6 f9 bd cd f6 32 be b7 f0 de 3d 6f 27 cf bc
       -0.12189896 -0.1747696 0.108857565 -0.025287358
0002c0 0e dd 7a 3e 73 0b 93 bd f6 4f 21 3d 35 c9 f2 3d
       0.24498388 -0.07179918 0.039382897 0.118547834
0002d0 4c b9 28 be ae b9 d7 3d 55 1b 38 bd 3c 51 a1 3b
       -0.16476935 0.105334625 -0.04494794 0.004923014
0002e0 4f e1 96 bd 7c 5d 1b be 8b f7 73 bc b9 9b 96 bd
       -0.07367193 -0.1517238 -0.014890562 -0.073539205
0002f0 ef d1 c0 be 5a fe 4c be 87 fc 2f bd bf de 91 3e
       -0.37660167 -0.20018902 -0.04296544 0.28490254
000300 69 cd ad be 7a 44 d2 bd 65 4c 7e 3e b8 43 b7 bd
       -0.33945778 -0.10266967 0.2483383 -0.08948463
000310 84 76 d1 3c ec 45 ed 3d df 4f 1d 3d a6 50 81 3e
       0.025569208 0.11585602 0.03840625 0.25256842
000320 85 3f 5f 3d e7 2d 91 3e 3f 3c 2d 3e 4d 4d 88 3d
       0.054503936 0.28355333 0.16917513 0.06655369
000330 c4 aa 98 bd 7c a2 d0 bd 68 bc b7 3c 2d 78 d8 3d
       -0.07454446 -0.101872414 0.022428706 0.10569797
000340 8b 90 89 bd b0 39 23 bd 2d 83 c2 3d f2 1d a4 bc
       -0.067170225 -0.039849937 0.09497676 -0.02003381
000350 ac a9 48 3d ee 68 bb 3d 43 21 04 bd 4e d2 03 3b
       0.048989937 0.09150873 -0.032258283 0.0020114365
000360 00 e5 2c bd 0f b4 6f be 19 b0 17 bd bd 10 42 3d
       -0.04221058 -0.2340853 -0.037033174 0.047379244
000370 2e 81 2c bc 24 37 a7 3c 2f 7a 84 3d af d2 2e 3d
       -0.010528846 0.020412035 0.06468617 0.042681392
000380 b3 75 63 3e 67 b8 e4 3d 29 6a 5b 3d 08 3d 92 3e
       0.22212867 0.111679845 0.05356804 0.28562188
000390 28 8f b2 be 83 12 24 3b da d5 3b 3d 93 0d 5c bc
       -0.34874845 0.0025035448 0.04585824 -0.013430971
0003a0 35 35 7e bd c2 30 09 be 55 d8 40 be 6d 95 35 3e
       -0.06206246 -0.13397506 -0.18832524 0.17732783
0003b0 8c a9 e1 3d 8d 7c 3d 3d e1 2b 7c be 25 51 dd bd
       0.110186666 0.04626136 -0.24626113 -0.10806493
0003c0 0a 1f 6b bc 9c 61 97 bd 2b 9f 2a 3d ae 25 2b be
       -0.014350662 -0.073916644 0.0416557 -0.16713592
0003d0 c3 47 26 3e 71 69 26 be 49 22 ea 3d cd 35 be bd
       0.16238312 -0.1625116 0.114323206 -0.092876054
0003e0 f5 a7 9d 3c 2a 3c e7 bc 59 cc 4a 3e 60 f3 a5 3d
       0.019245127 -0.02822693 0.19804515 0.08103061
0003f0 74 7c e7 3d 34 2d 1e 3e 7e fa 07 be 0a 91 36 be
       0.113030344 0.15446931 -0.13279149 -0.17828766
