models_slbp+gf/case0_final.pth (torch_old, 110331 bytes, 9 tensors)

conv1.conv.3.weight f4 [32, 32, 1, 1]
-0.038723577 0.009636901 -0.011977588 -0.093545556 0.13859239 0.21077661 -0.1832661 0.1831506
0.091953844 0.30554718 0.057749305 0.090425685 0.1171436 0.05014159 0.044500284 -0.0072847675
0.021707824 0.010630165 0.07244038 -0.24621621 0.16910556 0.018066997 0.02709112 -0.028178908
-0.09464578 0.3103776 -0.12321733 0.3229049 -0.1962315 -0.06045453 -0.22713009 -0.021734333
0.15035267 0.101433314 -0.01363005 0.17183228 0.13685608 -0.03266586 -0.16216402 -0.072301306
0.034495734 0.0071771885 -0.050276227 -0.20119733 -0.21612677 -0.09755941 -0.12124994 0.08692622
0.13276461 -0.045698505 -0.1024295 -0.23341893 -0.07916502 0.09065978 -0.04389218 0.009750325
0.2195624 -0.10389733 0.019683665 -0.119725056 -0.10103278 -0.03036287 0.03451336 -0.007232392
-0.08593379 -0.17066962 -0.046795867 -0.20349222 0.18342172 -0.045470085 -0.23126598 -0.021766001
0.09337919 -0.039135914 0.04283029 0.030928073 -0.038996864 0.0947742 -0.17000598 0.13319199
-0.11275047 -0.22185394 0.16781051 -0.18200032 0.058296368 0.015337539 0.083499715 0.007895445
0.08386644 -0.17267548 0.013901171 0.10404329 0.20561042 0.061926816 -0.268128 -0.12293276
-0.016077004 0.20015782 -0.15460536 0.07569466 0.25172386 -0.17500159 -0.06720282 -0.14198887
0.32921568 0.085726045 0.26031455 -0.009311309 0.0493955 -0.010756893 0.024345051 0.16150855
0.017671375 0.11296712 0.044880178 -0.10975767 -0.018307047 -0.08832582 -0.091114506 0.08138893
0.21242435 0.05029378 0.10102673 0.0692342 0.21290995 -0.19085722 0.24005242 -0.24779928
0.03491112 0.035207167 0.17427564 0.07316237 -0.0077602393 0.044562347 0.085213944 0.21360686
0.22211438 -0.19967426 0.019338533 -0.10200158 0.2399734 0.015999608 0.13852984 0.044870324
0.03360836 0.067701094 0.32636756 -0.029651443 -0.03243083 0.11465449 -0.1308918 0.041260857
0.23006567 0.01777707 0.268506 -0.07493098 0.3200157 0.13508558 0.1870917 -0.032694712
3.914666e-05 -0.18847851 0.21364108 -0.022421105 -0.027513051 -0.14460626 0.08894599 0.15380464
-0.12259611 -0.06351303 0.03954725 0.018627796 -0.25087878 -0.16428201 0.0679135 -0.16597573
-0.19544692 0.14084725 -0.119961955 -0.18308903 0.028876742 0.15668015 0.12349567 -0.07617659
-0.21267258 -0.06047582 0.11771878 0.03155471 0.028127372 -0.064428896 -0.16120717 -0.060662992
-0.1658693 0.041806865 0.040806342 0.21787018 0.041867875 0.15123221 0.20983489 0.050813027
-0.1625889 -0.12474165 0.1085215 0.1398767 0.09520499 -0.029615201 0.13651055 0.072318844
-0.2352843 0.021785703 -0.22538683 0.09480547 -0.017884364 -0.0699257 0.17719798 -0.18517032
-0.13128713 0.015709912 0.078588955 0.15006112 0.051122 0.10069908 -0.16027898 -0.03903855
-0.16267788 -0.0831976 -0.1458795 0.041629907 0.15524794 -0.2998291 -0.103175074 0.004357563
-0.1993712 0.031527475 -0.05530279 -0.17136456 0.055968042 -0.04324727 -0.037741438 -0.038316086
-0.03076746 -0.04491583 0.03678963 0.16949232 -0.13613026 0.12801887 -0.13874225 -0.15856503
0.13049057 -0.11822739 0.16871968 -0.22534221 0.3233518 0.21374606 -0.061962098 0.05807401
00000000: 9d9c 1ebd 18e4 1d3c a53d 44bc d094 bfbd
00000010: 2aeb 0d3e d3d5 573e 1caa 3bbe d58b 3b3e
00000020: 4c52 bc3d ae70 9c3e 898a 6c3d 1a31 b93d
00000030: fce8 ef3d 4561 4d3d ee45 363d 0fb5 eebb
00000040: 9bd4 b13c 252a 2e3c 9f5b 943d 1a20 7cbe
00000050: 022a 2d3e 3d01 943c 32ee dd3c 74d7 e6bc
00000060: a6d5 c1bd d0e9 9e3e 5e59 fcbd cb53 a53e
00000070: e9f0 48be 2b9f 77bd ca94 68be 330c b2bc
00000080: 0df6 193e 45bc cf3d 9350 5fbc cdf4 2f3e
00000090: 0024 0c3e a3cc 05bd 530e 26be b512 94bd
000000a0: 664b 0d3d 9f2e eb3b 72ee 4dbd ac06 4ebe
000000b0: 5650 5dbe 3acd c7bd e351 f8bd 6006 b23d
000000c0: 72f3 073e 5b2e 3bbd 8fc6 d1bd 5f05 6fbe
000000d0: 4521 a2bd d6ab b93d 49c8 33bd d4bf 1f3c
000000e0: f7d4 603e 20c8 d4bd a33f a13c 6932 f5bd
000000f0: 46ea cebd 8ebb f8bc e25d 0d3d b4fd ecbb
00000100: 0efe afbd 04c4 2ebe 06ad 3fbd 4460 50be
00000110: e7d2 3b3e d73e 3abd fdd0 6cbe 9d4e b2bc
00000120: 973d bf3d fb4c 20bd d06e 2f3d df5c fd3c
00000130: 2dbb 1fbd fa18 c23d 0c16 2ebe 7b63 083e
00000140: b8e9 e6bd ae2d 63be 85d6 2b3e 4b5e 3abe
00000150: 2cc8 6e3d 4d4a 7b3c e601 ab3d e65b 013c
00000160: 2bc2 ab3d d7d1 30be bdc1 633c a614 d53d
00000170: 8a8b 523e f9a6 7d3d 1348 89be 2cc4 fbbd
00000180: ecb3 83bc 2cf6 4c3e de50 1ebe cd05 9b3d
00000190: f3e1 803e 9e33 33be a2a1 89bd 8865 11be
000001a0: f58e a83e 2391 af3d f347 853e 768e 18bc
000001b0: f052 4a3d ae3d 30bc 466f c73c 7f62 253e
000001c0: 8fc3 903c 4e5b e73d 47d4 373d a1c8 e0bd
000001d0: a9f8 95bc 2be4 b4bd 3e9a babd 3daf a63d
000001e0: c585 593e da00 4e3d 1ae7 ce3d a9ca 8d3d
000001f0: 1105 5a3e 1370 43be 4dd0 753e 18bf 7dbe
00000200: f6fe 0e3d 6435 103d 5075 323e 27d6 953d
00000210: 9b49 febb 0287 363d a684 ae3d c2bb 5a3e
00000220: f471 633e 6977 4cbe d86b 9e3c 34e6 d0bd
00000230: 96bb 753e 9c11 833c c4da 0d3e f2c9 373d
00000240: eba8 093d dfa6 8a3d a619 a73e 95e7 f2bc
00000250: 31d6 04bd f9cf ea3d 8008 06be 2501 293d
00000260: 5696 6b3e 38a1 913c 9e79 893e 6a75 99bd
00000270: 19d9 a33e e053 0a3e f794 3f3e e4ea 05bd
00000280: 6831 2438 8300 41be bac4 5a3e 77ac b7bc
00000290: 0d63 e1bc aa13 14be 5129 b63d f77e 1d3e
000002a0: ab13 fbbd 1f13 82bd 4cfc 213d 5299 983c
000002b0: 2f73 80be 8b39 28be 3c16 8b3d 8bf5 29be
000002c0: 3d23 48be 433a 103e 9dae f5bd b17b 3bbe
000002d0: eb8e ec3c c370 203e 4ceb fc3d 7902 9cbd
000002e0: d7c6 59be 7eb5 77bd 8b16 f13d 833f 013d
000002f0: 606b e63c 4cf3 83bd 7e13 25be c279 78bd
00000300: a4d9 29be ad3d 2b3d 8d24 273d 5c19 5f3e
00000310: a67d 2b3d 9edc 1a3e f5de 563e 5221 503d
00000320: b47d 26be 8d78 ffbd 8540 de3d d63b 0f3e
00000330: d5fa c23d 949b f2bc 6cc9 0b3e e71b 943d
00000340: 5eee 70be ee77 b23c cecb 66be 5f29 c23d
00000350: 3b82 92bc 3535 8fbd 6373 353e 4a9d 3dbe
00000360: 2270 06be 13b2 803c 3ff3 a03d 9fa9 193e
00000370: 4d65 513d 523b ce3d 2c20 24be e3e6 1fbd
00000380: 0895 26be 8163 aabd 7061 15be 1f84 2a3d
00000390: 51f9 1e3e 3383 99be 744d d3bd e3c9 8e3b
000003a0: f727 4cbe f422 013d 2e85 62bd 317a 2fbe
000003b0: bf3e 653d 0d24 31bd c496 1abd 54f1 1cbd
000003c0: 0a0c fcbc a9f9 37bd b9b0 163d 658f 2d3e
000003d0: bb65 0bbe 6117 033e 7312 0ebe df5e 22be
000003e0: 529f 053e 3421 f2bd dac4 2c3e 1cc0 66be
000003f0: 5e8e a53e 3fe0 5a3e f8cb 7dbd 03df 6d3d

conv1.conv.6.weight f4 [32, 32, 1, 1]
0.20137702 -0.0888278 0.037592478 0.36037183 0.2046611 -0.11017142 -0.016544947 -0.04142574
-0.0019239051 0.03478769 -0.15775831 0.09853687 0.12177467 -0.05177434 -0.022856066 -0.03935225
-0.002691863 -0.052801996 0.017552473 -0.116865054 -0.20412956 0.20123541 0.053762097 0.0033231603
0.11688175 0.15606849 -0.22421227 0.05977399 -0.25227526 0.15883309 -0.088662334 0.03918787
0.55804586 0.1668412 -0.18503425 0.106058195 -0.0056439536 0.10137587 -0.044761613 0.12268817
0.17763764 0.20048623 0.27001962 -0.037684277 -0.052424062 0.097184315 0.06441229 0.07486146
-0.053121515 -0.08457988 0.16677666 -0.22681592 0.122625306 0.0893437 0.16063806 0.1852462
-0.10443959 0.06782695 0.18708348 0.01573252 -0.06501854 -0.20302121 0.1806213 -0.16983372
0.13253954 -0.18017714 -0.040569663 0.10542997 -0.3431275 0.12925823 -0.015172226 -0.12281431
0.06366488 -0.08015504 0.25150743 0.08901356 -0.122876085 -0.0152730895 0.0688596 -0.09661521
0.17666268 0.07569878 0.12644842 0.11439978 0.17016459 0.022550499 0.01693523 -0.04692015
-0.09870078 0.25284952 0.20826268 -0.08169371 0.033514377 0.020654337 0.12736775 -0.07977246
-0.015241206 -0.023160018 0.065212 -0.13621002 0.14119303 -0.04705093 -0.023188345 -0.010887833
0.013292518 0.23309684 0.026719058 0.123472184 -0.117433056 0.009466101 -0.24174002 -0.2477771
0.14026617 0.18875979 -0.14280246 0.14875185 -0.12661053 0.1586813 0.015031562 0.13967569
-0.037374724 0.24097747 0.020687958 -0.18003976 -0.07740781 -0.049266048 -0.014143655 0.04564907
-0.0905179 -0.24270089 0.06860759 0.14456819 -0.037431173 -0.014444843 0.09218073 0.13470441
0.034341253 0.044630915 -0.061639275 0.16235843 0.11422738 0.21564883 -0.0067190216 0.20144342
0.05518695 0.0032045783 -0.11937024 0.19764386 0.03619507 -0.19724695 0.056806114 0.15870687
-0.057421893 0.11060257 0.32628676 0.1723406 0.043166097 0.101062335 0.06594098 -0.15245117
0.22070205 -0.06905401 0.10036798 0.031310663 0.06787304 0.0426345 0.00029897154 -0.21207234
0.16802453 -0.16502896 -0.2176744 0.029470451 0.10227106 0.13205768 0.12205526 -0.1547495
0.021653933 0.21203624 -0.08920746 0.08163263 0.06906032 -0.09061631 0.17791033 -0.011712257
-0.14193791 0.07619995 -0.008776801 0.10711763 0.1367945 0.3091586 -0.20920481 0.0014303734
0.0920514 -0.051637128 0.11519674 -0.10073623 -0.14282039 0.15502444 -0.20325474 0.09842318
0.30781797 0.049357127 -0.054354362 0.07538552 -0.07053955 -0.116859205 -0.00480335 -0.25182816
0.18724898 -0.00686903 0.0868687 -0.02704357 0.036940385 -0.06853105 0.17783968 0.123311244
-0.1500151 -0.06005761 0.014097548 -0.16644956 0.009287086 -0.19930907 0.077309124 -0.3021317
0.0074075316 0.22234079 0.20772822 -0.15424794 0.023817228 -0.0012265283 0.06341573 0.20383129
-0.0059587704 -0.22881715 0.15136817 0.12687744 0.041658103 0.10366015 0.087711684 -0.13703975
-0.1752176 -0.11634297 0.29351807 -0.14560626 -0.06763792 0.009763877 -0.09642567 -0.008296378
0.07714884 -0.055888034 -0.09441542 -0.1750814 -0.1359695 0.12815922 0.19320884 0.004663528
00000000: c735 4e3e 59eb b5bd 92fa 193d a882 b83e
00000010: ae92 513e 8ea1 e1bd 4589 87bc 09ae 29bd
00000020: 8b2b fcba 897d 0e3d 658b 21be b3cd c93d
00000030: 0065 f93d 5511 54bd a53c bbbc d32f 21bd
00000040: f869 30bb e846 58bd 34ca 8f3c f256 efbd
00000050: 5707 51be a810 4e3e a535 5c3d 61c9 593b
00000060: b35f ef3d 6bd0 1f3e e797 65be 92d5 743d
00000070: 392a 81be 24a5 223e 9994 b5bd 7683 203d
00000080: 18dc 0e3f 6bd8 2a3e 9e79 3dbe 0a35 d93d
00000090: eaf0 b8bb 279e cf3d f457 37bd ef43 fb3d
000000a0: a4e6 353e 434c 4d3e 0340 8a3e d45a 1abd
000000b0: 9dba 56bd 9208 c73d 97ea 833d f750 993d
000000c0: f295 59bd 3738 adbd 80c7 2a3e 6f42 68be
000000d0: fa22 fb3d d4f9 b63d 4e7e 243e 2eb1 3d3e
000000e0: 6ce4 d5bd dbe8 8a3d d092 3f3e 7ce1 803c
000000f0: 7128 85bd cbe4 4fbe caf4 383e e4e8 2dbe
00000100: 72b8 073e 5b80 38be 602c 26bd abeb d73d
00000110: 68ae afbe 455c 043e ee94 78bc 1286 fbbd
00000120: bc62 823d 5328 a4bd 95c5 803e be4c b63d
00000130: 75a6 fbbd fb3b 7abc 4306 8d3d 32de c5bd
00000140: 10e7 343e f607 9b3d b27b 013e 6f4a ea3d
00000150: a03f 2e3e d3bb b83c c0bb 8a3c 582f 40bd
00000160: a223 cabd 7e75 813e d042 553e 084f a7bd
00000170: 5f46 093d 4933 a93c b16c 023e be5f a3bd
00000180: 40b6 79bc 14ba bdbc de8d 853d a47a 0bbe
00000190: e894 103e 7ab8 40bd 7cf5 bdbc e262 32bc
000001a0: ddc8 593c f0b0 6e3e ede1 da3c fcde fc3d
000001b0: be80 f0bd b517 1b3c b28a 77be 48b9 7dbe
000001c0: efa1 0f3e 3f4a 413e cf3a 12be 6852 183e
000001d0: 31a6 01be 5a7d 223e f146 763c 2507 0f3e
000001e0: 3d16 19bd ccc2 763e cb79 a93c 585c 38be
000001f0: fc87 9ebd 32cb 49bd caba 67bc 85fa 3a3d
00000200: 7361 b9bd 9586 78be 2382 8c3d af09 143e
00000210: 6e51 19bd 10aa 6cbc 40c9 bc3d f4ef 093e
00000220: 6aa9 0c3d e8ce 363d 7779 7cbd 4a41 263e
00000230: 0bf0 e93d 0cd3 5c3e 3d2b dcbb 2f47 4e3e
00000240: b60b 623d e703 523b 6278 f4bd 2763 4a3e
00000250: 4841 143d 1bfb 49be 87ad 683d 0e84 223e
00000260: 3833 6bbd 9a83 e23d 0f0f a73e 0e7a 303e
00000270: efce 303d c5f9 ce3d 110c 873d 291c 1cbe
00000280: b8ff 613e 306c 8dbd ba8d cd3d 9c3f 003d
00000290: 0501 8b3d 83a1 2e3d 48bf 9c39 7e29 59be
000002a0: 9f0e 2c3e 5afd 28be 0ae6 5ebe 046c f13c
000002b0: 7d73 d13d 213a 073e 1cf8 f93d a776 1ebe
000002c0: 9763 b13c 0720 593e 67b2 b6bd 022f a73d
000002d0: 7f6f 8d3d 0b95 b9bd 202e 363e c4e4 3fbc
000002e0: 2c58 11be b80e 9c3d 92cc 0fbc 7d60 db3d
000002f0: db13 0c3e 094a 9e3e c939 56be 5e7b bb3a
00000300: 7285 bc3d 7481 53bd 45ec eb3d cc4e cebd
00000310: 823f 12be babe 1e3e 0322 50be 1892 c93d
00000320: 519a 9d3e b32a 4a3d aea2 5ebd b963 9a3d
00000330: 0a77 90bd e153 efbd 6c65 9dbb 9fef 80be
00000340: 32be 3f3e 9a15 e1bb 38e8 b13d 7a8a ddbc
00000350: cd4e 173d 025a 8cbd 9b1b 363e 9b8a fc3d
00000360: 8f9d 19be f8fe 75bd 67f9 663c c171 2abe
00000370: dd28 183c ad17 4cbe 3f54 9e3d 02b1 9abe
00000380: e1ba f23b 4ead 633e b5b6 543e 2cf3 1dbe
00000390: 591c c33c 76c3 a0ba 1be0 813d 26b9 503e
000003a0: ca41 c3bb 0b4f 6abe 4200 1b3e 29ec 013e
000003b0: b0a1 2a3d c64b d43d 2fa2 b33d 2654 0cbe
000003c0: 3e6c 33be 3945 eebd 0048 963e cf19 15be
000003d0: c085 8abd abf8 1f3c d27a c5bd 88ed 07bc
000003e0: 3600 9e3d daea 64bd df5c c1bd 8a48 33be
000003f0: 973b 0bbe 2c3c 033e 8ad8 453e 82d0 983b

conv2.conv.3.weight f4 [32, 32, 1, 1]
-0.22330312 -0.0053155767 0.0883763 0.15322429 0.11743004 -0.2132574 -0.18312146 0.24839799
0.0047533954 -0.053741973 0.17517148 0.07654403 -0.3133241 -0.12618218 0.08609181 -0.22928257
0.14890762 -0.044740982 -0.26190272 -0.09989658 -0.16401848 -0.25050282 -0.046620976 0.075018585
-0.24377063 -0.09769638 -0.084340826 -0.019771077 0.09794924 -0.07567709 0.06204195 0.04549377
0.094040014 -0.099880576 0.015685422 0.18165676 0.086777054 -0.028249668 -0.09858614 -0.0084956605
0.15349399 0.21277943 0.19289787 -0.073797286 -0.033149105 0.20735143 0.04693845 -0.10694059
0.24951938 0.07180036 0.078852974 -0.07700486 0.18146873 -0.0028713208 -0.24005443 -0.20772949
0.06595326 -0.2128486 0.06752519 -0.0874364 -0.119470686 0.10080744 0.10512751 0.03528867
-0.015777148 -0.18793249 0.012431161 0.15339048 -0.06474756 -0.09787511 -0.078081176 -0.16226028
0.164848 0.19665839 0.149147 -0.0086709745 0.08703483 0.11674154 -0.09788898 -0.15089627
-0.082169 -0.07448927 0.053910356 -0.14081524 -0.034127917 -0.0954144 -0.29115504 -0.14494103
-0.021021001 -0.1827466 -0.094433516 -0.18575221 0.03745091 -0.17900313 0.10397244 0.20756829
0.17413148 0.1465364 0.012999759 -0.09990871 -0.039852906 -0.019458827 -0.013412407 0.1759056
-0.21551242 0.16264974 0.04590407 0.02810021 0.1547203 -0.032908417 -0.33928007 -0.20090608
0.0731625 -0.29362425 0.03435706 0.09848166 0.15970168 0.09450664 0.08797946 -0.083164245
0.10212426 0.20293877 -0.14572617 -0.16990791 0.19018593 -0.017152654 -0.0059784357 -0.21017124
-0.124030896 0.1938656 -0.116617635 -0.00643262 -0.06477493 -0.0767742 -0.25384715 0.0062098484
0.09680493 -0.075081244 0.13716951 0.08822171 -0.007164991 -0.29257977 -0.15503068 0.0786091
0.17758568 0.12135974 -0.21974777 0.15523979 0.14459807 0.46653447 -0.053895365 0.19927853
0.25876248 0.18102244 -0.029665833 -0.17887394 0.1809296 -0.26166326 0.16038275 0.23240988
0.15203926 -0.0672189 -0.10316641 -0.34254903 0.24557878 0.039845724 0.016057344 0.20729476
-0.019406661 0.19922672 0.25337204 0.056650054 0.0068902746 -0.022845866 -0.10785868 0.21877086
0.015484787 0.048914347 -0.028102508 -0.16853364 -0.13727672 0.12420484 0.11994522 -0.04656275
0.09555198 0.25910982 0.038117602 -0.07560301 -0.19131526 0.31171426 0.024214972 0.079431355
-0.11413776 0.074731566 0.02773169 -0.043595005 0.084367536 0.050801177 0.09337097 0.24379824
-0.21587294 -0.16871642 -0.0685655 -0.2052188 -0.1405723 0.017267277 -0.07205087 -0.09003897
-0.047996223 -0.077496506 0.26749775 0.15992604 -0.09065087 0.25373906 -0.13899305 0.29389936
0.073690385 0.081039056 -0.017981641 0.09670394 0.014113878 -0.18594277 0.018243972 0.048949514
-0.0005930395 -0.17137468 -0.015472883 0.0661714 0.027860463 -0.007382119 -0.0451387 0.08386485
-0.02817437 0.28209418 -0.08902815 -0.025768576 -0.08066659 0.06766743 -0.12968491 -0.16147918
0.02292697 0.05528327 -0.18458018 -0.24806432 0.071355864 0.030721786 -0.053249307 -0.114260666
-0.19476232 0.014947556 0.0013774899 -0.04447853 -0.094093606 -0.15614596 -0.16821265 0.23661126
00000000: 93a9 64be 4a2e aebb a2fe b43d d4e6 1c3e
00000010: 297f f03d 2660 5abe 3184 3bbe 0b5c 7e3e
00000020: 5fc2 9b3b 8b20 5cbd 2760 333e 1ec3 9c3d
00000030: 046c a0be e735 01be e750 b03d 0dc9 6abe
00000040: 3d7b 183e 5242 37bd 1d18 86be 9496 ccbd
00000050: 76f4 27be e841 80be a3f5 3ebd 58a3 993d
00000060: 029f 79be 0a15 c8bd e2ba acbd f4f6 a1bc
00000070: 9c99 c83d 97fc 9abd b31f 7e3d ad57 3a3d
00000080: 0d98 c03d 308e ccbd b77e 803c 3b04 3a3e
00000090: 2bb8 b13d d96b e7bc 88e7 c9bd 6231 0bbc
000000a0: 872d 1d3e dae2 593e 0587 453e 0823 97bd
000000b0: 5bc7 07bd ef53 543e 8842 403d ab03 dbbd
000000c0: 0282 7f3e 110c 933d ab7d a13d b9b4 9dbd
000000d0: f0d2 393e c52c 3cbb d4d0 75be 0ab7 54be
000000e0: 8112 873d fcf4 59be a64a 8a3d db11 b3bd
000000f0: 0cad f4bd 2274 ce3d 184d d73d da8a 103d
00000100: 143f 81bc 6071 40be 11ac 4b3c 6512 1d3e
00000110: 5e9a 84bd bf72 c8bd 06e9 9fbd 8f27 26be
00000120: eacd 283e d160 493e feb9 183e b410 0ebc
00000130: 513f b23d 3016 ef3d 047a c8bd 8d84 1abe
00000140: 3848 a8bd d58d 98bd 1bd1 5c3d df31 10be
00000150: b7c9 0bbd a068 c3bd 4612 95be 6c6b 14be
00000160: 3c34 acbc ed21 3bbe 5c66 c1bd d435 3ebe
00000170: 2066 193d 994c 37be 81ef d43d c88c 543e
00000180: 864f 323e a30d 163e f1fc 543c f09c ccbd
00000190: cd3c 23bd 1e68 9fbc b6bf 5bbc 9920 343e
000001a0: 4aaf 5cbe a78d 263e e805 3c3d 6932 e63c
000001b0: 006f 1e3e faca 06bd 1eb6 adbe 53ba 4dbe
000001c0: 39d6 953d eb55 96be fdb9 0c3d c1b0 c93d
000001d0: d688 233e b38c c13d 932e b43d 0452 aabd
000001e0: 8626 d13d 2ecf 4f3e 3e39 15be 57fc 2dbe
000001f0: 1ac0 423e b983 8cbc c1e6 c3bb 2137 57be
00000200: e903 febd b484 463e 3ad5 eebd bac8 d2bb
00000210: b8a8 84bd cb3b 9dbd 41f8 81be fc7b cb3b
00000220: aa41 c63d 32c4 99bd 2a76 0c3e 95ad b43d
00000230: 4dc8 eabb 04cd 95be 5dc0 1ebe cffd a03d
00000240: 05d9 353e 758b f83d 8f05 61be 2ef7 1e3e
00000250: 8411 143e 9bdd ee3e 63c1 5cbd ac0f 4c3e
00000260: 847c 843e f25d 393e c305 f3bc bb2a 37be
00000270: 9c45 393e baf8 85be 603b 243e dbfc 6d3e
00000280: 2eb0 1b3e 10aa 89bd e948 d3bd 9662 afbe
00000290: 0179 7b3e 4535 233d b18a 833c 1445 543e
000002a0: b8fa 9ebc 1702 4c3e fbb9 813e e309 683d
000002b0: d0c7 e13b 4127 bbbc 03e5 dcbd 7805 603e
000002c0: e7b3 7d3c 695a 483d 3b37 e6bc 1594 2cbe
000002d0: 4592 0cbe 1b5f fe3d d7a5 f53d 95b8 3ebd
000002e0: c2b0 c33d 0baa 843e 3421 1c3d c0d5 9abd
000002f0: 26e8 43be 0399 9f3e 7a5e c63c e8ac a23d
00000300: 0fc1 e9bd dd0c 993d 922d e33c ad90 32bd
00000310: e3c8 ac3d e514 503d 4739 bf3d 3fa6 793e
00000320: cc0d 5dbe ffc3 2cbe 126c 8cbd e124 52be
00000330: 2ff2 0fbe 1b74 8d3c 688f 93bd 5a66 b8bd
00000340: b097 44bd 7db6 9ebd 77f5 883e a7c3 233e
00000350: 2aa7 b9bd 16ea 813e 3254 0ebe fa79 963e
00000360: fcea 963d cef7 a53d 3c4e 93bc b70c c63d
00000370: e53d 673c c867 3ebe 6274 953c 497f 483d
00000380: 3576 1bba d87c 2fbe fa81 7dbc df84 873d
00000390: a03b e43c b4e5 f1bb 5ce3 38bd 56c1 ab3d
000003a0: f0cd e6bc a66e 903e 6454 b6bd 9f18 d3bc
000003b0: 8634 a5bd 3995 8a3d 1fcc 04be cc5a 25be
000003c0: 57d1 bb3c b670 623d 9602 3dbe 9304 7ebe
000003d0: 0623 923d 41ac fb3c f21b 5abd 7f01 eabd
000003e0: c66f 47be 98e6 743c e48c b43a 1e2f 36bd
000003f0: 26b4 c0bd bae4 1fbe f03f 2cbe 394a 723e

conv2.conv.6.weight f4 [32, 32, 1, 1]
-0.10700176 0.1813829 -0.0779089 -0.056256924 -0.012817874 -0.33394185 -0.034063525 -0.0068693003
0.16172338 0.20557284 -0.08477467 0.30110416 0.22922668 0.032883145 -0.158455 0.096339315
0.23917249 -0.084270835 -0.010834779 -0.10901359 -0.18025132 0.23455295 0.20112637 0.11716983
-0.10612738 0.16556194 -0.016212042 0.096794315 0.1311458 -0.08196966 0.15664272 0.038226735
-0.038844667 0.06764707 0.155812 0.0346074 -0.15841977 0.26173797 -0.07714118 0.068728104
-0.13944107 0.019131975 0.13213268 -0.24830945 -0.1630737 -0.15301736 -0.23935647 0.17318729
-0.10602777 0.111961976 -0.065053985 -0.04998665 -0.06898638 -0.0415366 -0.048159916 0.09201141
-0.10236093 0.10524384 -0.0412337 -0.14568797 0.21026021 0.010698638 -0.10818172 -0.14989269
-0.0971873 -0.18992808 -0.050268367 -0.0633738 0.0055936165 -0.1293364 -0.1948151 0.0554122
0.08657391 -0.016868388 0.03747297 -0.18271735 0.0944425 0.15750588 0.32280877 -0.026709888
0.08531333 -0.019106703 0.009110623 -0.13386248 0.22199662 -0.073469326 -0.01947742 0.008155449
0.12603426 0.116402425 0.123398654 0.24906269 0.1376902 0.06429676 -0.07714702 -0.09616689
0.22899415 -0.19138163 0.05608093 -0.13698612 0.24810253 -0.32280147 0.22299884 -0.009356498
0.0048123533 0.016763477 0.11637789 0.17645064 -0.1337339 0.09315921 -0.2814877 0.0666107
-0.06496219 -0.07582626 0.113364615 -0.06607929 -0.08201221 0.06074476 0.07421126 -0.1264214
-0.12643608 0.09536075 -0.10063302 -0.26756427 -0.063021794 -0.017025815 0.20505287 0.14445077
0.2444472 0.30426496 0.13820435 -0.14300852 0.09644385 -0.22301078 -0.06986345 0.024123726
0.03177863 0.028597575 0.17366476 -0.040873915 0.22360443 0.18468098 0.09593887 -0.0052505583
0.16797692 -0.034067377 -0.18363452 -0.16685174 0.06976602 0.1333879 0.07393153 0.07760922
0.0135188075 -0.0049342806 -0.12062475 -0.032393098 -0.11189011 0.12909667 -0.24788459 -0.02583065
-0.0873389 0.12766331 0.07679482 0.3488878 0.40473592 0.43398303 0.07466909 0.07188029
0.07131588 0.124903716 -0.03942058 0.16520496 -0.15910482 0.100226425 -0.12341419 -0.0022773128
0.15737198 0.10394302 -0.0020665326 -0.20452733 -0.22756629 0.0675856 -0.3184282 -0.041205935
-0.16579893 0.019715779 -0.21690254 -0.10812433 0.10739835 0.001019769 0.22733998 0.049804635
-0.09838476 0.12535433 0.05858953 -0.008873634 0.015552418 -0.040194154 -0.068243325 -0.009227134
-0.19937326 0.017564198 0.20524237 -0.06635668 0.23281044 -0.15569083 0.13222882 -0.15614785
0.48627147 0.14068036 -0.041427705 0.15163147 -0.20134911 0.36646292 -0.040506773 0.2409493
0.013157971 0.0224179 -0.08485998 0.035159834 -0.047060277 0.17638017 0.24029428 0.110673
-0.080769256 -0.15284263 -0.19052921 -0.017919857 0.10701773 -0.07932027 0.026970943 -0.08415125
-0.011788487 0.14553687 0.053914286 0.1703895 -0.24142452 -0.030713908 -0.10922073 -0.032428984
0.09284628 -0.014416065 0.24659069 0.09914245 -0.20911947 0.23534977 0.039589394 -0.100769326
-0.25392753 0.06930744 0.026818758 -0.03983336 0.20374753 0.13001315 -0.15353939 0.028764494
00000000: bd23 dbbd 70bc 393e b48e 9fbd a96d 66bd
00000010: 0f02 52bc 6dfa aabe 3286 0bbd de17 e1bb
00000020: d09a 253e b081 523e 589e adbd 532a 9a3e
00000030: 66ba 6a3e 7ab0 063d 0742 22be 8c4d c53d
00000040: a2e9 743e 3096 acbd 5b84 31bc 8442 dfbd
00000050: cd93 38be a62e 703e 12f4 4d3e bcf6 ef3d
00000060: 5059 d9bd 1289 293e 1ecf 84bc 193c c63d
00000070: 164b 063e b6df a7bd f366 203e a393 1c3d
00000080: 961b 1fbd 8c8a 8a3d 2e8d 1f3e 7dc0 0d3d
00000090: cb38 22be 8502 863e 32fc 9dbd 52c1 8c3d
000000a0: a4c9 0ebe a9ba 9c3c ca4d 073e d544 7ebe
000000b0: cbfc 26be 95b0 1cbe dd19 75be 0258 313e
000000c0: 1625 d9bd 524c e53d 063b 85bd cdbe 4cbd
000000d0: bb48 8dbd 4822 2abd 5543 45bd 7a70 bc3d
000000e0: 9ba2 d1bd 158a d73d abe4 28bd 3a2f 15be
000000f0: 744e 573e 5749 2f3c 618e ddbd 787d 19be
00000100: 230a c7bd 827c 42be 34e6 4dbd 1fca 81bd
00000110: a84a b73b c370 04be 9c7d 47be e7f7 623d
00000120: aa4d b13d 932f 8abc 427d 193d 421a 3bbe
00000130: 126b c13d 3949 213e 3147 a53e b2ce dabc
00000140: c1b8 ae3d a985 9cbc b944 153c 3f13 09be
00000150: 1553 633e 1677 96bd 1c8f 9fbc 6f9e 053c
00000160: 200f 013e 6564 ee3d 6fb8 fc3d 4a0a 7f3e
00000170: a9fe 0c3e 05ae 833d 42ff 9dbd 25f3 c4bd
00000180: 717d 6a3e 8cf9 43be 1eb5 653d 1746 0cbe
00000190: 970e 7e3e 3c46 a5be cf59 643e ff4b 19bc
000001a0: f2b0 9d3b 8f53 893c 8857 ee3d 7aaf 343e
000001b0: 8af1 08be 42ca be3d 281f 90be 316b 883d
000001c0: e60a 85bd cc4a 9bbd b52b e83d 9454 87bd
000001d0: 04f6 a7bd 7fcf 783d 13fc 973d 9d74 01be
000001e0: 7678 01be 7f4c c33d af18 cebd 2ffe 88be
000001f0: 9211 81bd b979 8bbc 61f9 513e e7ea 133e
00000200: 5e50 7a3e 9ec8 9b3e 7185 0d3e d370 12be
00000210: 5a84 c53d f05c 64be 9214 8fbd 1f9f c53c
00000220: 4f2a 023d 7645 ea3c 2dd5 313e 686b 27bd
00000230: 8ff8 643e 031d 3d3e 997b c43d e00c acbb
00000240: 2402 2c3e 3c8a 0bbd b00a 3cbe 2fdb 2abe
00000250: 7de1 8e3d d696 083e 6a69 973d 95f1 9e3d
00000260: fd7d 5d3c bfaf a1bb 1c0a f7bd a0ae 04bd
00000270: a426 e5bd eb31 043e 75d5 7dbe cd9a d3bc
00000280: bdde b2bd 2cba 023e 9a46 9d3d 6ca1 b23e
00000290: 8c39 cf3e 0633 de3e 1cec 983d f935 933d
000002a0: 0f0e 923d 85cd ff3d 7977 21bd 7d2b 293e
000002b0: 60ec 22be 8343 cd3d 94c0 fcbd f83e 15bb
000002c0: 1f26 213e 14e0 d43d aa6e 07bb 9d6f 51be
000002d0: 2307 69be 526a 8a3d 0509 a3be 8ec7 28bd
000002e0: 32c7 29be fc82 a13c b31b 5ebe 4a70 ddbd
000002f0: abf3 db3d c5a9 853a d0cb 683e f2ff 4b3d
00000300: f37d c9bd e35c 003e 93fb 6f3d b862 11bc
00000310: 92cf 7e3c a0a2 24bd 28c3 8bbd 682d 17bc
00000320: 8128 4cbe cbe2 8f3c 0e2b 523e 03e6 87bd
00000330: dc65 6e3e 6b6d 1fbe fe66 073e 39e5 1fbe
00000340: 93f8 f83e 830e 103e 19b0 29bd 4845 1b3e
00000350: 762e 4ebe 07a1 bb3e 6eea 25bd 6abb 763e
00000360: 8894 573c bea5 b73c 12cb adbd c203 103d
00000370: 47c2 40bd 019d 343e b40f 763e 87a8 e23d
00000380: 5a6a a5bd c782 1cbe 171a 43be aacc 92bc
00000390: 1d2c db3d aa72 a2bd 2bf2 dc3c 7e57 acbd
000003a0: 8024 41bc 9e07 153e 3ad5 5c3d 967a 2e3e
000003b0: fd37 77be bc9b fbbc 1eaf dfbd 41d4 04bd
000003c0: 3126 be3d 5c31 6cbc 4582 7c3e 320b cb3d
000003d0: 6a23 56be 88ff 703e 7d28 223d 2660 cebd
000003e0: ca02 82be 0ff1 8d3d 03b3 db3c 4e28 23bd
000003f0: 31a3 503e 2b22 053e 6e39 1dbe 84a3 eb3c

conv3.conv.3.weight f4 [64, 64, 1, 1]
-0.11534517 -0.07169457 -0.24254267 0.16864435 0.109792955 0.060537685 -0.1953602 0.061483122
-0.024684522 -0.077831805 0.029600447 0.19707848 0.027920915 0.034242135 -0.048859023 -0.06843696
-0.104100645 -0.00022462942 0.02130936 0.14423983 0.06391654 0.121872604 0.053871594 -0.1436862
-0.07000388 0.11186646 0.092518955 0.03570916 -0.13138482 0.15135616 -0.014445955 -0.019489028
0.023907796 0.06680779 0.03580896 0.044792756 0.052337408 0.09818414 -0.114800505 0.15217917
0.067419805 -0.09038435 0.18808976 0.29831102 -0.00037300686 -0.029412426 0.15292346 0.13451742
0.034788713 0.06612637 -0.019511413 -0.08935611 -0.06265372 0.116824634 0.14213681 -0.0531489
-0.03728659 -0.06377308 -0.16974546 -0.026580589 0.2506813 0.15528983 -0.009374947 0.19068022
-0.057957083 0.0790329 0.040455617 0.017088957 -0.021682767 -0.24122274 -0.17601076 -0.0373962
0.06865265 -0.12142863 -0.101158544 -0.024758397 -0.08220698 0.17028439 0.0656696 -0.066811144
0.19164546 -0.29591703 0.25591558 -0.108778074 -0.047421426 0.15665776 -0.041895904 -0.04828758
-0.041515477 -0.23551649 -0.053600382 0.13250324 -0.117252514 -0.03650037 -0.030036861 0.15923503
-0.022641411 -0.04874425 0.23712169 0.05349553 0.19421203 -0.0012279992 0.0050030407 -0.08597406
-0.1748997 0.15218462 0.0129629765 0.13029228 -0.077338986 0.10845007 0.0698069 -0.02517055
-0.12865147 0.08337735 -0.04123474 -0.034320854 0.08700634 -0.0027300878 0.052741293 0.15847449
0.05227343 -0.0014508974 -0.23997006 -0.0009159408 0.014444475 -0.086680725 -0.04306105 -0.049828265
-0.06354818 -0.042789366 -0.16036867 -0.022600366 0.010145599 -0.05386291 -0.08943851 -0.015956815
0.15714218 0.010058295 -0.14785455 -0.002248785 0.093521506 0.033151906 -0.026532939 0.17726634
0.027073316 -0.06363233 0.14526558 -0.20119421 0.12148359 0.030511856 0.04544042 -0.10454464
0.07609001 -0.07656872 -0.04181939 -0.050617617 0.070543 0.14034623 -0.06365144 0.15940098
-0.009530461 0.07964806 0.1568289 -0.1787629 0.030958079 -0.00018241987 -0.09833701 -0.17443109
0.031599395 -0.034222987 0.13328974 0.105759844 0.14725299 0.14690562 0.069593556 0.14995097
-0.087675676 0.00097049214 -0.14660664 0.09522995 -0.06644166 0.056410965 -0.07970809 -0.048343517
0.1575643 -0.06484296 0.11606238 -0.14399897 -0.17040887 0.03078927 -0.02037642 -0.0114921555
0.057515502 0.09466278 -0.011269282 0.05871408 0.051839877 0.069170706 0.23313557 0.048718013
0.01735584 0.21810271 0.09231011 -0.12815517 0.06281275 0.03754699 0.040937312 -0.0399684
-0.05878575 -0.038968075 0.13740602 -0.024722027 0.10463703 0.062038448 -0.11355437 0.13253507
-0.009599852 -0.042928927 -0.1260635 0.22813341 -0.06303241 -0.028025854 -0.0050386135 0.11155113
0.07551227 0.14758307 0.07412111 -0.13261357 0.1372913 0.037809603 -0.116638765 -0.053781025
0.14385258 0.0502494 -0.062231533 -0.056570746 -0.11424012 0.123579934 0.24087322 -0.06946522
0.021466268 -0.00016463424 -0.15300205 0.06798502 -0.10002352 0.037105877 -0.25888625 -0.06594459
0.11733936 -0.20590629 -0.029567463 0.24025258 -0.26077977 -0.07341181 0.16675879 0.07574143
00000000: 173a ecbd 9ad4 92bd 1b5d 78be 1bb1 2c3e
00000010: 21db e03d 5df6 773d 810c 48be bad5 7b3d
00000020: 3237 cabc 4866 9fbd a37c f23c f1ce 493e
00000030: 67ba e43c 7b41 0c3d 6620 48bd ad28 8cbd
00000040: b832 d5bd 808a 6bb9 f890 ae3c 9bb3 133e
00000050: ade6 823d 5898 f93d 76a8 5c3d 7a22 13be
00000060: 325e 8fbd 3e1a e53d 947a bd3d c543 123d
00000070: be89 06be 1cfd 1a3e baae 6cbc 74a7 9fbc
00000080: 48da c33c 86d2 883d 6bac 123d 9c78 373d
00000090: c05f 563d c414 c93d 871c ebbd dbd4 1b3e
000000a0: 6513 8a3d 6e1b b9bd 9a9a 403e 39bc 983e
000000b0: 2290 c3b9 54f2 f0bc f897 1c3e efbe 093e
000000c0: 9c7e 0e3d 436d 873d 66d6 9fbc 5600 b7bd
000000d0: 9850 80bd c141 ef3d 508c 113e a9b2 59bd
000000e0: d3b9 18bd 769b 82bd c1d1 2dbe 89bf d9bc
000000f0: 4d59 803e 4c04 1f3e 6199 19bc ad41 433e
00000100: 6864 6dbd 00dc a13d cab4 253d 24fe 8b3c
00000110: 0fa0 b1bc 1803 77be 2a3c 34be c22c 19bd
00000120: c399 8c3d 93af f8bd 362c cfbd 1fd2 cabc
00000130: 225c a8bd 085f 2e3e c97d 863d 48d4 88bd
00000140: b53e 443e 7082 97be 5e07 833e 0ac7 debd
00000150: f83c 42bd e46a 203e 0a9b 2bbd 33c9 45bd
00000160: 220c 2abd 3c2b 71be 138c 5bbd eeae 073e
00000170: 1622 f0bd 6981 15bd dd0f f6bc 820e 233e
00000180: 7b7a b9bc 0da8 47bd 07d0 723e 211e 5b3d
00000190: 85df 463e d1f4 a0ba 8cf0 a33b 2b13 b0bd
000001a0: e818 33be 49d6 1b3e aa62 543c 576b 053e
000001b0: e763 9ebd 121b de3d ecf6 8e3d 7832 cebc
000001c0: 36bd 03be bec1 aa3d c2e5 28bd 0694 0cbd
000001d0: 6130 b23d 46eb 32bb 4107 583d 2347 223e
000001e0: aa1c 563d 0a2c beba b6ba 75be bf1b 70ba
000001f0: 85a8 6c3c aa85 b1bd c960 30bd b918 4cbd
00000200: 8c25 82bd e743 2fbd af37 24be 6724 b9bc
00000210: ba39 263c 5b9f 5cbd 8a2b b7bd deb7 82bc
00000220: e1e9 203e 8ccb 243c 2f67 17be 5a60 13bb
00000230: 3488 bf3d 4bca 073d 9b5b d9bc 4f85 353e
00000240: dcc8 dd3c ab51 82bd 80c0 143e db05 4ebe
00000250: 63cc f83d 00f4 f93c bc1f 3a3d 801b d6bd
00000260: 14d5 9b3d 10d0 9cbd cf4a 2bbd 6b54 4fbd
00000270: d978 903d ecb6 0f3e b05b 82bd 033a 233e
00000280: a725 1cbc 861e a33d c197 203e 9f0d 37be
00000290: cc9b fd3c f647 3fb9 ea64 c9bd 109e 32be
000002a0: 5e6e 013d 672d 0cbd 1b7d 083e 9e98 d83d
000002b0: 7dc9 163e 6d6e 163e 1187 8e3d bf8c 193e
000002c0: 4e8f b3bd a068 7e3a 0d20 16be ec07 c33d
000002d0: 9112 88bd 2f0f 673d ff3d a3bd da03 46bd
000002e0: 8958 213e 63cc 84bd 1db2 ed3d 7774 13be
000002f0: aa7f 2ebe c739 fc3c 73ec a6bc 9849 3cbc
00000300: 6095 6b3d 8fde c13d cba2 38bc 2d7e 703d
00000310: 0d56 543d 5fa9 8d3d 17bb 6e3e 8a8c 473d
00000320: d62d 8e3c 5156 5f3e 150d bd3d 1c3b 03be
00000330: f9a3 803d dfca 193d e2ad 273d e8b5 23bd
00000340: 54c9 70bd fd9c 1fbd 2ab4 0c3e d985 cabc
00000350: f04b d63d 071c 7e3d 328f e8bd 46b7 073e
00000360: b348 1dbc 3ed6 2fbd ca16 01be ce9b 693e
00000370: 2317 81bd 7a96 e5bc f41a a5bb eb74 e43d
00000380: 2da6 9a3d 0420 173e cfcc 973d dacb 07be
00000390: 1796 0c3e 3ede 1a3d 4ee0 eebd 7e49 5cbd
000003a0: 174e 133e 51d2 4d3d 7ee6 7ebd bab6 67bd
000003b0: b9f6 e9bd 7a17 fd3d 78a7 763e c843 8ebd
000003c0: 07da af3c aba1 2cb9 92ac 1cbe bb3b 8b3d
000003d0: 22d9 ccbd 55fc 173d bd8c 84be f50d 87bd
000003e0: 9e4f f03d 19d9 52be 7737 f2bc c604 763e
000003f0: ed84 85be ee58 96bd d1c2 2a3e 531e 9b3d

conv3.conv.6.weight f4 [64, 64, 1, 1]
-0.0002549576 -0.22018966 0.0092105735 0.19401033 0.030926935 -0.06516177 -0.13780056 -0.17881757
0.05486872 -0.090951286 0.040356584 -0.08347892 -0.07492011 0.029742893 -0.035200074 -0.065510854
-0.21896532 0.02629285 -0.15855262 0.023290794 -0.13792935 -0.25419235 -0.032800484 -0.092934534
-0.21611355 0.1436839 0.018352801 -0.04289654 -0.19106676 -0.13093507 -0.07558925 -0.25069296
-0.22369626 -0.2086135 -0.037831526 -0.034284636 -0.22468138 -0.09804305 0.06495616 0.03408988
-0.07654482 -0.07321032 -0.2482086 -0.20578034 -0.20984316 0.085550204 -0.04280015 -0.32627812
-0.15272342 -0.1492411 -0.12383923 0.105038494 -0.22421375 -0.1010368 0.09862149 -0.17206527
-0.047209125 -0.056248445 -0.2333992 0.08864334 -0.099042624 -0.24573877 -0.03932374 -0.14294787
-0.061846297 0.14487751 -0.0023155222 0.096049316 0.19286115 0.068419166 -0.03365892 0.066664726
-0.061882216 0.045868687 -0.0785956 -0.19968362 0.016834738 0.010422349 -0.20901075 0.057784483
0.09278883 0.07982751 -0.08368404 0.16586761 0.081479095 -0.17218235 -0.044479374 -0.010055977
-0.08085141 -0.24982108 -0.038577788 -0.11933212 -0.25234988 0.0028079797 0.0075633624 -0.23948324
-0.020509763 -0.0057205437 -0.011549551 0.0707809 0.042162325 -0.0070598475 -0.16311808 -0.13313228
-0.037280943 0.17006317 0.022822171 -0.1507939 0.16516984 -0.23036951 -0.072204895 -0.15745912
0.0009438038 -0.07917795 -0.1157919 0.026159396 0.0898818 -0.26989648 0.06762219 0.014917862
0.19881575 -0.13268788 -0.06000323 -0.06842077 0.03843399 -0.22469555 0.11640313 0.07404535
-0.09281283 0.13067234 0.018007461 -0.101883374 -0.0667873 -0.09607812 -0.03178244 -0.10292345
0.03555477 0.10148324 -0.020729363 -0.22783309 -0.08723105 0.110471055 -0.13593566 -0.026312288
0.024873996 -0.02245664 -0.35266462 -0.0093953535 0.22916953 0.0680737 0.089856036 0.038597833
-0.0571992 -0.14782853 -0.004357079 -0.044666648 -0.07734722 0.010971347 0.028567988 -0.07815281
0.07235487 0.04883174 -0.13812965 0.04209576 0.017802076 -0.14864545 0.0739249 -0.2749605
0.0431369 0.14572495 0.04207572 -0.010170621 -0.030615214 0.019196674 -0.09760992 -0.02778437
0.08963975 0.041798253 -0.08558024 0.060643934 0.17743725 -0.09234151 0.03613419 0.07233188
0.03543141 -0.30753422 0.13444737 0.0036700347 0.14119929 -0.17951947 -0.0694135 -0.03592043
-0.034843795 -0.032920644 0.15652004 -0.05923341 0.10033516 -0.07621356 0.18114346 0.109728135
-0.085568845 -0.18212032 -0.14185813 0.025779964 0.18390964 0.07744522 -0.07469248 0.10004754
0.17304839 0.07639148 0.00054224534 -0.052552976 0.15368624 0.12697716 0.2510661 -0.019092789
0.05418016 0.00798688 -0.031702813 0.056507014 -0.083864 0.012671817 0.23506755 -0.006255068
-0.014553804 0.1499565 0.13060959 0.1602898 0.08247617 0.108724415 0.027204867 0.118479535
0.16199458 0.20587052 0.0058836797 0.0617198 0.09339123 -0.12672548 -0.14915195 -0.0119679915
0.14063649 0.13072114 -0.2417572 -0.19354501 0.100526065 0.12257229 -0.11848436 0.15442948
-0.10573081 0.11691498 -0.038870003 -0.1477071 0.0715748 0.0033248223 -0.17900984 0.11422586
00000000: d4ab 85b9 6679 61be f2e7 163c a5aa 463e
00000010: 7c5a fd3c 8973 85bd 971b 0dbe f41b 37be
00000020: 06be 603d ab44 babd f24c 253d fff6 aabd
00000030: b76f 99bd 5ea7 f33c f42d 10bd 8e2a 86bd
00000040: 7238 60be 1a64 d73c 9e5b 22be 56cc be3c
00000050: 5a3d 0dbe 8025 82be cd59 06bd 7654 bebd
00000060: df4c 5dbe df21 133e 9d58 963c 48b4 2fbd
00000070: 01a7 43be d813 06be 89ce 9abd d45a 80be
00000080: a210 65be c79e 55be 3bf5 1abd 0c6e 0cbd
00000090: e012 66be cbca c8bd bc07 853d d4a1 0b3d
000000a0: 88c3 9cbd 4bef 95bd 652a 7ebe 15b8 52be
000000b0: 20e1 56be f234 af3d 364f 2fbd ed0d a7be
000000c0: 8763 1cbe a9d2 18be 6c9f fdbd 6c1e d73d
000000d0: 4a98 65be 62ec cebd 10fa c93d e131 30be
000000e0: 5b5e 41bd c564 66bd 3300 6fbe a48a b53d
000000f0: dcd6 cabd f2a2 7bbe ee11 21bd ed60 12be
00000100: 8b52 7dbd c55a 143e 04c0 17bb 81b5 c43d
00000110: 657d 453e 591f 8c3d f0dd 09bd 8487 883d
00000120: 3578 7dbd cee0 3b3d bbf6 a0bd dd79 4cbe
00000130: 01e9 893c 80c2 2a3c ea06 56be 6caf 6c3d
00000140: 1208 be3d 9b7c a33d 8a62 abbd 33d9 293e
00000150: 83de a63d 9250 30be 0130 36bd d3c1 24bc
00000160: 6d95 a5bd 19d1 7fbe be03 1ebd 6664 f4bd
00000170: 0134 81be 1506 383b 15d6 f73b 183b 75be
00000180: 1704 a8bc 6673 bbbb 543a 3dbc 94f5 903d
00000190: 67b2 2c3d 4b56 e7bb 6d08 27be d453 08be
000001a0: e7b3 18bd 0a25 2e3e 90f5 ba3c b769 1abe
000001b0: 4822 293e fce5 6bbe 29e0 93bd f73c 21be
000001c0: 9a69 773a 0d28 a2bd 4e24 edbd 3b4c d63c
000001d0: f313 b83d df2f 8abe 817d 8a3d 0c6a 743c
000001e0: 5b96 4b3e 55df 07be f2c5 75bd 3020 8cbd
000001f0: f66c 1d3d 9716 66be c464 ee3d 17a5 973d
00000200: a714 bebd f8ce 053e 6284 933c 3ba8 d0bd
00000210: c8c7 88bd 9bc4 c4bd 4e2e 02bd 88c9 d2bd
00000220: e1a1 113d 72d6 cf3d a0d0 a9bc 144d 69be
00000230: 31a6 b2bd a63e e23d b832 0bbe de8c d7bc
00000240: 8dc4 cb3c fdf6 b7bc 7590 b4be f8ee 19bc
00000250: 6bab 6a3e 396a 8b3d 7106 b83d c318 1e3d
00000260: b549 6abd 5d60 17be d4c5 8ebb 60f4 36bd
00000270: 3868 9ebd 2ac1 333c 6a07 ea3c 950e a0bd
00000280: ca2e 943d ca03 483d dc71 0dbe 9b6c 2c3d
00000290: a9d5 913c 8336 18be f065 973d 9fc7 8cbe
000002a0: 51b0 303d ec38 153e 9757 2c3d ada2 26bc
000002b0: c2cc fabc 5842 9d3c b6e7 c7bd 0c9c e3bc
000002c0: 0c95 b73d a534 2b3d b144 afbd c665 783d
000002d0: 1cb2 353e 8c1d bdbd 7201 143d bd22 943d
000002e0: 8720 113d 2075 9dbe 92ac 093e f784 703b
000002f0: 8c96 103e f4d3 37be aa28 8ebd 4d21 13bd
00000300: 5eb8 0ebd ccd7 06bd ca46 203e bb9e 72bd
00000310: 857c cd3d db15 9cbd ac7d 393e 25b9 e03d
00000320: b83e afbd c07d 3abe 4243 11be 8130 d33c
00000330: cf52 3c3e 999b 9e3d 5ff8 98bd bae5 cc3d
00000340: 9933 313e 2373 9c3d 7825 0e3a ca41 57bd
00000350: ed5f 1d3e 4d06 023e bc8b 803e 7b68 9cbc
00000360: 04ec 5d3d 67db 023c cfda 01bd e673 673d
00000370: e4c0 abbd 749d 4f3c 8cb5 703e 50f7 ccbb
00000380: 1473 6ebc 328e 193e 85be 053e 0223 243e
00000390: 44e9 a83d e8aa de3d bedc de3c 66a5 f23d
000003a0: e8e1 253e b9cf 523e e2cb c03b e7cd 7c3d
000003b0: e743 bf3d 53c4 01be 4abb 18be 6515 44bc
000003c0: 0303 103e c3db 053e 338f 77be aa30 46be
000003d0: 9ce0 cd3d 2e07 fb3d eea7 f2bd c322 1e3e
000003e0: 6589 d8bd 1f71 ef3d 2736 1fbd 8840 17be
000003f0: cf95 923d 43e5 593b 5b4e 37be 3fef e93d

conv4.0.weight f4 [64, 64, 1]
0.040705096 -0.14024282 -0.16674829 -0.19852701 -0.14479798 -0.05930291 -0.02851789 -0.030549936
-0.0009397441 0.09825819 0.07944773 -0.06743899 -0.06111045 -0.056028906 0.030757055 0.11673085
-0.017619016 0.049719393 0.07072543 -0.15808961 0.043507554 -0.10479021 -0.09407561 -0.30648556
0.061289243 -0.15565917 -0.025779434 0.090865314 -0.24082455 0.12560757 -0.21485455 0.03195222
0.18497406 -0.06737776 -0.034534946 0.15868641 0.10068474 0.2164832 -0.040936254 -0.16184537
-0.16050544 -0.04452759 -0.15647234 -0.1614349 0.21274707 0.017820362 0.098483145 -0.005571467
0.064944156 0.1129372 -0.014944398 -0.107704 -0.13416094 0.10874278 -0.08482855 -0.10956779
-0.047273707 0.058514554 0.034307763 -0.16138674 0.004535727 0.18576069 0.17601846 0.084333174
-0.0023037824 0.06462087 0.13967714 0.08401042 0.10961662 0.17624079 0.019077513 -0.0857935
0.14615774 -0.1335311 -0.08423026 -0.057510447 0.12700519 0.09304405 -0.017353848 -0.0039059087
0.040392168 0.046728045 0.07922412 0.046585657 0.20982103 0.24453181 0.0351675 0.16688171
-0.038575653 0.22197363 0.18878438 -0.114051014 0.27077028 0.23627654 0.14570272 -0.050575845
-0.19036989 0.16700034 0.042710118 0.021338444 0.118312694 -0.2696292 0.04061302 0.25242037
0.21910839 -0.06581448 0.08166651 -0.07429655 0.047428787 0.046459883 -0.12232892 0.15809166
-0.04762304 -0.2625107 -0.09559142 0.0764341 0.1441245 0.12699947 -0.0056115137 0.10010932
0.084716216 0.070794314 -0.11737619 0.13543262 -0.04508545 0.010583877 -0.05277332 0.056782547
0.19460776 0.15444423 0.14464448 -0.04329579 0.29733908 0.15033458 0.047155663 0.20084181
0.24443325 -0.10189485 -0.07922567 -0.0093550645 0.26998416 0.19172114 0.02221603 -0.101739295
0.2162108 -0.035811808 -0.11890977 0.08782521 0.13310553 0.10230185 0.1728839 0.24925129
0.014812317 0.14271179 0.2004168 0.021320272 0.13831417 0.19142348 0.13567309 -0.10865529
-0.0763572 0.08595707 0.16751622 0.025529593 0.047608025 -0.055423405 -0.028445506 0.077833064
0.08590505 -0.23158444 0.011710267 -0.06374239 0.07330503 0.23470311 -0.19025388 0.1554887
-0.08136988 0.024715465 0.009574944 0.20462357 0.18943341 -0.05364673 0.12710461 0.046985622
-0.0041342196 -0.046242088 -0.081778936 0.06147611 -0.18873994 -0.13324894 -0.04783407 0.10812704
-0.04545383 -0.15348332 -0.052475408 -0.018173069 0.052365914 -0.12636535 -0.17189157 0.10856496
-0.097075365 -0.01747645 0.32353482 0.25523493 -0.20399375 -0.117623575 0.13290346 0.20492938
0.12957145 0.09332663 0.030224396 -0.052064795 -0.0123275565 -0.051470958 -0.09887296 -0.07863906
0.08727004 -0.109301075 -0.1064862 -0.07248618 0.10086938 -0.15045506 -0.14174038 0.16980441
-0.007555236 0.11425564 -0.07290066 -0.11736985 0.023003247 -0.0969552 -0.08685461 0.023403551
-0.16057862 -0.04401033 -0.16476499 0.1478772 -0.10332209 -0.15323666 0.18570033 -0.17499045
0.16211924 -0.006478307 0.3668813 0.04616203 0.05079861 -0.078932114 0.08273699 0.05888704
-0.08485206 -0.18017527 0.030732336 -0.09768231 -0.101090744 -0.020756975 -0.05945126 -0.21682838
00000000: 63ba 263d d09b 0fbe 10c0 2abe aa4a 4bbe
00000010: ec45 14be 9ce7 72bd 5a9e e9bc dc43 fabc
00000020: 2959 76ba 973b c93d 7eb5 a23d 741d 8abd
00000030: f44e 7abd 917e 65bd 38f6 fb3c 9510 ef3d
00000040: c155 90bc 90a6 4b3d 7fd8 903d 3ee2 21be
00000050: fa34 323d 409c d6bd b7aa c0bd adeb 9cbe
00000060: 6e0a 7b3d 1e65 1fbe 642f d3bc 9817 ba3d
00000070: b69a 76be 459f 003e d502 5cbe 55e0 023d
00000080: d769 3d3e 5afd 89bd 8474 0dbd b17e 223e
00000090: cd33 ce3d c6ad 5d3e c6ac 27bd cbba 25be
000000a0: 8a5b 24be 9062 36bd 493a 20be 314f 25be
000000b0: 5eda 593e 02fc 913c 88b1 c93d da90 b6bb
000000c0: 7101 853d 9e4b e73d 59d9 74bc ea93 dcbd
000000d0: 7c61 09be 89b4 de3d 97ba adbd 1465 e0bd
000000e0: 13a2 41bd f5ac 6f3d 4c86 0c3d 9142 25be
000000f0: 70a0 943b 0d38 3e3e 2f3e 343e dfb6 ac3d
00000100: 0efb 16bb f257 843d 8607 0f3e a80d ac3d
00000110: ae7e e03d 7778 343e 7248 9c3c 81b4 afbd
00000120: 60aa 153e 60bc 08be ea80 acbd 1390 6bbd
00000130: a60d 023e e18d be3d a829 8ebc 46fa 7fbb
00000140: 4272 253d e865 3f3d 4140 a23d 9ad0 3e3d
00000150: 53db 563e 8c66 7a3e cc0b 103d 0ae3 2a3e
00000160: 8101 1ebd 0e4d 633e b150 413e 9493 e9bd
00000170: 67a2 8a3e 7af2 713e 1833 153e 9e28 4fbd
00000180: 53f0 42be 2302 2b3e cef0 2e3d f6cd ae3c
00000190: ed4d f23d d70c 8abe d759 263d 3e3d 813e
000001a0: f35d 603e bec9 86bd c540 a73d ca28 98bd
000001b0: b044 423d b84c 3e3d 9687 fabd c8e2 213e
000001c0: 6010 43bd cd67 86be 6fc5 c3bd 7b89 9c3d
000001d0: 5f95 133e 260c 023e cae0 b7bb 1d06 cd3d
000001e0: b27f ad3d 9cfc 903d ee62 f0bd d9ae 0a3e
000001f0: 85ab 38bd ff67 2d3c d628 58bd d194 683d
00000200: 4247 473e a126 1e3e af1d 143e ed56 31bd
00000210: d43c 983e 4ff1 193e 4c26 413d 7aa9 4d3e
00000220: b64c 7a3e 3fae d0bd 1141 a2bd fc45 19bc
00000230: 5d3b 8a3e 8c52 443e 64fe b53c b15c d0bd
00000240: 5d66 5d3e 67af 12bd f786 f3bd b4dd b33d
00000250: d14c 083e a283 d13d 7a08 313e bb3b 7f3e
00000260: 5caf 723c 0a23 123e 103a 4d3e daa7 ae3c
00000270: 3ba2 0d3e 8404 443e e3ed 0a3e aa86 debd
00000280: 2a61 9cbd 430a b03d 5f89 2b3e 7023 d13c
00000290: a200 433d a703 63bd 8d06 e9bc f166 9f3d
000002a0: fdee af3d 7924 6dbe 6bdc 3f3c 5f8b 82bd
000002b0: f320 963d 0356 703e ead1 42be 6e38 1f3e
000002c0: 40a5 a6bd 1678 ca3c 3ae0 1c3c d788 513e
000002d0: d5fa 413e acbc 5bbd b627 023e ff73 403d
000002e0: 5978 87bb 5868 3dbd b77b a7bd 60ce 7b3d
000002f0: 0b45 41be 6972 08be a8ed 43bd b671 dd3d
00000300: cc2d 3abd bb2a 1dbe 74f0 56bd b0df 94bc
00000310: a47d 563d eb65 01be 5804 30be 4e57 de3d
00000320: 73cf c6bd c62a 8fbc 5ba6 a53e 27ae 823e
00000330: bde3 50be a1e4 f0bd d817 083e 02d9 513e
00000340: 61ae 043e 0822 bf3d 2799 f73c e541 55bd
00000350: 85f9 49bc 36d3 52bd e87d cabd 840d a1bd
00000360: a2ba b23d 3ed9 dfbd 7015 dabd a273 94bd
00000370: 9b94 ce3d e410 1abe 6424 11be 35e1 2d3e
00000380: ea91 f7bb dcfe e93d f14c 95bd 9b5f f0bd
00000390: 4e71 bc3c 7390 c6bd d4e0 b1bd ceb8 bf3c
000003a0: b96e 24be 2d44 34bd 27b8 28be 1f6d 173e
000003b0: 889a d3bd 12ea 1cbe 3a28 3e3e b230 33be
000003c0: 9602 263e fa47 d4bb ded7 bb3e 6614 3d3d
000003d0: 3412 503d 29a7 a1bd 0372 a93d 8933 713d
000003e0: ebc6 adbd de7f 38be 61c2 fb3c aa0d c8bd
000003f0: aa08 cfbd 880a aabc 2a83 73bd 4208 5ebe

conv4.2.weight f4 [64, 64, 1]
0.011344575 -0.0074521727 0.06565325 -0.060042303 0.04614816 -0.030783392 -0.011260433 -0.05753649
-0.06930179 0.017008102 0.09751205 -0.074184395 0.0043042377 -0.009883521 -0.09673876 0.04695034
-0.038402513 -0.065504305 -0.061098717 0.057268366 -0.058314983 -0.019190505 -0.13056096 0.076826476
0.098768994 -0.035672493 0.12586424 0.129207 -0.014732254 -0.08515855 -0.04892458 0.107938886
0.065019734 0.056427702 -0.039881624 -0.028772654 -0.08183386 -0.036234822 0.03985465 -0.056110397
-0.08391019 0.04548299 -0.03755569 -0.06677029 0.033514585 0.05466924 0.11476467 -0.0154548595
0.011346172 -0.035146493 -0.009428847 -0.023737615 -0.016596029 -0.06800392 -0.034047987 -0.07551757
0.03246288 0.064481124 -0.05957724 0.02418153 0.096610256 -0.010911455 -0.012848845 0.12546948
0.08358366 -0.01666441 0.09408591 -0.0768285 0.02483794 -0.022519698 0.06533763 -0.0507868
-0.05438138 0.016185338 -0.025005305 -0.084848784 -0.07547774 -0.063757636 0.013895154 -0.05316026
0.034515373 -0.017278098 -0.14234558 -0.048099115 0.00077135453 0.041960116 -0.11275291 -0.04523721
0.010911627 -0.021869857 -0.019383827 -0.020438327 -0.08328289 0.036409117 0.017531162 -0.02373286
-0.014505292 0.046821453 -0.014767878 0.071304776 -0.011060095 0.043305602 -0.018360626 0.017979076
0.028618753 0.014205809 -0.019276736 -0.06015974 0.011818955 -0.025345528 0.011180344 -0.01003011
-0.00018093678 -0.04266516 0.05456856 -0.01539864 -0.096294016 0.07492994 -0.061018337 -0.012227576
-0.11315902 0.026791224 -0.041007575 0.059580248 0.010852315 0.010138719 -0.0663471 0.050678972
0.11760523 -0.058916714 -0.0050246366 -0.03572304 -0.024955763 -0.06691678 -0.029881073 -0.008852072
-0.085693635 0.050720047 -0.0031048742 -0.014748626 0.06737135 0.04975043 -0.09285672 -0.07866211
0.120266706 -0.012330089 -0.049494658 -0.07545541 -0.0149761895 -0.068902105 0.056245193 0.013544355
-0.16263193 -0.046105273 -0.056254294 0.049856514 0.047071744 -0.068650074 -0.04910975 -0.019352607
0.06407621 -0.10004122 -0.07018451 0.105294496 0.06655724 0.096860014 0.090352215 0.035215903
-0.09953975 -0.023508428 0.070288345 -0.109571405 -0.029343063 0.015488626 -0.023727356 -0.032195434
0.025792614 -0.045853645 0.020983484 0.064129986 -0.079831935 0.047255784 -0.0491421 -0.04098396
0.013720635 -0.016445456 -0.0027396178 -0.034131836 0.012277416 0.036865022 0.024631135 -0.054453228
-0.042202376 0.05908851 -0.076246455 0.08343985 0.05911337 -0.013717895 0.046005104 -0.008794137
-0.04193022 -0.06378526 -0.032877985 0.013569382 0.006052769 0.03791115 -0.022441158 0.046454445
0.0828416 -0.064991176 -0.11241199 -0.0475323 0.03905086 0.05345944 -0.029892264 -0.08888481
-0.042811368 -0.010519116 -0.043554552 -0.01671007 -0.06709192 -0.07698879 0.023563262 -0.017290294
0.08367415 -0.014995416 0.03020046 0.06553731 0.0050425446 -0.07573164 -0.07588592 -0.11455278
-0.00023363781 0.09750476 -0.029906532 0.06577534 -0.03830154 0.048901033 -0.0008946592 0.067867294
-0.055292703 -0.032703016 -0.04055063 -0.02841748 -6.2360654e-05 -0.015396709 0.04931135 -0.0061016637
-0.028554767 -0.029517505 -0.024868153 -0.021395624 -0.048155133 0.024354538 -0.004494418 0.081950895
00000000: 99de 393c 5b31 f4bb 3675 863d ebee 75bd
00000010: da05 3d3d 742d fcbc ae7d 38bc 62ab 6bbd
00000020: 19ee 8dbd 9354 8b3c 66b4 c73d fded 97bd
00000030: 900a 8d3b 7eee 21bc f91e c6bd 004f 403d
00000040: f44b 1dbd 1f27 86bd a642 7abd 3c92 6a3d
00000050: b1db 6ebd 6835 9dbc c6b1 05be 3357 9d3d
00000060: 6647 ca3d 521d 12bd 8ee2 003e d74e 043e
00000070: 8d5f 71bc 9b67 aebd 2465 48bd 100f dd3d
00000080: 1129 853d bc20 673d ea5a 23bd a1b4 ebbc
00000090: 8398 a7bd f76a 14bd a13e 233d 04d4 65bd
000000a0: 1bd9 abbd 5f4c 3a3d ffd3 19bd ddbe 88bd
000000b0: 9746 093d daec 5f3d bd09 eb3d 6136 7dbc
000000c0: 4be5 393c c5f5 0fbd 737b 1abc 6375 c2bc
000000d0: 65f4 87bc a445 8bbd e775 0bbd f5a8 9abd
000000e0: ccf7 043d ae0e 843d 4407 74bd 5818 c63c
000000f0: 99db c53d f6c5 32bc f683 52bc 127b 003e
00000100: e92d ab3d cd83 88bc 1db0 c03d 4358 9dbd
00000110: f078 cb3c 3b7b b8bc bccf 853d d205 50bd
00000120: 03bf 5ebd 1d97 843c edd7 ccbc 33c5 adbd
00000130: 1394 9abd 5d93 82bd 80a8 633c 93be 59bd
00000140: fe5f 0d3d cc8a 8dbc 0ac3 11be 9403 45bd
00000150: ba34 4a3a 5fde 2b3d ffea e6bd a74a 39bd
00000160: aec6 323c 6a28 b3bc d5ca 9ebc 476e a7bc
00000170: 3890 aabd ba21 153d 839d 8f3c 6a6b c2bc
00000180: 9ba7 6dbc dac7 3f3d f8f4 71bc 3d08 923d
00000190: 6735 35bc 3761 313d 0669 96bc db48 933c
000001a0: e071 ea3c 7bbf 683c 3fea 9dbc 0f6a 76bd
000001b0: 4aa4 413c 6da1 cfbc c32d 373c 5555 24bc
000001c0: d9b9 3db9 aac1 2ebd 4883 5f3d 944a 7cbc
000001d0: cc35 c5bd de74 993d 5dee 79bd 2c56 48bc
000001e0: ebbf e7bd 4579 db3c 8ff7 27bd 6b0a 743d
000001f0: e9cd 313c df1c 263c fde0 87bd c194 4f3d
00000200: 03db f03d a752 71bd b5a5 a4bb 5352 12bd
00000210: 0770 ccbc aa0b 89bd 27c9 f4bc 4808 11bc
00000220: 2580 afbd d3bf 4f3d 257b 4bbb 39a4 71bc
00000230: fef9 893d 1bc7 4b3d aa2b bebd 9a19 a1bd
00000240: 644e f63d 2404 4abc e9ba 4abd 5e88 9abd
00000250: b15e 75bc 8c1c 8dbd 5c61 663d 24e9 5d3c
00000260: fc88 26be e2d8 3cbd e76a 66bd 5836 4c3d
00000270: 4dce 403d 6998 8cbd 4e27 49bd 5c89 9ebc
00000280: 633a 833d 69e2 ccbd e5bc 8fbd a4a4 d73d
00000290: 2a4f 883d 8b5e c63d 950a b93d 8d3e 103d
000002a0: 7fdb cbbd bf94 c0bc 56f3 8f3d f966 e0bd
000002b0: dd60 f0bc 02c4 7d3c df5f c2bc 5cdf 03bd
000002c0: 084b d33c 08d1 3bbd 8ee5 ab3c 9556 833d
000002d0: ed7e a3bd 488f 413d 3a49 49bd ccde 27bd
000002e0: 84cc 603c 9fb8 86bc 298b 33bb d3cd 0bbd
000002f0: 3727 493c c7ff 163d 3cc7 c93c 590a 5fbd
00000300: 66dc 2cbd cb06 723d 1a27 9cbd 83e2 aa3d
00000310: dc20 723d 06c1 60bc d96f 3c3d 4915 10bc
00000320: 06bf 2bbd d9a1 82bd 11ab 06bd 1d52 5e3c
00000330: 4e56 c63b b948 1b3d 85d6 b7bc 0447 3e3d
00000340: dba8 a93d 181a 85bd 4238 e6bd 3bb1 42bd
00000350: cbf3 1f3d 49f8 5a3d 9fe0 f4bc 3d09 b6bd
00000360: f95a 2fbd 5f58 2cbc 4266 32bd 8fe3 88bc
00000370: 7d67 89bd 4cac 9dbd be07 c13c 60a4 8dbc
00000380: 5a5d ab3d 55af 75bc f566 f73c 6d38 863d
00000390: ee3b a53b 3119 9bbd 146a 9bbd a69a eabd
000003a0: acfc 74b9 93b0 c73d 8bfe f4bc 39b5 863d
000003b0: 13e2 1cbd 734c 483d 9087 6aba 02fe 8a3d
000003c0: 9a7a 62bd 99f3 05bd 6b18 26bd c6cb e8bc
000003d0: 9fc7 82b8 7a42 7cbc b3fa 493d 77f0 c7bb
000003e0: b0eb e9bc b2ce f1bc 4cb8 cbbc e045 afbc
000003f0: 513e 45bd 2b83 c73c e945 93bb dfd5 a73d
