models_slbp+gf/case9_final.pth (torch_old, 110331 bytes, 9 tensors)

conv1.conv.3.weight f4 [32, 32, 1, 1]
0	0x3dcf587b	0.10124298
1	0x3c5e51bd	0.013569293
2	0xbe8ab0a8	-0.27087903
3	0xbe20c723	-0.15700965
4	0xbe11a2ee	-0.14222309
5	0xbdbb1a02	-0.0913582
6	0xbd5f0364	-0.054446593
7	0xbe6dd591	-0.23226
8	0x3e02b558	0.1276449
9	0xbe3af550	-0.18257642
10	0xbe65b3e4	-0.22431904
11	0xbd419bb1	-0.04726762
12	0xbd831378	-0.06400198
13	0x3d9d8f9b	0.07693406
14	0x3e21334b	0.15742223
15	0xbe0e57a2	-0.13900617
16	0xbe7c227b	-0.24622528
17	0x3e44aac1	0.19205762
18	0x3dcf007a	0.10107513
19	0x39bc50f2	0.00035918463
20	0xbca34578	-0.019930586
21	0x3d9c7c9a	0.07640953
22	0x3ca64031	0.02029428
23	0xbdaf7697	-0.08567541
24	0xbb0cc6d2	-0.002148081
25	0xbdcfda03	-0.10149004
26	0x3d42537f	0.04744291
27	0xbcca6189	-0.024704712
28	0xbde89a55	-0.113575615
29	0xbe510f70	-0.20416045
30	0xbd85fba1	-0.06542135
31	0xbea2c802	-0.3179322
32	0x3d6b93de	0.057514064
33	0x3e186d0d	0.1488535
34	0xbd24b050	-0.040207207
35	0x3d5ed6cc	0.054404065
36	0xbdc0ef85	-0.09420685
37	0xbdea70ac	-0.11447272
38	0xbd5ae55d	-0.053441394
39	0xbde5a240	-0.11212587
40	0xbd49cff4	-0.049270585
41	0xbe3b0a84	-0.1826573
42	0xbd52f12b	-0.051499527
43	0xbe8a667d	-0.27031317
44	0xbeab64c7	-0.33475325
45	0x3d725ea5	0.05917229
46	0xbe4c62aa	-0.19959512
47	0x3d191a90	0.037378848
48	0x3c638c96	0.013888499
49	0x3e41c555	0.18922932
50	0x3d6a8f4c	0.057265565
51	0x3eb481cf	0.35255286
52	0xbe915ad4	-0.2838961
53	0x3df8706b	0.12130817
54	0x3e41d716	0.18929705
55	0x3c17ffc5	0.009277289
56	0x3daf619d	0.0856354
57	0x3c7abb79	0.015303486
58	0x3d7735fe	0.060354225
59	0xbcd0a6c7	-0.02547015
60	0x3ce0bb6b	0.027433118
61	0x3e464d0c	0.19365329
62	0xbc1c2a88	-0.009531625
63	0x3decd255	0.11563555
64	0xbd80f182	-0.06296064
65	0x3dd184e5	0.10230426
66	0xb98fb823	-0.00027412278
67	0x3d9989be	0.07496975
68	0x3cc79377	0.024362309
69	0x3e591588	0.2119962
70	0x3e71b463	0.23603968
71	0xbe5afaee	-0.21384785
72	0x3e80564b	0.25065836
73	0xbe5656f4	-0.20931607
74	0x3e095738	0.13412178
75	0xbd2e4f45	-0.042556066
76	0xbc9608de	-0.018314775
77	0xbdce8560	-0.10084033
78	0xbdc46f84	-0.095915824
79	0xbe6266c7	-0.22109519
80	0xbe27a912	-0.16373089
81	0xbd20f828	-0.03929916
82	0xbe54a51f	-0.20766114
83	0x3d3cfb79	0.04613826
84	0xbab4e7d8	-0.0013802005
85	0x3ea1945a	0.31558496
86	0xbdecb03a	-0.1155705
87	0xbd78cf5f	-0.06074464
88	0x3e0f6f70	0.14007354
89	0xbe1a63e1	-0.15077163
90	0xbe1074ac	-0.14107007
91	0xbd3cf36f	-0.046130594
92	0xbc737016	-0.014858266
93	0xbd6b975d	-0.0575174
94	0xbe463423	-0.19355826
95	0x3df12bbf	0.11775922
96	0x3dbc5234	0.091953665
97	0x3e309eb7	0.17248045
98	0xbdabd4d2	-0.08390202
99	0x3ceff667	0.029292298
100	0x3e22c580	0.15895653
101	0xbc5bc8a0	-0.013414532
102	0xbe320bf7	-0.17387377
103	0x3e2c6f01	0.1683922
104	0xbddfb14e	-0.1092249
105	0x3e7392a5	0.23786409
106	0x3ce09277	0.02741359
107	0x3e87475d	0.26421633
108	0x3ded34e8	0.11582357
109	0x3e57fb8d	0.21092053
110	0x3de360db	0.11102458
111	0xbda1acf2	-0.07894315
112	0x3daeaae1	0.08528686
113	0x3c246475	0.010033716
114	0x3e90891a	0.282296
115	0xbe5dd358	-0.21662652
116	0x3dc78c94	0.0974361
117	0x3d932fd8	0.0718686
118	0x3b0bbaed	0.0021321133
119	0x3daeeb97	0.08541029
120	0x3bbc0550	0.005737938
121	0x3e7f1cd9	0.24913348
122	0x3e4545ff	0.19264983
123	0x3da5c41a	0.08094044
124	0xbbe29a07	-0.006915334
125	0xbcce48a8	-0.02518113
126	0x3cfde60c	0.030993484
127	0x3ce88776	0.028384905
128	0x3cd6c060	0.026214778
129	0xbe63f897	-0.22262798
130	0xbe0d4308	-0.13795102
131	0x3e347b2b	0.1762511
132	0xbe13ec55	-0.14445622
133	0x3e3ebc19	0.18626441
134	0xbdc5be55	-0.096554436
135	0x3e906e14	0.28208983
136	0xbe629662	-0.22127679
137	0xbce4cdc9	-0.027930157
138	0x3d3b12b4	0.045672134
139	0x3db7cdd8	0.089748085
140	0x3e5352b1	0.20637013
141	0x3d0bd4d5	0.03413852
142	0x3ddbe771	0.10737503
143	0xbd83a1cb	-0.06427344
144	0x3d8152bc	0.063146085
145	0xbe02315a	-0.12714139
146	0xbdcd337a	-0.10019584
147	0xbe158a6e	-0.14603588
148	0xbdc619b6	-0.09672873
149	0x3cc9837e	0.024598833
150	0xbd39226d	-0.045198847
151	0x3de61fff	0.112365715
152	0xbd9dcf9f	-0.07705616
153	0x3d9fa6fd	0.07795522
154	0x3d6a4219	0.057191942
155	0x3dfee6f0	0.124463916
156	0x3d39c0c8	0.045349866
157	0xbe4859d4	-0.19565517
158	0xbcae6983	-0.021290546
159	0x3c710275	0.014710058
160	0x3d6301e3	0.05542172
161	0xbe604bb6	-0.21903881
162	0x3d77496e	0.060372762
163	0x3dfc9141	0.123323925
164	0xbde43c10	-0.111442685
165	0x3ccc4eba	0.024939884
166	0xbd79035c	-0.06079422
167	0x3e899dc9	0.26878193
168	0xbd90d2c3	-0.070714496
169	0x3e1be11a	0.15222588
170	0x3ea2e2c5	0.31813636
171	0x3e4363b8	0.19081008
172	0x3e10c06e	0.14135906
173	0xbdc7b6d2	-0.09751667
174	0x3d019142	0.03163267
175	0x3bbdad90	0.0057885125
176	0x3cd17d92	0.025572572
177	0xbea0aee4	-0.3138343
178	0x3de521c4	0.11188081
179	0xbdebdee2	-0.11517121
180	0x3bb59a90	0.005542107
181	0x3df9af9a	0.121916965
182	0xbd9d153f	-0.07670068
183	0xbe28a177	-0.16467844
184	0xbdf4d8cc	-0.11955413
185	0xbe0c9b56	-0.13731131
186	0x3cb5d56d	0.022196496
187	0xbe0e90aa	-0.13922372
188	0xbdb22d38	-0.08700031
189	0xbd6bc41c	-0.05756007
190	0xbca0ee89	-0.019644992
191	0x3d9c9ab5	0.076466955
192	0xbdbb00c7	-0.09131008
193	0xbd546880	-0.05185747
194	0x3e387719	0.18014182
195	0xbddf94c7	-0.10917049
196	0xbda85c7e	-0.082207665
197	0x3c6197ac	0.013769072
198	0xbbc37b69	-0.0059656394
199	0x3cb8f50f	0.02257779
200	0x3d880421	0.066414125
201	0xbdee0cf1	-0.11623562
202	0x3e771cf4	0.24132138
203	0x3db9b25f	0.09067225
204	0x3e629706	0.22127923
205	0xbe37e8fe	-0.17959973
206	0xbd1a884d	-0.037727643
207	0xbe4ccdbe	-0.2000036
208	0x3e0fe44a	0.14051929
209	0xbea09dea	-0.3137048
210	0x3e2a6dc7	0.16643439
211	0x3d453f53	0.048156094
212	0xbd59a02a	-0.05313126
213	0x3dfeadd5	0.124354996
214	0xbdb494d2	-0.08817448
215	0x3d323e49	0.04351643
216	0xbe1145b5	-0.14186747
217	0xbe34856d	-0.17629023
218	0x3cee2fbf	0.029075501
219	0xbe71b4fd	-0.23604198
220	0x3e295257	0.16535316
221	0xbc7e43bc	-0.015519079
222	0xbd35c4ff	-0.044377323
223	0x3dcac149	0.099001475
224	0xbdd53075	-0.10409633
225	0xbdcbdcc9	-0.09954221
226	0x3e144c05	0.14482124
227	0x3e59b22c	0.21259373
228	0x3d4cf2b3	0.050036144
229	0x3cfdde20	0.030989707
230	0xbe7f2ab3	-0.24918632
231	0xbb2e19de	-0.002656571
232	0xbe651e92	-0.22374943
233	0x3e8dc9a4	0.27692902
234	0x3dd1b33a	0.10239263
235	0x3df53d93	0.11974635
236	0x3d7ac8c2	0.061226614
237	0x3d7223ba	0.059116103
238	0xbc994ff0	-0.018714875
239	0x3c968e9d	0.01837855
240	0xbc304d56	-0.010760626
241	0xbd5c475c	-0.05377899
242	0xbd0b850c	-0.03406243
243	0xbe837731	-0.25676873
244	0x3d33655e	0.043797843
245	0xbd06d164	-0.032914534
246	0xbdbc0858	-0.09181279
247	0xbba601f9	-0.005066153
248	0xbe24c635	-0.16091235
249	0xbd7f4ed2	-0.06233103
250	0xbdec9f92	-0.11553873
251	0xbe19d5fc	-0.15023035
252	0x3db119b4	0.086474806
253	0xbe077be8	-0.1323086
254	0x3d4ae796	0.049537264
255	0x3e060a5a	0.13089886

conv1.conv.6.weight f4 [32, 32, 1, 1]
0	0x3e9eddea	0.31028682
1	0x3d0c2c5e	0.034222
2	0xbdd1fbd3	-0.1025311
3	0xbcaf81c1	-0.021424176
4	0xbde58b58	-0.11208218
5	0xbe6dff29	-0.23241867
6	0xbe93a95e	-0.28840154
7	0x3dd09e4b	0.10186442
8	0xbe087cdd	-0.13328882
9	0xbe9bf454	-0.30459845
10	0x3d885c91	0.06658281
11	0x3b094052	0.002094288
12	0x3e8c7ead	0.27440396
13	0x3dd7b077	0.10531705
14	0x3c5bd9c3	0.013418618
15	0xbdd281af	-0.102786414
16	0xbe402cc5	-0.18767078
17	0xbdf549a3	-0.11976936
18	0x3e0d4872	0.13797167
19	0x3d8ab968	0.06773645
20	0x3c486aba	0.012232477
21	0xbe239bad	-0.15977354
22	0x3def06d4	0.11671224
23	0xbd15144c	-0.03639631
24	0xbe895fbd	-0.26830855
25	0x3de8b175	0.11361972
26	0x3d843160	0.0645473
27	0xbe015277	-0.12629114
28	0x3db2238e	0.08698188
29	0x3d953b61	0.07286716
30	0xbe47b1d8	-0.19501436
31	0xbd80c738	-0.06287998
32	0x3e028caa	0.12748972
33	0x3dcd11ef	0.10013186
34	0x3d1181a1	0.035524014
35	0x3e8753ce	0.26431125
36	0x3e182976	0.14859566
37	0xbe4aa042	-0.19787696
38	0xbe3b684f	-0.1830151
39	0xbe794c98	-0.24345624
40	0x3d896566	0.06708793
41	0xbe1edacb	-0.1551315
42	0x3e82f8c3	0.25580415
43	0xbdc0a870	-0.09407127
44	0x3de19afc	0.11015889
45	0xbdc05ea4	-0.09393051
46	0xbd206ead	-0.03916805
47	0xbde54785	-0.11195282
48	0x3d8ad486	0.06778817
49	0x3e0ee288	0.13953602
50	0xbdcdc683	-0.10047629
51	0x3ea90870	0.3301425
52	0x3e15c9ec	0.14627808
53	0xbd48ae1e	-0.048994176
54	0x3e792a6c	0.24332589
55	0x3d3deeea	0.046370424
56	0xbdb702a0	-0.089360476
57	0x3e23f538	0.16011512
58	0xbd3d18a0	-0.046166062
59	0x3aa0f3f6	0.0012279737
60	0x3e456474	0.19276601
61	0x3dcc0b35	0.09963075
62	0x3d1aa15b	0.037751537
63	0x3e048116	0.12939867
64	0xbd84500b	-0.064605795
65	0xbe87b5c5	-0.26505867
66	0x3e05a20a	0.13050094
67	0xbd50d62b	-0.050985496
68	0x3e65337d	0.22382922
69	0x3ea6a7f9	0.32550028
70	0x3e2f50a3	0.17120604
71	0x3cfa93d4	0.030588068
72	0x3e2a4df6	0.16631302
73	0xbe3f0bfe	-0.18656918
74	0xbcd79c12	-0.026319537
75	0x3e594ae6	0.21219978
76	0xbe2f2373	-0.17103367
77	0x3e32ac48	0.17448533
78	0xbd033bd7	-0.03203949
79	0x3eb48a2c	0.35261667
80	0xbe66e233	-0.22547226
81	0xbce0a71d	-0.027423436
82	0x3dbeaf14	0.09310737
83	0xbcea5862	-0.028606597
84	0x3d6197c3	0.055076372
85	0xbe0a7b2a	-0.13523546
86	0x3dc46820	0.09590173
87	0xb9e3357d	-0.00043336666
88	0xbdda9964	-0.10673788
89	0x3df71a35	0.120655455
90	0xbe4c2d3a	-0.19939128
91	0x3d764692	0.060125895
92	0x3d01b59a	0.03166733
93	0xbce05ebc	-0.027388923
94	0x3e2bfb57	0.16795097
95	0x3db0821e	0.08618568
96	0x3d848ca8	0.064721406
97	0x3de74443	0.11292317
98	0x3d96c9e6	0.07362728
99	0x3c7152dc	0.014729228
100	0x3c14ffc1	0.00909418
101	0xbde141d2	-0.10998882
102	0xbc937414	-0.017999686
103	0xbe626a2a	-0.22110811
104	0xbdcc543e	-0.099770054
105	0x3e033234	0.1281212
106	0xbe7865e7	-0.24257623
107	0x3df0a8a3	0.11750915
108	0xbd829303	-0.063756965
109	0x3e4fe71c	0.20303005
110	0x3ec99f8a	0.3937953
111	0x3c208a60	0.009798616
112	0xbdb75140	-0.08951044
113	0x3dcb6a45	0.09932379
114	0xbb528e96	-0.0032128445
115	0xbcacf800	-0.02111435
116	0x3e807ca5	0.25095096
117	0x3dc019d8	0.09379929
118	0xbdc7eafc	-0.097616166
119	0x3da2b3ff	0.07944488
120	0xbd35a08a	-0.044342555
121	0x3db1b010	0.086761594
122	0x3dcbcf09	0.09951598
123	0xbe10d9fd	-0.14145656
124	0x3e5fa0e3	0.21838717
125	0x3d0bd149	0.034135137
126	0xbe2bec7c	-0.1678943
127	0xbb91efba	-0.0044536265
128	0x3db84813	0.08998122
129	0x3e234a6d	0.1594636
130	0xbe245f36	-0.16051945
131	0xbe03b30b	-0.12861268
132	0xbd5eff34	-0.0544426
133	0xbe7126ab	-0.23549907
134	0x3d30ae0a	0.043134727
135	0xbe861eb8	-0.26195312
136	0xbe27c4a2	-0.16383603
137	0x3e51a467	0.20472871
138	0xbda96d35	-0.08272783
139	0x3da14f48	0.0787645
140	0x3e375488	0.1790334
141	0x3d641f42	0.055693872
142	0x3d62fe82	0.0554185
143	0xbd911d70	-0.07085693
144	0x3d9a2605	0.07526783
145	0x3e877131	0.26453546
146	0x3e38886e	0.18020794
147	0xbe294738	-0.16531074
148	0xbdc958e9	-0.098314114
149	0xbde71b6a	-0.11284526
150	0x3e408fbb	0.18804829
151	0xbc0f7563	-0.0087560145
152	0xbc7596f3	-0.014989602
153	0xbc370a5d	-0.011171904
154	0xbc899674	-0.016795374
155	0x3ec29f3a	0.38012105
156	0x3d5a17c4	0.05324532
157	0x3e9de44c	0.3083824
158	0xbe20adb3	-0.15691261
159	0x3d959f12	0.07305731
160	0x3e01113a	0.12604228
161	0x3dd1f0bd	0.10250995
162	0xbd75cebb	-0.060011607
163	0xbda5f234	-0.08102837
164	0x3d97a99d	0.07405398
165	0xbda3d79e	-0.0800011
166	0xbd2eb692	-0.04265458
167	0xbe002ac4	-0.12516314
168	0xbd46f03c	-0.04856895
169	0xbba51f36	-0.005039121
170	0x3b8c1b93	0.004275748
171	0x3de1bff6	0.11022942
172	0x3e0159af	0.12631868
173	0xbdbfd306	-0.093664214
174	0x3dbc0efc	0.091825455
175	0x3e2e18bf	0.17001627
176	0x3e71e30b	0.23621766
177	0x3e74c1b6	0.2390202
178	0x3dad0395	0.08447949
179	0xbe32942d	-0.17439337
180	0xbd18ad8b	-0.03727488
181	0xbe187dd4	-0.1489175
182	0xbc8a3863	-0.01687259
183	0x3d0a69e6	0.0337924
184	0xbe378d49	-0.1792499
185	0xbe7d7d69	-0.24754871
186	0xbe010985	-0.12601288
187	0x3e4bb843	0.19894509
188	0x3b2ebfa0	0.002666451
189	0x3e8edc87	0.27902624
190	0xbe10d6bf	-0.14144419
191	0xbdbd4a7a	-0.09242721
192	0xbe3239e4	-0.17404896
193	0xbe304ff7	-0.17218004
194	0xbe7ce663	-0.2469726
195	0xbe025a7a	-0.12729827
196	0x3dc6917c	0.09695718
197	0x3e90213c	0.28150356
198	0x3d9239c7	0.071399264
199	0x3dbd789a	0.092515185
200	0x3d399484	0.04530765
201	0xbb6646ad	-0.003513734
202	0xbd1a8247	-0.0377219
203	0x3e10ae46	0.1412898
204	0xbd932fb8	-0.07186836
205	0xbe4543c0	-0.19264126
206	0xbbda486c	-0.0066614654
207	0x3e5ea11a	0.21741143
208	0xbde79909	-0.11308486
209	0xbe4ce5a7	-0.2000948
210	0xbd806af8	-0.06270403
211	0xbe2ee4d6	-0.17079481
212	0xbe0142d9	-0.12623157
213	0xbe2f9763	-0.17147593
214	0xbe650d94	-0.22368461
215	0xbe0275a6	-0.12740192
216	0xbce8a987	-0.02840115
217	0xbd130f90	-0.035903513
218	0x3d6d8702	0.05799008
219	0xbe168f98	-0.14703214
220	0xbd9f2081	-0.077698715
221	0xbe15738f	-0.14594863
222	0x3d2d064b	0.04224233
223	0xbdb94ef7	-0.090482645
224	0x3e884342	0.26613814
225	0x3e03b199	0.12860717
226	0x3e2fbbb1	0.17161442
227	0x3e043ea2	0.12914518
228	0xbe9240b9	-0.28565004
229	0x3e06df73	0.13171177
230	0x3d9eb339	0.07749028
231	0x3d96a51c	0.07355711
232	0x3d4d0e61	0.05006254
233	0x3df1f800	0.1181488
234	0xbd152c08	-0.036418945
235	0xbe88d0a6	-0.26721686
236	0x3e885f9d	0.26635447
237	0xbdd8b7cd	-0.10581932
238	0x3d84fdf6	0.06493752
239	0xbd7d025d	-0.061769832
240	0x3c7baea3	0.015361461
241	0xbd5042d9	-0.050845
242	0x3e21dc0b	0.15806596
243	0xbdb24c19	-0.08705921
244	0x3b2f1714	0.0026716636
245	0x3e48ecf5	0.19621642
246	0x3e625d6b	0.22105949
247	0x3d88d8c8	0.06681973
248	0x3dc770ed	0.09738336
249	0x3d74498f	0.059640463
250	0x3db3a26e	0.087712154
251	0xbd51acb6	-0.0511901
252	0xbcfef976	-0.031124812
253	0xbd885227	-0.06656294
254	0x3cf6acfe	0.030111786
255	0x3de704b0	0.11280191

conv2.conv.3.weight f4 [32, 32, 1, 1]
0	0xbd9294aa	-0.07157262
1	0x3d3e2d4c	0.046429917
2	0xbdbfa00d	-0.09356699
3	0xbe2f4385	-0.171156
4	0x3d32ac4e	0.043621354
5	0x3d9e6ec6	0.07735972
6	0x3e6aa2cf	0.22913669
7	0x3d4fc041	0.050720457
8	0x3c110f53	0.008853751
9	0xbda0da3d	-0.07854126
10	0x3e7b6670	0.24550796
11	0xbdd6c9c1	-0.104877
12	0x3cd945c8	0.026522532
13	0x3ddf8a64	0.10915068
14	0xbe1b2217	-0.15149723
15	0x3d39b011	0.045333926
16	0xbd5719c6	-0.052514814
17	0xbe1ffe73	-0.15624408
18	0xbe043382	-0.12910274
19	0xbe1c1a3a	-0.1524438
20	0x3e1463af	0.14491151
21	0xbe99c2ef	-0.30031535
22	0x3d82b678	0.063824594
23	0xbe366596	-0.1781219
24	0x3e06eff3	0.13177471
25	0xbd9d64ce	-0.076852426
26	0x3e32f1af	0.17475007
27	0x3d6800c5	0.05664136
28	0xbefda762	-0.49541765
29	0xbe59f614	-0.21285278
30	0xbed46862	-0.41485888
31	0xbc409e97	-0.011756561
32	0xbd7b9732	-0.061423488
33	0x3d4c4437	0.049869742
34	0x3e5d9be9	0.21641506
35	0xbe06f209	-0.13178267
36	0xbe481271	-0.19538285
37	0xbdea6c25	-0.11446408
38	0xbe063922	-0.13107732
39	0x3e216221	0.1576009
40	0x3e227772	0.15865877
41	0x3e05bb20	0.13059664
42	0xbd899d64	-0.06719473
43	0x3c054c64	0.008135889
44	0xbccf9a61	-0.025342168
45	0x3d92d382	0.07169248
46	0x3d620e58	0.05518946
47	0xbe57bae8	-0.21067393
48	0xbdadb238	-0.08481258
49	0x3d56426b	0.052309435
50	0x3e24f4e8	0.1610905
51	0x3e46e799	0.19424285
52	0xbea3ce8a	-0.31993514
53	0x3e426971	0.18985535
54	0xbd64b571	-0.0558371
55	0x3e3c8aac	0.18412274
56	0x3e77b12e	0.24188682
57	0x3ea161be	0.31519884
58	0xbda27781	-0.0793295
59	0x3e8103a1	0.2519808
60	0xbdb30bff	-0.087425224
61	0x3e926f8a	0.28600723
62	0xbcbafa0a	-0.022824306
63	0x3d20d88a	0.039269008
64	0x3cf58825	0.029972145
65	0x3d856658	0.06513661
66	0xbe3aaa2f	-0.18228982
67	0xbe7ac5e1	-0.24489547
68	0x3e849ad5	0.25899377
69	0xbd3d70ea	-0.04625026
70	0x3b8f92d5	0.0043815174
71	0x3db83fa3	0.08996513
72	0x3de9db00	0.11418724
73	0x3c0c554d	0.008565259
74	0x3e520af5	0.20511992
75	0xbebfce55	-0.37462106
76	0xbe7e04cd	-0.24806519
77	0x3e115d1b	0.14195673
78	0x3cf10f14	0.029426135
79	0x3e13e7f9	0.1444396
80	0x3d95fea7	0.07323962
81	0xbc8929bb	-0.016743531
82	0xbe9192a2	-0.28432184
83	0x3cde5e05	0.027144441
84	0xbd1d5bee	-0.03841775
85	0x3d108d34	0.03529091
86	0xbdd98ce7	-0.10622578
87	0xbda26eba	-0.07931276
88	0x3c92607b	0.017868271
89	0xbc80e313	-0.015733277
90	0x3d5b3b57	0.053523388
91	0x3d9178cd	0.07103119
92	0x3d923590	0.071391225
93	0x3e00165c	0.1250853
94	0xbe21ac50	-0.15788388
95	0xbe046607	-0.12929545
96	0xbe28196e	-0.1641595
97	0xbdf64ccf	-0.12026369
98	0xbe66c9a3	-0.22537856
99	0x3e40c0c0	0.18823528
100	0x3e9cd60f	0.30632064
101	0x3d5e6c21	0.05430234
102	0x3def6955	0.11690012
103	0xbe0a40b3	-0.13501243
104	0x3db497cb	0.08818015
105	0x3e1ecb8a	0.15507331
106	0xbd7731c9	-0.060350213
107	0xbdee059d	-0.116221644
108	0x3d3fd108	0.046830207
109	0xbdc80f93	-0.097685955
110	0x3da8ae95	0.08236424
111	0x3dcaacdd	0.09896252
112	0x3d005541	0.031331304
113	0x3e911fa7	0.2834446
114	0x3db715bd	0.08939693
115	0x3dc16dda	0.09444781
116	0x3dd2073a	0.102552846
117	0xbdfadec1	-0.12249518
118	0x3e0b6e52	0.13616303
119	0x3df1a66e	0.11799322
120	0x3df5f4f7	0.12009614
121	0xbde97c28	-0.11400634
122	0xbe374f3f	-0.17901324
123	0x3e5c1b21	0.21494724
124	0xbd1daeb3	-0.038496684
125	0xbd268025	-0.040649552
126	0xbd35e6c3	-0.044409525
127	0xbd6fb6dc	-0.058523998
128	0x3dc11b99	0.09429092
129	0xbd848d05	-0.0647221
130	0x3e01d298	0.12677991
131	0x3d56edf6	0.05247303
132	0xbe4b97d2	-0.19882134
133	0x3d640b62	0.055674918
134	0xbe60d0dd	-0.21954675
135	0xbe1847e7	-0.14871179
136	0xbe75f0e7	-0.24017678
137	0x3daf10e5	0.08548144
138	0xbc6896a9	-0.014196076
139	0x3bd95f28	0.006633658
140	0xbdbaaa75	-0.09114543
141	0xbda45fdb	-0.080260955
142	0xbe102a30	-0.14078593
143	0xbe1b2322	-0.15150121
144	0xbe5876ec	-0.21139115
145	0xbd4379ef	-0.047723707
146	0xbdf6ee6c	-0.12057194
147	0x3e7dab60	0.24772406
148	0x3e06f659	0.13179912
149	0x3e5a24b7	0.21303068
150	0x3dd6dfb2	0.10491885
151	0x3cd7e8f9	0.026356207
152	0x3e3c7dcf	0.18407367
153	0xbbedf6ad	-0.007262072
154	0xbdf42d5e	-0.119227156
155	0x3dbf3679	0.09336562
156	0x3e874373	0.26418647
157	0xbdbd883a	-0.09254499
158	0x3e290f24	0.16509682
159	0x3db7dea2	0.08978011
160	0x3e5725d8	0.2101053
161	0xbd7ec0f8	-0.062195748
162	0xbd54bb78	-0.051936597
163	0xbbf4527b	-0.0074561215
164	0xbddd410f	-0.108034246
165	0xbde5b29b	-0.11215707
166	0x3ca56168	0.020188048
167	0x3d925bee	0.071464404
168	0x3d0b675e	0.034034126
169	0xbd2dd4f9	-0.042439435
170	0xbe065688	-0.13118947
171	0x3c82c0ba	0.01596104
172	0x3cd9d67a	0.026591528
173	0xbbf84a17	-0.0075771916
174	0x3dbf1488	0.09330088
175	0xbd2e3e39	-0.04253981
176	0xbea4aed0	-0.3216462
177	0xbe0e4bde	-0.13896129
178	0xbd6949bc	-0.056955084
179	0x3e341db7	0.1758946
180	0xbe4fe461	-0.20301963
181	0xbe1d6dae	-0.1537387
182	0xbde01b8c	-0.10942754
183	0x3e66f2b4	0.22553521
184	0x3de390fa	0.111116365
185	0x3e092eaf	0.13396715
186	0xbab26155	-0.001360933
187	0xbc1eca9b	-0.00969186
188	0x3e6d3c87	0.2316762
189	0x3e263985	0.1623288
190	0x3e93a2e4	0.28835213
191	0xbd806eda	-0.06271143
192	0xbdf882f4	-0.12134352
193	0xbe9625ba	-0.29325658
194	0xbe6cc6ba	-0.23122683
195	0x3d4c738f	0.049914893
196	0x3e2508c5	0.16116627
197	0x3e73b6a9	0.23800148
198	0x3cc78679	0.024356114
199	0x3ddf1637	0.10892909
200	0xbe1a9310	-0.15095162
201	0xbeb61664	-0.35563958
202	0xbe61c853	-0.22049074
203	0x3ca78ff8	0.020454392
204	0x3b187d0b	0.002326789
205	0xbe62f4de	-0.22163722
206	0xbd33ff20	-0.043944478
207	0x3dfed8bd	0.12443683
208	0xbd2dfc8b	-0.042477172
209	0x3d3ce2c6	0.046114706
210	0xbea5842b	-0.323274
211	0x3e41e645	0.18935497
212	0x3e17505d	0.1477675
213	0x3c3658cc	0.011129569
214	0x3df0ac33	0.117515944
215	0xbd9748c6	-0.07386927
216	0xbc9744fd	-0.018465513
217	0xbe13dd4d	-0.14439888
218	0xbe36a535	-0.17836459
219	0x3e0e3a65	0.13889463
220	0x3d8550bd	0.0650954
221	0xbe19f7f3	-0.15035991
222	0x3d9d7103	0.07687571
223	0x3d155e70	0.036467016
224	0x3bc18193	0.005905339
225	0xbd2e29d6	-0.042520367
226	0x3e025536	0.12727818
227	0xbdf89ef3	-0.12139692
228	0x3d2b7e59	0.04186854
229	0xbe6afc97	-0.22947918
230	0xbe005667	-0.1253296
231	0xbc81ac32	-0.01582918
232	0x3d9f2a33	0.07771721
233	0xbc1c2366	-0.009529924
234	0x3d9050b1	0.07046641
235	0x3c26e77a	0.010187024
236	0x3d896b64	0.06709936
237	0x3e0f85a5	0.14015825
238	0x3e2dec36	0.16984639
239	0xbdf95715	-0.12174813
240	0xbe931c45	-0.28732505
241	0xbe134f15	-0.14385636
242	0xbcbc964f	-0.023020891
243	0x3c14157a	0.009038324
244	0xbeb58772	-0.354549
245	0xbd2257c5	-0.039634485
246	0xbd37bba1	-0.04485667
247	0xbcdb211f	-0.026749192
248	0x3eaa4b7b	0.33260712
249	0x3e863d4d	0.26218644
250	0x3e2e87ac	0.17043942
251	0xbe45112f	-0.19244836
252	0x3d8eea14	0.069782406
253	0xbd258060	-0.04040563
254	0x3e7e17eb	0.24813811
255	0x3df6f7b8	0.12058967

conv2.conv.6.weight f4 [32, 32, 1, 1]
0	0xbe3d6b20	-0.18497896
1	0x3d0edb18	0.034876913
2	0x3e3fce73	0.18731098
3	0x3c2da23a	0.01059776
4	0xbe17aa53	-0.14811067
5	0x3d01a8c5	0.03165509
6	0x3cd0ca5c	0.025487117
7	0xbdef8412	-0.11695112
8	0xbe8fb218	-0.28065562
9	0xbd00df1c	-0.031462774
10	0xbe743f08	-0.2385217
11	0x3d87902e	0.06619297
12	0xbc264bf3	-0.010149944
13	0x3e34fec8	0.17675316
14	0xbe98f3a1	-0.29873374
15	0xbca7fd0c	-0.020506404
16	0xbe3ed799	-0.18636931
17	0xbe4492f1	-0.19196679
18	0xbe228759	-0.15871944
19	0xbe57649a	-0.2103447
20	0x3d8f5c97	0.07000082
21	0xbe3d3e63	-0.1848083
22	0xbe260ce7	-0.1621586
23	0xbe056cce	-0.13029787
24	0xbd400e1e	-0.046888463
25	0x3e926900	0.28595734
26	0xbd1dab66	-0.038493536
27	0xbe3daab7	-0.18522154
28	0xbd039af3	-0.032130193
29	0xbe360d4c	-0.1777851
30	0xba7bf647	-0.00096115883
31	0x3e71a127	0.23596631
32	0x3cadcf5b	0.021217039
33	0x3dd0f0c1	0.1020217
34	0x3cba0b10	0.022710353
35	0xbe5f2f11	-0.21795298
36	0x3df93857	0.12168949
37	0x3d2b5a14	0.041833952
38	0x3e21d4b3	0.15803795
39	0x3cbaa452	0.022783432
40	0x3c4ff3b1	0.012692378
41	0xbcf71c2a	-0.030164797
42	0xbd1b5a8b	-0.037928145
43	0x3e495220	0.19660234
44	0x3d6feb03	0.058573734
45	0x3c7960de	0.015220849
46	0x3ddac752	0.106825486
47	0xbe01de4b	-0.12682454
48	0x3d9d47eb	0.07679733
49	0xbe453a1a	-0.19260445
50	0xbd971d38	-0.0737862
51	0xbd292e6c	-0.041304037
52	0x3e12869c	0.14309162
53	0xbe8fa5f0	-0.28056288
54	0x3e74123d	0.23835082
55	0xbe25c8ab	-0.1618983
56	0x3e6f4a12	0.233681
57	0x3e5dbd93	0.21654348
58	0x3d5e6d1d	0.054303277
59	0x3d707661	0.058706645
60	0xbd7681ef	-0.060182508
61	0xbeb14f62	-0.34630877
62	0x3e101a3b	0.14072506
63	0x3e05e500	0.13075638
64	0xbdaebb1e	-0.085317835
65	0x3d1cf893	0.038322996
66	0x3d43c519	0.04779539
67	0xbdd05841	-0.10173083
68	0x3d601db9	0.054715846
69	0x3e2b733d	0.16743179
70	0x3e70bdfc	0.23509973
71	0x3e847ae5	0.2587501
72	0x3de03969	0.1094845
73	0xbd44b106	-0.048020385
74	0xbd8a4b10	-0.06752598
75	0xbe82b7f6	-0.25530976
76	0xbee36880	-0.44415665
77	0x3e212700	0.15737534
78	0x3dc4b9f9	0.09605784
79	0xbdecf4ff	-0.11570167
80	0x3e3dfbbd	0.18553062
81	0xbda00882	-0.07814123
82	0xbda686e5	-0.08131198
83	0xbd0fc147	-0.035096433
84	0xbdb13274	-0.08652201
85	0xbd876bc5	-0.06612352
86	0x3daa4e90	0.08315766
87	0xbe577173	-0.21039371
88	0x3df73a2b	0.120716415
89	0xbd214c14	-0.039379194
90	0xbe564e4e	-0.20928308
91	0x3d046522	0.03232301
92	0xbdd590c0	-0.104279995
93	0x3dde1a66	0.10844879
94	0x3e1f9bc6	0.15586767
95	0x3c34ba58	0.011030756
96	0xbb4c9d13	-0.0031221553
97	0x3e6a11c7	0.22858344
98	0xbd91cd22	-0.07119204
99	0x3e0da36c	0.13831872
100	0x3ea2943c	0.3175372
101	0xbd785ef9	-0.060637448
102	0xbe1ffaa9	-0.15622963
103	0xbcd92417	-0.026506467
104	0x3e871843	0.26385698
105	0x3e504118	0.20337331
106	0xbe8f6f56	-0.2801463
107	0x3e08a207	0.13343059
108	0xbe48fb39	-0.19627084
109	0xbc237cdc	-0.009978499
110	0xbd9638c6	-0.073350474
111	0xbddf2c30	-0.108971
112	0x3d6b6e4b	0.05747823
113	0x3db7dfcf	0.08978235
114	0x3e0c101f	0.13678025
115	0x3e63a7cf	0.22231983
116	0x3d0fa846	0.035072587
117	0xbd8cb5b4	-0.068705946
118	0xbd8ef4e1	-0.06980301
119	0x3cbb87dd	0.022891933
120	0x3dda53a1	0.10660482
121	0xbddf8e57	-0.10915821
122	0xbd401ada	-0.046900608
123	0xbcf56c41	-0.029958846
124	0xbe90fda1	-0.28318503
125	0x3d35e50d	0.044407893
126	0x3e50b1e3	0.20380358
127	0x3d6614ca	0.05617217
128	0xbe238505	-0.15968712
129	0xbe0b1017	-0.13580357
130	0xbe5c2fd5	-0.21502621
131	0x3e2a14cc	0.16609496
132	0x3e174166	0.14771041
133	0x3e138acb	0.14408414
134	0x3cbdf8fe	0.023190018
135	0xbba8fdd0	-0.00515721
136	0x3e837660	0.2567625
137	0x3dc35528	0.09537727
138	0x3eabd74a	0.3356269
139	0x3ea61285	0.32436004
140	0xbaf2a8d2	-0.0018513447
141	0xbd135ffe	-0.035980217
142	0xbd1bff62	-0.03808535
143	0x3d75d22c	0.06001489
144	0xbb39a57b	-0.0028327394
145	0x3e14f72d	0.14547415
146	0xbe07520b	-0.1321489
147	0xbe14b8e2	-0.14523652
148	0x3d9f51e2	0.0777929
149	0x3e766d37	0.240651
150	0xbe15e3f1	-0.14637734
151	0x3e09c556	0.13454184
152	0x3db5a4d4	0.08869329
153	0xbd3eea14	-0.046609953
154	0xbdfc6fc8	-0.12326008
155	0xbe203179	-0.15643872
156	0xbe0d7569	-0.1381432
157	0xbe0c6914	-0.13711959
158	0x3e04782d	0.12936468
159	0xbd4dea77	-0.05027243
160	0xbe2959e4	-0.16538197
161	0x3e1c01cf	0.15235065
162	0xbdffabfb	-0.124839745
163	0xbe2e6c71	-0.17033555
164	0x3c935751	0.017985972
165	0x3e2170d5	0.15765698
166	0xbd57a6ec	-0.052649423
167	0xbc594884	-0.013261918
168	0x3dd2f3e5	0.103004254
169	0xbcdf2fee	-0.027244534
170	0x3d867867	0.06565934
171	0x3d8e9712	0.06962408
172	0xbde7ceff	-0.11318778
173	0x3db08708	0.08619505
174	0x3e1598b6	0.14609036
175	0xbe2e4002	-0.17016605
176	0x3e9af1b0	0.30262518
177	0xbd4ad8c8	-0.049523145
178	0x3e07ae45	0.13250072
179	0x3e611593	0.21980886
180	0xbde4f01a	-0.11178608
181	0x3bb147c5	0.005410167
182	0x3e2f289b	0.17105334
183	0x3ddc547b	0.10758301
184	0x3d60e696	0.054907404
185	0xbe666b63	-0.22501902
186	0xbe03a7c3	-0.12856965
187	0x3d60652a	0.054783978
188	0x3d971b5f	0.073782675
189	0xbe886bca	-0.26644737
190	0x3e30975b	0.17245238
191	0xbe56535f	-0.20930241
192	0xbe24893d	-0.16067977
193	0xbe907fa4	-0.28222382
194	0xbe9abaa0	-0.3022051
195	0xbd8d971d	-0.06913588
196	0x3ce666ce	0.028125193
197	0xbe5c1a2f	-0.21494363
198	0x3e382385	0.179823
199	0xbd256c2f	-0.040386375
200	0x3c4da3ed	0.01255129
201	0x3b0e1abe	0.002168342
202	0x3de36d51	0.11104835
203	0xbdea59a1	-0.114428766
204	0x3ae706e3	0.0017625954
205	0xbe26deda	-0.16295949
206	0xbc1f7cc6	-0.009734338
207	0x3c8be634	0.017077543
208	0xbd121468	-0.035663992
209	0xbc7ee361	-0.015557141
210	0xbe487777	-0.19576822
211	0xbdda2f5f	-0.106535666
212	0xbdce707c	-0.100800484
213	0x3e2a6806	0.16641244
214	0xbeb4d45f	-0.35318276
215	0xbe5a5965	-0.21323164
216	0xbe078bf4	-0.13236982
217	0xbbe562ca	-0.007000302
218	0x3cc9b139	0.02462064
219	0x3ba18d49	0.0049301726
220	0xbe21eb44	-0.15812403
221	0x3c5a9d83	0.013343218
222	0xbdb53659	-0.088482566
223	0xbe98f31e	-0.29872984
224	0x3a43044e	0.0007439301
225	0xbe0d09e5	-0.13773306
226	0xbc9b686f	-0.018970696
227	0xbe6d88bf	-0.23196696
228	0x3d5aa4da	0.05337987
229	0x3e38438c	0.17994517
230	0xbd13668b	-0.035986464
231	0xbdaec130	-0.08532941
232	0xbd089638	-0.033346385
233	0xbdafe26d	-0.08588109
234	0x3e18941e	0.14900252
235	0x3e466213	0.1937335
236	0x3e1e0d94	0.15434867
237	0x3e2c019f	0.16797493
238	0xbbe2bf58	-0.0069197826
239	0x3d28a4f8	0.04117295
240	0x3e29fb04	0.16599661
241	0x3d1d4907	0.038399722
242	0xbd11e2e9	-0.03561679
243	0x3bb1c6b5	0.005425299
244	0x3e0df08e	0.13861296
245	0xbc3367ff	-0.010950088
246	0x3d277b25	0.040888924
247	0xbe07da2c	-0.1326682
248	0x3e694eef	0.22784017
249	0xbe94bdbf	-0.29051015
250	0xbe896442	-0.26834303
251	0xbe74e4a9	-0.23915352
252	0xbd3dae04	-0.046308532
253	0xbe11fdce	-0.14256975
254	0x3e22bd2e	0.15892479
255	0x3dda2043	0.10650685

conv3.conv.3.weight f4 [64, 64, 1, 1]
0	0x3b8c2179	0.004276451
1	0xbd9739c9	-0.073840685
2	0x3e1669ae	0.14688751
3	0xbe41139a	-0.18855134
4	0x3e390938	0.18069923
5	0x3d38095d	0.044930805
6	0xbdc8ea47	-0.0981031
7	0xbde4fbd6	-0.111808464
8	0xbd8365e2	-0.06415917
9	0x3c885d17	0.016645951
10	0xbcb5d2a4	-0.022195168
11	0xbc4ccd5e	-0.012500135
12	0xbe16b354	-0.14716846
13	0x3da1047b	0.07862183
14	0xbe30ca55	-0.17264684
15	0x3d501afe	0.05080699
16	0xbd257e26	-0.040403508
17	0x3e3aca9c	0.18241352
18	0xbe14cd41	-0.14531423
19	0x3dcc54ce	0.09977113
20	0xbd8427f4	-0.06452933
21	0x3daccda9	0.08437664
22	0xbd8e1968	-0.069384396
23	0xbe8d9389	-0.27651623
24	0xbcbe30da	-0.023216654
25	0xbaa3fc0e	-0.0012511031
26	0xbce92869	-0.028461652
27	0x3ce0cebb	0.027442327
28	0xbde540a9	-0.111939736
29	0x3d2caafa	0.042155243
30	0xbd97e207	-0.07416158
31	0xbe4e3000	-0.20135498
32	0x3e5c7ebc	0.2153272
33	0x3e6f32b9	0.23359193
34	0xbe0e6bd5	-0.13908322
35	0x3c8a796a	0.016903598
36	0xbd371720	-0.044699788
37	0x3d03de60	0.032194495
38	0xbdec5e22	-0.11541392
39	0xbe0c5a23	-0.1370626
40	0xbd84032f	-0.0644592
41	0xbe631dc7	-0.22179328
42	0xbd554dba	-0.05207608
43	0x3d5856d2	0.052817173
44	0x3d94766d	0.072491504
45	0xbe72c719	-0.23708762
46	0x3dcf0c85	0.1010981
47	0xbd671d03	-0.056424152
48	0xbe0bab35	-0.13639529
49	0xbe1d644d	-0.15370293
50	0xbcbeae95	-0.023276607
51	0x3e3369bb	0.17520802
52	0xbd507d85	-0.050900955
53	0xbe03469d	-0.12819906
54	0xbe84a5de	-0.25907797
55	0x3d660122	0.056153424
56	0xbd46eca9	-0.04856554
57	0xbde5bc19	-0.112175174
58	0x3b433c76	0.0029790676
59	0x3d618f21	0.05506814
60	0xbd669312	-0.0562926
61	0x3d1d7ed6	0.03845104
62	0xbd2f5f1f	-0.042815324
63	0xbcc2e5e7	-0.023791267
64	0x3d9e532b	0.07730707
65	0xbcaefa28	-0.021359518
66	0xbdc4c4fb	-0.096078835
67	0xbe57d531	-0.2107742
68	0xbd989310	-0.07449925
69	0x3d9561b8	0.07294029
70	0xbdd589a5	-0.10426644
71	0xbce4049c	-0.02783423
72	0x3e131dfa	0.14366904
73	0xbe88a810	-0.26690722
74	0xbc8a8575	-0.01690934
75	0x3d74aeef	0.059737142
76	0x3dc81fb6	0.097716734
77	0x3e0814af	0.1328914
78	0xbddcb123	-0.10775974
79	0xbde4b0a2	-0.111665025
80	0xbd5a0fdd	-0.053237785
81	0x3d327ff5	0.04357906
82	0x3b354768	0.002766097
83	0x3d04e24d	0.03244238
84	0x3d352b0d	0.04423051
85	0xbe076715	-0.13222916
86	0x3d3e3af2	0.046442933
87	0xbe482bdb	-0.1954798
88	0xbd794c5b	-0.060863834
89	0x3e15062b	0.14553134
90	0xbcbf2491	-0.023332866
91	0xbd2ac01c	-0.041687116
92	0x3e6c3f9b	0.23071139
93	0x3d1941e4	0.037416354
94	0xbe8d53a7	-0.27602884
95	0xbe5d7664	-0.21627194
96	0xbc46c458	-0.012131773
97	0x3dfa3b42	0.12218334
98	0xbe1d34d0	-0.15352178
99	0xbe4a53f6	-0.19758591
100	0xbd521e93	-0.05129869
101	0xbe266cd6	-0.16252455
102	0x3e44e034	0.19226152
103	0xbd1caf78	-0.038253278
104	0x3e04a4c3	0.12953477
105	0x3dd004b5	0.10157148
106	0x3d2621cb	0.04055957
107	0xbd24c79e	-0.040229432
108	0xbd259278	-0.040422887
109	0xbc681bcf	-0.014166786
110	0x3da4d3b6	0.08048193
111	0x3e530883	0.20608716
112	0x3d108dad	0.035291363
113	0x3d8c77fa	0.06858821
114	0xbc537591	-0.012906448
115	0xbde7b3d6	-0.11313598
116	0xbe37274e	-0.17886087
117	0x3ce626f7	0.028094752
118	0xbe4676b1	-0.19381215
119	0x3d85353a	0.06504293
120	0xbdbbe84d	-0.09175167
121	0xbde85f82	-0.11346342
122	0x3da3652c	0.079782814
123	0x3e269070	0.16266036
124	0xbcb85a23	-0.022503918
125	0x3da78eb0	0.08181512
126	0x3d251c85	0.0403104
127	0xbe218729	-0.15774216
128	0x3da879a3	0.08226325
129	0x3d8d419e	0.06897281
130	0xbdae1df6	-0.08501808
131	0xbd29e77c	-0.041480526
132	0x3cfff79b	0.031245997
133	0x3de28d5b	0.11062118
134	0xbe3d9bbc	-0.18516439
135	0x3d863c4b	0.06554469
136	0x3dd3c283	0.103398345
137	0x3d68d6aa	0.056845345
138	0x3db28cfa	0.087182954
139	0xbc40a6c7	-0.011758513
140	0xbdac1053	-0.08401551
141	0xbda5378a	-0.08067234
142	0xbdb88038	-0.09008831
143	0x3dbe28a9	0.09285099
144	0xbe30fe23	-0.17284445
145	0x3c892ec3	0.01674593
146	0xbceb05b8	-0.02868925
147	0x3d03eb1f	0.03220665
148	0xbd024a8f	-0.031809386
149	0xbd46e4e6	-0.04855814
150	0x3d9f82cb	0.07788619
151	0xbe8d2704	-0.2756883
152	0x3cbdf27d	0.023186916
153	0xbd5d81fa	-0.054079033
154	0xbd6f8242	-0.058473833
155	0xbdb29c12	-0.08721174
156	0xbe4422ca	-0.19153896
157	0xbb454b49	-0.0030104688
158	0x3e0236c4	0.12716204
159	0xbd09cd25	-0.033642907
160	0x3d8cf525	0.06882695
161	0x3e92a1bd	0.28639022
162	0x3d085078	0.033279866
163	0xbd31a0ae	-0.043366127
164	0xbca6903d	-0.02033245
165	0x3c535f78	0.0129011795
166	0xbd9a2f80	-0.07528591
167	0x3d1c331f	0.03813469
168	0xbe06b0eb	-0.13153426
169	0xbe37f6a7	-0.17965184
170	0x3e909f79	0.28246668
171	0x3c74e63c	0.01494747
172	0x3e0cf13d	0.137639
173	0xbe5829a5	-0.21109636
174	0x3e53c5c5	0.20680912
175	0xbe68e6c2	-0.22744277
176	0xbe71bd36	-0.23607334
177	0xbd2c8dd9	-0.042127464
178	0xbd36eea3	-0.044661175
179	0x3db1c454	0.08680025
180	0xbdf72a8f	-0.12068664
181	0x3bed06c3	0.007233472
182	0xbd143bbf	-0.03618979
183	0x3cb74be8	0.022375062
184	0xbde8b6fd	-0.11363027
185	0xbe4aa354	-0.19788867
186	0xbe9e070d	-0.30864754
187	0x3becd149	0.007227097
188	0x3e03ab6a	0.12858358
189	0x3d749a42	0.059717424
190	0xbe62615d	-0.22107454
191	0xbc7fa222	-0.01560262
192	0x3c7668a2	0.015039595
193	0x3cfd7d64	0.03094358
194	0x3cbac392	0.022798333
195	0xbe3742b5	-0.1789654
196	0xbd22e837	-0.03977224
197	0x3d8d0821	0.06886316
198	0xbe63acb5	-0.22233851
199	0x3d9039a9	0.07042248
200	0x3da9d770	0.082930446
201	0x3d34330b	0.04399399
202	0x3e42cc9d	0.19023366
203	0xbdd33c79	-0.103142686
204	0x3dadae2b	0.084804855
205	0xbd369ed5	-0.044585068
206	0xbe185d0f	-0.14879249
207	0x3b17c59d	0.0023158558
208	0xbc841898	-0.016125008
209	0xbbba5a04	-0.005687
210	0xbd7debee	-0.06199258
211	0x3df9ebed	0.122032024
212	0x3d725407	0.059162166
213	0xbcb25842	-0.0217706
214	0xbe102500	-0.14076614
215	0xbe19dee5	-0.15026434
216	0x3db27960	0.08714557
217	0xbdc83380	-0.09775448
218	0xbe6dfdf5	-0.23241408
219	0x3d81787a	0.06321807
220	0xbe03d88d	-0.12875576
221	0x3e267279	0.16254605
222	0xbe814108	-0.25244927
223	0xbdcefe81	-0.101071365
224	0xbd145459	-0.036213253
225	0x3e1058bc	0.1409635
226	0x3e06bf29	0.1315886
227	0xbbd9cfef	-0.006647102
228	0x3d352137	0.04422113
229	0x3cd79970	0.026318282
230	0xbd02a4be	-0.03189539
231	0xbdd46ec7	-0.103726916
232	0x3e13a991	0.14420153
233	0xbdf8ef94	-0.12155071
234	0xbd981791	-0.0742637
235	0xbd178bdd	-0.03699862
236	0x3d9619c3	0.073291324
237	0x3ddb2abd	0.10701511
238	0xbc1228f8	-0.0089209005
239	0x3cc4ecb0	0.024038643
240	0xbe3ae677	-0.18251978
241	0xbe8f1aea	-0.2795022
242	0xbdd7304b	-0.10507258
243	0x3e0c0730	0.13674617
244	0x3de6c1f1	0.1126746
245	0x3d7fac22	0.062420018
246	0x3d8dab13	0.069173954
247	0x3e27ee10	0.16399407
248	0x3d68e20d	0.056856204
249	0xbd8f666e	-0.07001959
250	0x3dd112d9	0.10208673
251	0x3d74d22e	0.059770755
252	0xbdf3b24a	-0.1189924
253	0x3dcdcd68	0.10048944
254	0xbdd197f8	-0.10234064
255	0xbe05c1aa	-0.13062158

conv3.conv.6.weight f4 [64, 64, 1, 1]
0	0x3dc5864a	0.09644754
1	0xbe6daaed	-0.23209734
2	0x3dee9f3f	0.116514675
3	0x3e0e7bfd	0.13914485
4	0xbc9cb44e	-0.019128945
5	0xbdda2c23	-0.1065295
6	0xbe3241f5	-0.17407973
7	0x3e4206b5	0.18947871
8	0x3d6bccd4	0.057568386
9	0xbdabf640	-0.08396578
10	0x3a80307a	0.0009780072
11	0x3d8ce11b	0.06878873
12	0x3d52abfb	0.051433545
13	0xbd03bcc0	-0.032162428
14	0xbdaf5e20	-0.08562875
15	0xbc1f6740	-0.009729207
16	0x3dc258e7	0.09489613
17	0x3e2b5d8d	0.16734906
18	0xbe75e9f8	-0.24015033
19	0x3e33d74f	0.17562602
20	0x3d4b0837	0.04956838
21	0xbdeb50b3	-0.114900015
22	0xbe3af81e	-0.18258712
23	0x3d91ce62	0.071194425
24	0xbe8a3a06	-0.26997393
25	0xbe7348be	-0.23758218
26	0x3da25746	0.07926802
27	0x3ea00350	0.31252527
28	0xbde54c1e	-0.11196159
29	0x3d8b4f8f	0.06802284
30	0xbd075cd3	-0.03304751
31	0xbd317662	-0.04332579
32	0x3d1cabd1	0.038249794
33	0xbe9094bf	-0.28238484
34	0xbdb578ee	-0.08860956
35	0xbd1556ad	-0.036459614
36	0x3daa61de	0.08319448
37	0x3d731f1e	0.059355848
38	0xbcf8964b	-0.030345103
39	0x3e2e506b	0.17022865
40	0xbd9ded00	-0.0771122
41	0xbe7de1ad	-0.2479312
42	0xbdfacb2b	-0.122457825
43	0xbd022d2a	-0.031781353
44	0x3d91003e	0.07080124
45	0x3eb11925	0.34589496
46	0x3e340353	0.17579393
47	0xbd799764	-0.060935393
48	0xbd9ab121	-0.07553316
49	0x3e4e9ac7	0.2017623
50	0x3c4d1905	0.012518172
51	0x3c5f3178	0.013622634
52	0xbc482dec	-0.01221798
53	0x3dbd1875	0.092331804
54	0x3d841cdb	0.06450816
55	0xb9d14f6d	-0.00039922763
56	0xbe479ad4	-0.19492656
57	0xbe503e5b	-0.20336287
58	0x3e8cf4f2	0.27530628
59	0xbc00affa	-0.007854456
60	0xbe3e7d98	-0.18602598
61	0x3dcc4ef0	0.09975994
62	0xbc205b4b	-0.009787391
63	0xbe9f69fe	-0.31135553
64	0xbd1f7304	-0.038928047
65	0x3e76ea59	0.24112834
66	0xbdfdaee1	-0.12386871
67	0xbdd181de	-0.10229848
68	0x3e42084e	0.1894848
69	0x39970859	0.00028807184
70	0xbc40613e	-0.011741934
71	0xbd9d013b	-0.0766625
72	0x3e6b79b3	0.22995643
73	0xbe51da93	-0.20493536
74	0xbceed364	-0.029153533
75	0x3cb7d9bc	0.022442691
76	0xbd9ed8b5	-0.07756177
77	0x3dbad8be	0.091233715
78	0x3e120a75	0.14261802
79	0x3e1f79eb	0.15573852
80	0x3d9c26e8	0.07624608
81	0xbe038fb4	-0.12847787
82	0x3d7c53a3	0.0616032
83	0xbe0c7535	-0.13716586
84	0x3de0fe92	0.109860554
85	0x3dab501f	0.08364891
86	0xbd3358f6	-0.04378601
87	0xbdd0fd8e	-0.10204612
88	0x3dece754	0.1156756
89	0x3dc1c38f	0.09461128
90	0xbd8c6f64	-0.068571836
91	0xbc0bb699	-0.008527421
92	0x3e068067	0.13134919
93	0xbd2409a5	-0.04004826
94	0xbda3fe32	-0.08007468
95	0x3e953306	0.2914049
96	0xbdc7b429	-0.0975116
97	0x3e82c00b	0.25537142
98	0xbe97ce0e	-0.29649395
99	0xbd84ab79	-0.06478018
100	0xbcf055d7	-0.029337807
101	0xbe8925b0	-0.26786566
102	0x3d67f591	0.056630675
103	0x3e00c8d2	0.12576607
104	0xbd52e06f	-0.051483568
105	0x3e64fb16	0.22361407
106	0x3d315f5a	0.043303825
107	0x3e2b9aeb	0.16758315
108	0xbb3cb177	-0.00287923
109	0xbe0a7f30	-0.1352508
110	0xbe2f5f16	-0.17126116
111	0xbd2398a4	-0.03994049
112	0x3b80d934	0.0039321426
113	0x3ce40858	0.02783601
114	0xbde4a463	-0.11164167
115	0xbe009b1a	-0.12559167
116	0x3dbf3689	0.09336574
117	0xbd15c0ae	-0.036560707
118	0xbc977bd9	-0.018491672
119	0x3e26157e	0.16219136
120	0x3b38ba87	0.002818735
121	0xbd57996c	-0.05263655
122	0x3d596ca5	0.053082127
123	0xbc9a6dec	-0.018851243
124	0x3e5903dd	0.2119288
125	0xbd9b69d1	-0.07588542
126	0xbe9eee64	-0.31041253
127	0x3e257281	0.16156961
128	0xbd4b8719	-0.049689386
129	0x3da9bb26	0.08287649
130	0x3d32caa7	0.043650296
131	0x3cb05e40	0.021529317
132	0xbdb79737	-0.08964389
133	0x3e1d9a08	0.1539079
134	0xbd7ce91d	-0.06174575
135	0xbd76c9a9	-0.06025091
136	0x3e8ff946	0.28119868
137	0xbc0e1721	-0.008672507
138	0x3db2e4d2	0.0873505
139	0x3e0e7246	0.1391078
140	0x3dcc926e	0.09988867
141	0x3e40b257	0.18818031
142	0xbe304214	-0.17212707
143	0x3d1d9a65	0.03847732
144	0xbcbb5520	-0.02286774
145	0x3d38f1cc	0.04515247
146	0xbd3bc344	-0.045840517
147	0x3d6b2582	0.057408817
148	0x3ca25758	0.01981704
149	0xbdf52b34	-0.11971131
150	0xbe0e0991	-0.13870837
151	0x3e5b4e7c	0.21416658
152	0xbd914da9	-0.070948906
153	0xbe0fa80c	-0.14028949
154	0x3de30f15	0.11086861
155	0xbd1c2828	-0.038124233
156	0x3ce99d71	0.028517457
157	0x3d895d01	0.06707192
158	0x3e258966	0.16165695
159	0xbd94daee	-0.0726832
160	0x3d9aae30	0.07552755
161	0xbccef9da	-0.025265623
162	0x3db5455a	0.088511184
163	0xbd52dea1	-0.051481847
164	0xbcfe9fbe	-0.03108203
165	0xbcccd2f8	-0.025002941
166	0x3d2ce8cd	0.042214204
167	0xbe079444	-0.13240153
168	0xbe2a1c86	-0.16612443
169	0x3d8186f5	0.06324569
170	0xbbcc53aa	-0.0062355595
171	0x3c2cbd8f	0.010543241
172	0x3e05a97f	0.13052939
173	0xbdb4d6ca	-0.0883003
174	0x3cb2f2e2	0.021844331
175	0x3cb18bd7	0.021673126
176	0xbe3c9c09	-0.18418898
177	0x3df8b6ac	0.12144217
178	0xbda69f2d	-0.08135829
179	0x3e5643bf	0.2092428
180	0x3c8b7063	0.017021364
181	0x3dfc4db1	0.12319506
182	0xbdfdd79c	-0.1239464
183	0xbe68399f	-0.2267823
184	0xbd72bccb	-0.05926208
185	0xbc1035a9	-0.008801856
186	0xbe0209b9	-0.12699021
187	0xbe056bae	-0.13029358
188	0xbe781982	-0.2422848
189	0xbd8ac8ee	-0.067766055
190	0x3dd145a3	0.1021836
191	0x3dec7035	0.11544839
192	0x3cd2d8fd	0.025738234
193	0x3e082d7b	0.132986
194	0x3e84052b	0.25785193
195	0xbcbcf227	-0.023064686
196	0xbe6534b0	-0.2238338
197	0x3c894be1	0.016759815
198	0xbb2dc9d4	-0.0026518004
199	0x3e1f1aa6	0.1553751
200	0xbabcba4d	-0.0014398784
201	0xbe262910	-0.16226602
202	0x3dbfd223	0.09366252
203	0x3e8479e3	0.25874242
204	0x3d110736	0.035407268
205	0x3deeb63e	0.11655854
206	0x3d5c9aa6	0.05385842
207	0x3cee55de	0.029093679
208	0xbcbcda9a	-0.023053456
209	0x3d2275e5	0.039663214
210	0xbdaff535	-0.085916914
211	0x3e59b5d0	0.21260762
212	0xbdb251a1	-0.08706976
213	0xbc1df246	-0.009640282
214	0xbdb80089	-0.08984477
215	0x3de7cc43	0.11318257
216	0x3d03e54b	0.032201093
217	0xbcdcb387	-0.026941074
218	0x3d8b8917	0.06813257
219	0x3d9eefe5	0.077606
220	0x3d1e91cb	0.038713258
221	0x3de09aaf	0.109670036
222	0xbe01c7ab	-0.12673824
223	0xbe45cf27	-0.19317304
224	0xbd6a8370	-0.057254255
225	0xbe5959a3	-0.212256
226	0xbc60fc5c	-0.013732042
227	0x3e3dd354	0.18537647
228	0xbdae51c0	-0.08511686
229	0x3e00dad1	0.12583472
230	0xbe29b0d5	-0.16571362
231	0xbe29798b	-0.16550271
232	0xbdd68805	-0.104751624
233	0x3caf1386	0.021371614
234	0xbe8582ea	-0.26076442
235	0xbd919c24	-0.071098596
236	0xbdb3b527	-0.087747864
237	0xbded4ce9	-0.11586935
238	0x3d04c991	0.03241879
239	0x3c99295a	0.018696476
240	0xbe7686ed	-0.24074908
241	0x3e28e335	0.16492923
242	0xbde546e6	-0.111951634
243	0x3d193c47	0.037411
244	0xbdec07be	-0.11524914
245	0x3c918212	0.017762218
246	0x3e0ecb11	0.13944651
247	0xbc079403	-0.008275035
248	0xbe037959	-0.12839259
249	0x3dc4cec3	0.09609749
250	0x3da69098	0.08133048
251	0xbdb9a263	-0.09064176
252	0xbe68be66	-0.22728881
253	0x3da4cad6	0.080465004
254	0x3d290699	0.041266058
255	0x3e0998fa	0.13437262

conv4.0.weight f4 [64, 64, 1]
0	0x3ddacb16	0.10683267
1	0xbe7a2499	-0.24428023
2	0x3e0916fc	0.13387674
3	0x3e898957	0.26862594
4	0xbcc1893d	-0.02362501
5	0x3e6d6f35	0.23186953
6	0x3db29afc	0.08720967
7	0x3d0e9146	0.034806512
8	0xbcf03325	-0.029321263
9	0xbd08d1aa	-0.033403076
10	0x3b2a0a9e	0.002594627
11	0xbe31518d	-0.17316265
12	0xbdb9e369	-0.09076578
13	0xbe06270f	-0.13100837
14	0xbd07cb10	-0.03315264
15	0xbe96571d	-0.29363337
16	0x3e24000d	0.16015644
17	0x3cd5d7db	0.026103904
18	0xbd98965b	-0.07450553
19	0xbdab89b3	-0.083758734
20	0xbde20779	-0.110365815
21	0x3af6362b	0.0018784454
22	0xbe248858	-0.16067636
23	0x3e39d59e	0.18147895
24	0x3dc97705	0.09837154
25	0x3e2dd1e8	0.16974604
26	0x3d84f61b	0.064922534
27	0xbe244174	-0.16040593
28	0x3da50f47	0.080595545
29	0x3bfb95a5	0.007677751
30	0xbe2a8a2e	-0.16654274
31	0x3e96a596	0.29423207
32	0xbe7d9cb9	-0.24766816
33	0xbcaa5638	-0.020793065
34	0xbdd0f054	-0.10202089
35	0xbc3e8074	-0.011627305
36	0x3cbd55ad	0.023112142
37	0xbc1bbf00	-0.009505987
38	0xbda17f2e	-0.07885586
39	0xbd361df4	-0.04446216
40	0x3dff90c0	0.12478781
41	0xbd754aea	-0.059885897
42	0x3e77c98b	0.24197976
43	0x3d00efb4	0.0314786
44	0x3e491074	0.19635183
45	0xbdf028e1	-0.11726547
46	0x3d46c17e	0.048524372
47	0xbe5fa02f	-0.21838449
48	0xbe31b4c4	-0.17354113
49	0x3e0189da	0.12650242
50	0x3de84c44	0.113426715
51	0x3eaee38c	0.3415798
52	0x3cac3882	0.021023039
53	0x3dc11f54	0.094298035
54	0x3ddfcc46	0.10927634
55	0xbe64934f	-0.22321819
56	0x3c550569	0.013001778
57	0xbe35a241	-0.17737676
58	0x3e396c17	0.18107639
59	0xbcf5ee83	-0.030020958
60	0x3e226d31	0.15861966
61	0x3e4a49f5	0.19754775
62	0xbd86bc2a	-0.06578858
63	0xbcfca18e	-0.030838754
64	0x3d612d1b	0.054974657
65	0xbcd1ebc4	-0.025625117
66	0xbe4f62eb	-0.20252578
67	0x3e8ec867	0.2788727
68	0xbcbe2cc5	-0.023214707
69	0x3e4bedb5	0.19914897
70	0xbe0658d9	-0.1311983
71	0xbce5fc8d	-0.028074527
72	0xbe4a8165	-0.19775923
73	0x3c0ef27a	0.008724803
74	0x3dbea624	0.093090326
75	0xbdc2070d	-0.09474001
76	0xbde77140	-0.113008976
77	0xbdf7136c	-0.12064251
78	0x3e435d94	0.19078666
79	0xbe49348f	-0.19648956
80	0x3e54dd73	0.20787601
81	0xbc769f02	-0.015052559
82	0x3d80aaea	0.06282599
83	0xbdc94d29	-0.0982917
84	0xbe087a82	-0.13327983
85	0x3dfe45b7	0.12415641
86	0x3cc6e4da	0.024279047
87	0xbd198524	-0.03748049
88	0xbdac3ec3	-0.08410408
89	0x3e2437c6	0.16036901
90	0x3e29a0ae	0.165652
91	0xbd0978d0	-0.03356248
92	0x3db76dd9	0.08956499
93	0xbe30b69a	-0.17257157
94	0xbd93da92	-0.07219423
95	0x3de90bcd	0.11379204
96	0xbd317b7c	-0.043330655
97	0xbda26c38	-0.07930797
98	0x3dc2b65d	0.09507439
99	0x3d1a28e7	0.037636664
100	0x3dccb321	0.099951036
101	0xbe3ba367	-0.18324052
102	0x3ca39de4	0.019972749
103	0xbe2db389	-0.16963018
104	0x3e1481ef	0.1450269
105	0xbcc5d625	-0.024149964
106	0x3e4002e5	0.18751104
107	0x3d93051e	0.071787104
108	0x3e86ab90	0.26302767
109	0xbe9b51d4	-0.30335867
110	0x3e08da46	0.13364515
111	0xba54e54b	-0.00081213255
112	0xbdd93f84	-0.10607818
113	0x3eb50fb4	0.35363543
114	0x3d99a639	0.075024076
115	0x3e7d0d0a	0.24712005
116	0xbccbf785	-0.0248983
117	0x3e44da16	0.19223818
118	0x3b144520	0.002262421
119	0xbcc01d8a	-0.023451585
120	0x3e28f0b1	0.16498066
121	0x3e0980c4	0.13428026
122	0x3e578400	0.21046448
123	0xbba899f0	-0.005145304
124	0x3e57390f	0.2101786
125	0x3e4ced08	0.20012295
126	0xbd047ec4	-0.032347456
127	0xbdc71023	-0.09719875
128	0x3da271cd	0.07931862
129	0xbdac2ff5	-0.084075846
130	0x3c1c4768	0.009538509
131	0x3e06fabd	0.13181587
132	0xbd8d36a1	-0.06895185
133	0x3e23342a	0.15937868
134	0xbe00fca2	-0.12596372
135	0x3e10866e	0.14113781
136	0xbdf5b51c	-0.119974345
137	0xbe561f1a	-0.20910302
138	0x3e134021	0.14379932
139	0xbdd363d5	-0.10321776
140	0xbe590ed9	-0.2119707
141	0xbc39fc78	-0.011351697
142	0xbcba9322	-0.022775237
143	0xbe3b6fb4	-0.1830433
144	0x3d2205be	0.039556257
145	0xbe3d139c	-0.18464512
146	0x3e29d61b	0.16585581
147	0xbe129ad7	-0.14316879
148	0xbe88564a	-0.26628333
149	0xbd7e6d99	-0.06211624
150	0xbd83ea57	-0.06441181
151	0xbcadfa29	-0.02123745
152	0xbcf543f3	-0.029939627
153	0xbd52d760	-0.05147493
154	0xbe0cdf58	-0.13757074
155	0xbe420db7	-0.18950544
156	0x3d2f2f73	0.04276986
157	0xbdbda75d	-0.09260438
158	0xbdbd3e18	-0.09240359
159	0xbe2de83f	-0.16983126
160	0xbe1c0f25	-0.15240152
161	0xbce04484	-0.02737642
162	0x3b7f5a4c	0.0038963733
163	0xbd060a75	-0.032724816
164	0xbe7b9d7b	-0.24571793
165	0x3c12d62e	0.008962197
166	0xbddea342	-0.10870983
167	0x3bb200f9	0.005432245
168	0x3e427d6a	0.18993154
169	0xbda5185e	-0.08061288
170	0xbd9635aa	-0.07334454
171	0xbe35099e	-0.1767945
172	0x3e7388ae	0.23782608
173	0xbe6dd16f	-0.23224424
174	0xbcd508d9	-0.026005195
175	0xbd917d86	-0.0710402
176	0xbe13d0ab	-0.1443507
177	0x3d023f3f	0.031798597
178	0x3d19f8dd	0.03759085
179	0x3da3a800	0.07991028
180	0xbdf9f9cd	-0.12205849
181	0x3dcdd83d	0.1005101
182	0xbdb6df88	-0.08929354
183	0xbcc4cb57	-0.024022741
184	0x3d9cc9a8	0.076556504
185	0x3d2ac689	0.041693244
186	0x3d90649a	0.07050438
187	0xbe632e62	-0.22185662
188	0xbc8019c8	-0.015637293
189	0x3d859712	0.06522955
190	0xbc528d2e	-0.012851043
191	0xbe0139e3	-0.12619738
192	0xbe9f8827	-0.31158563
193	0xbd8aa503	-0.06769755
194	0x3db45ef2	0.08807172
195	0xbe749417	-0.23884617
196	0xbc4e8efd	-0.012607333
197	0xbddc8748	-0.1076799
198	0x3c2dcf9a	0.010608578
199	0xbe557caf	-0.20848344
200	0xba602a82	-0.0008551256
201	0x3e109d1b	0.14122431
202	0xbe56e585	-0.20985992
203	0x3e1a5d56	0.15074667
204	0x3e651db6	0.22374615
205	0x3de1160f	0.109905355
206	0xbdb3b9ec	-0.08775696
207	0x3eb939fe	0.36177057
208	0xbe59c20d	-0.21265431
209	0x3d7930a1	0.06083739
210	0x3dabdd40	0.083918095
211	0x3e086281	0.13318826
212	0x3e3d9902	0.18515399
213	0x3e8cef52	0.27526337
214	0x3de2a561	0.110667
215	0xbe3fae9d	-0.18718953
216	0xbe0f7ae7	-0.14011727
217	0xbe021226	-0.12702236
218	0xbdef3bc1	-0.11681319
219	0x3da1b63b	0.07896086
220	0xbe39f709	-0.18160643
221	0x3e685819	0.22689857
222	0x3e707639	0.23482598
223	0xbe19142c	-0.14949101
224	0x3e79efa7	0.24407826
225	0x3ba123ec	0.0049176123
226	0xbde7fa38	-0.11327022
227	0x3e71ea3d	0.23624511
228	0x3e8bbb8e	0.2729153
229	0xbcb02144	-0.021500237
230	0x3dcded78	0.10055059
231	0x3e5f8757	0.21828972
232	0xbdd816b5	-0.10551206
233	0x3e0bc0c7	0.13647757
234	0xbe097be9	-0.13426174
235	0x3d48b60a	0.04900173
236	0xbe837e17	-0.25682136
237	0x3e42af02	0.19012073
238	0x3e09b43a	0.13447657
239	0xbd7fc539	-0.062443946
240	0xbde2f080	-0.11081028
241	0xbe9bab55	-0.30404153
242	0x3dcd5c96	0.10027425
243	0x3cd3fbe5	0.025876949
244	0x3cddfcb8	0.027098045
245	0xbd57dfd0	-0.05270368
246	0xbc4b1c5d	-0.012396899
247	0x3e229cc7	0.15880118
248	0x3c7de0f1	0.015495525
249	0xbcc457b2	-0.023967598
250	0x3db6ebbe	0.08931683
251	0x3e95a78a	0.29229385
252	0xbdb5e5fd	-0.088817574
253	0xbeafdebc	-0.3434962
254	0x3d56f49b	0.052479368
255	0x3d4ffe17	0.05077943
